ac_1d.pth (torch, 206600 bytes, 13 tensors)

input_layer.bias f4 [128]
0	0xbe438ddb	-0.19097082
1	0xbebfee6d	-0.37486592
2	0xbd148e15	-0.036268312
3	0xbe861124	-0.26184952
4	0xc0148dfe	-2.3211665
5	0x3fb946ae	1.4474695
6	0x3e85bd33	0.2612091
7	0xbe22c21c	-0.1589436
8	0xbe62c6d1	-0.22146155
9	0x3e626da4	0.22112137
10	0xbfa7235c	-1.3057666
11	0xbe74cddb	-0.23906653
12	0x3ee436d3	0.44573078
13	0x3f14c580	0.5811386
14	0xbddffa9e	-0.10936473
15	0x3e3e1f09	0.18566526
16	0xbefff362	-0.49990374
17	0xbea6b9dc	-0.32563674
18	0x3f386162	0.72023594
19	0xbf473fc6	-0.77831686
20	0xbea21f22	-0.31664377
21	0xbf3c3701	-0.7352143
22	0xbf32f51f	-0.69905275
23	0xbf2c56d8	-0.67320013
24	0x3f05e548	0.5230298
25	0xbdc09fc1	-0.09405471
26	0xbee1bda7	-0.44090006
27	0xbebbef67	-0.36706087
28	0x3e21cded	0.1580121
29	0xbf4beb0a	-0.79655516
30	0xbecdaab1	-0.4016929
31	0xbe888ea3	-0.26671323
32	0x3ecba481	0.39773944
33	0xbdfd7000	-0.12374878
34	0xbee9b285	-0.45644012
35	0xbecb3bbc	-0.3969401
36	0x3f195400	0.598938
37	0x3e8aef2c	0.271356
38	0x3cae421f	0.021271763
39	0x3ec7d4fe	0.39029688
40	0x3f0f6b28	0.5602288
41	0x3f54b9fb	0.83096284
42	0xbf65c759	-0.89757305
43	0x3d67498d	0.056466628
44	0x3d7949ef	0.060861524
45	0x3f98a66c	1.1925788
46	0xbfadce9b	-1.3578676
47	0x3f07a477	0.5298533
48	0xbea1fecf	-0.31639716
49	0x3e813b7f	0.25240704
50	0x3dbfab0e	0.09358798
51	0xbea92fbe	-0.33044237
52	0xbf1836ce	-0.59458625
53	0xbf6d14fb	-0.9261014
54	0xbfa5cb52	-1.2952673
55	0x3efca744	0.49346364
56	0x3f6234cb	0.88361806
57	0xbf2e134e	-0.67998207
58	0xbdf5f8dd	-0.120103575
59	0xbe22b010	-0.15887475
60	0x3f47171c	0.7776964
61	0x3d616c8b	0.055035155
62	0x3e05316b	0.13007133
63	0xbf0a055c	-0.5391443
64	0xbe771c89	-0.24131979
65	0x3e68d99d	0.22739263
66	0xbf3d5e69	-0.73972183
67	0xbe4c4da7	-0.19951497
68	0xbeb00898	-0.34381557
69	0x3f11a21d	0.5688799
70	0xbf845ad2	-1.0340216
71	0x3e0c675a	0.137113
72	0xbedda8bb	-0.43292794
73	0xbb9ce0d7	-0.004787545
74	0x3f58ba13	0.84658927
75	0xbf7d2208	-0.9888005
76	0xbea6be10	-0.3256688
77	0xbf3481ce	-0.70510566
78	0x3d8d3f10	0.06896794
79	0x3f9ed663	1.2409176
80	0xbdaec40b	-0.08533486
81	0x3eb73919	0.3578575
82	0xbfe7cdaa	-1.8109639
83	0x3f389913	0.7210857
84	0x3f1bfb90	0.6093073
85	0xbea5327d	-0.32265082
86	0xbf0af173	-0.5427467
87	0xbdf28c38	-0.11843151
88	0x3f0c1ad7	0.54728454
89	0xbe34a014	-0.1763919
90	0xbe6fd1bf	-0.23419856
91	0x3ebf0f4d	0.3731636
92	0xbecbcca4	-0.39804566
93	0xbe6bc1e2	-0.23023179
94	0x3f701f24	0.93797517
95	0xbe11339f	-0.14179848
96	0x3ef16e69	0.4715455
97	0xbf0146d1	-0.5049868
98	0x3f203fc0	0.62597275
99	0x3b06e126	0.0020580976
100	0x3f0e141f	0.5549945
101	0x3fc0be84	1.5058141
102	0xbea2d1dc	-0.31800735
103	0x3f3b2672	0.7310554
104	0x3e54e758	0.20791376
105	0x4028e923	2.6392295
106	0x3f23d615	0.6399854
107	0xbf828230	-1.019598
108	0x3e9bd378	0.30434775
109	0xbf1b7436	-0.607242
110	0x3e87f04b	0.26550516
111	0xbfd0faa8	-1.6326494
112	0xbf1d2766	-0.6138824
113	0xbf97ab6a	-1.1849186
114	0xbd3e73c2	-0.046497114
115	0xbea3e19a	-0.32008058
116	0xbdaa2d8e	-0.0830947
117	0x3f520274	0.82034993
118	0xbf487f59	-0.7831932
119	0x3f5580ab	0.83399457
120	0xbeee96cd	-0.46599427
121	0xbe2ca493	-0.16859655
122	0x3f806a8f	1.0032519
123	0x3ba80884	0.0051279683
124	0x3e1e8d5b	0.1548361
125	0x3f1c951a	0.6116501
126	0x3cb27551	0.021784456
127	0x3f37fff6	0.7187494

input_layer.weight_g f4 [128, 1]
0	0xbf328906	-0.6974033
1	0xc05e17f9	-3.4702132
2	0x3eaacf16	0.3336112
3	0x3f1858d6	0.5951055
4	0xc02072c0	-2.5070038
5	0x3fb1dd22	1.3895609
6	0x403e7552	2.9759107
7	0x3f24f781	0.6444016
8	0xbefc473c	-0.49273098
9	0xc036d3d2	-2.8566785
10	0x40bb3fcd	5.851538
11	0x3fc4b106	1.5366523
12	0x3e14ccf1	0.14531304
13	0x3f30d99a	0.69082034
14	0xc06d8797	-3.7114007
15	0xbeccb439	-0.3998125
16	0x3f6f6853	0.9351856
17	0x3f3996bf	0.72495645
18	0x3e391175	0.18073066
19	0x3f9b1629	1.2116138
20	0x3d47db10	0.0487929
21	0xc05fd9e2	-3.4976735
22	0xbf155558	-0.5833335
23	0xbf2a42cb	-0.6650817
24	0x3f35a7e5	0.7095931
25	0xbfa016a1	-1.2506906
26	0x3f5c749f	0.8611545
27	0x3e71066d	0.23537607
28	0x3efdaf44	0.4954778
29	0xbf4d37fc	-0.8016355
30	0x3f760939	0.9610782
31	0x3ece86bd	0.40337172
32	0x3ea49460	0.3214445
33	0x3ec5856a	0.3857835
34	0x3f4f0a8d	0.80875474
35	0x3f0b608f	0.5444421
36	0xbf45ba73	-0.77237624
37	0x3f9e5b59	1.2371627
38	0xbeda03ce	-0.42581028
39	0x3f115128	0.5676446
40	0xbe885e5a	-0.26634485
41	0x3f5a507d	0.85279065
42	0x3eb09400	0.34487915
43	0xbed6a48e	-0.4192242
44	0x3fd5dcef	1.6708049
45	0x3fb09f7c	1.3798671
46	0xbf8c5c81	-1.096573
47	0x3fa5b3ee	1.2945535
48	0x3f39357c	0.72347236
49	0x3eabb341	0.33535197
50	0xbecc65b1	-0.39921334
51	0xbf080373	-0.53130263
52	0xbf54ed3d	-0.83174497
53	0x3f60a4ef	0.8775167
54	0xbf93204d	-1.1494232
55	0x3f871fb7	1.0556554
56	0xbf0f7b4f	-0.5604753
57	0xbf436d80	-0.7633896
58	0x3efa81a9	0.48927048
59	0x3e05faa1	0.13083889
60	0xbf4cf222	-0.80056965
61	0x3f8f9ed5	1.1220347
62	0xbec13d7d	-0.37742224
63	0x3f7a757b	0.9783551
64	0x3ef3d596	0.4762389
65	0xbf39f7c8	-0.7264371
66	0xbf287103	-0.6579744
67	0x3e3881c7	0.18018256
68	0xbfdf860b	-1.7462782
69	0x3f0974ba	0.53693736
70	0x3f8119ed	1.0086037
71	0xbf4477dc	-0.7674539
72	0x3eb13971	0.34614137
73	0xbec658b8	-0.38739562
74	0xbf619808	-0.88122606
75	0xbf6659c7	-0.8998074
76	0xbec7c0f0	-0.39014387
77	0x3f718d74	0.94356465
78	0xbf16a36a	-0.588431
79	0xbf9f8f9c	-1.2465701
80	0xbec7d43f	-0.39029118
81	0x3ed1dd75	0.4098927
82	0x3f2f8f61	0.68578154
83	0xc06bfc7e	-3.687286
84	0x3fa4744a	1.2847989
85	0xbe949593	-0.29020366
86	0xbef577f3	-0.47943076
87	0xbed46c13	-0.41488704
88	0x3f7119c9	0.9417997
89	0x3f19349d	0.59845906
90	0xbe747e13	-0.23876218
91	0xbf0b0829	-0.54309326
92	0x3f84e4b2	1.0382292
93	0xbeee3e56	-0.46531934
94	0xc002fe48	-2.04677
95	0x3eeac919	0.4585655
96	0xbf976140	-1.1826553
97	0xbbaa1b23	-0.005191223
98	0x3fd41311	1.6568319
99	0xbe90735d	-0.28213015
100	0xbf13d72e	-0.57750213
101	0x3fc6acbb	1.5521463
102	0x3f9b64b4	1.2140107
103	0x3f80ccc3	1.0062488
104	0x3f039da9	0.51412445
105	0xbfce4ad1	-1.6116582
106	0x3f050eb3	0.51975554
107	0x3f9b9abc	1.2156596
108	0x3f0c37d0	0.54772663
109	0xbf274124	-0.6533377
110	0x3f4ff2bb	0.8122975
111	0x3f3e35c7	0.7430081
112	0xc0672c06	-3.612062
113	0x3e51f8ae	0.2050502
114	0x3f32be61	0.69821745
115	0x3f4866c2	0.78281796
116	0x3f29f491	0.66388804
117	0x3ecd3db5	0.4008614
118	0x3f869001	1.0512697
119	0x3f702c3a	0.93817484
120	0xbe8bc9b7	-0.27302334
121	0x3eb5a6ec	0.35478914
122	0x3f7b74c0	0.9822502
123	0xc01b3b8e	-2.42551
124	0x3ed0effd	0.40808097
125	0xbe4cb71c	-0.19991726
126	0xc0316093	-2.7715194
127	0x3f185ef3	0.5951988

input_layer.weight_v f4 [128, 2]
0	0xbf72ad20	-0.9479542
1	0xbf56d598	-0.8391967
2	0xbf951eb5	-1.1649996
3	0xbfb5eaec	-1.4212317
4	0xbf532b53	-0.8248798
5	0x3f402e14	0.7507031
6	0xbf3193fa	-0.6936642
7	0xbfc2854a	-1.5196927
8	0x3f02c3a8	0.510798
9	0xc06847c3	-3.62938
10	0x3e80b871	0.25140718
11	0xbfc68ca4	-1.551167
12	0x40495c3c	3.1462545
13	0xbddea0e4	-0.10870531
14	0x406f7d3f	3.7420194
15	0x3f8d1ff0	1.1025372
16	0x3fcdb285	1.6070105
17	0x3f6f5a1f	0.9349689
18	0xbe83d7b5	-0.2575051
19	0xc00060bd	-2.0059044
20	0x3fa35a37	1.2761906
21	0xc081f5ed	-4.06127
22	0xbfd55227	-1.6665696
23	0xbf0d61b4	-0.5522721
24	0xbf8d7204	-1.105042
25	0x3efe2cdd	0.49643603
26	0x3d20b4fb	0.039235096
27	0x3fc2324e	1.5171602
28	0xbf121052	-0.5705615
29	0xc0283e3a	-2.628798
30	0xbf8fb679	-1.1227561
31	0x3f8f2bc5	1.1185232
32	0xbf885014	-1.0649438
33	0xbcb81334	-0.022470094
34	0xbfe64270	-1.7989025
35	0x3f43c657	0.7647452
36	0xbf1e9803	-0.619507
37	0x3f75ad09	0.95967156
38	0xbfd15ccb	-1.6356443
39	0xbec47477	-0.38370106
40	0xbfc78d66	-1.5590026
41	0x3e80edde	0.25181478
42	0x3ef62cde	0.48081106
43	0x3fd78e7e	1.684036
44	0xbf296ac4	-0.66178536
45	0x3fab24d5	1.3370615
46	0xbeabc9fc	-0.3355254
47	0x3fbce51c	1.4757419
48	0x3f89608f	1.0732592
49	0xbfebe797	-1.8430051
50	0x3e9338d4	0.28754294
51	0xbfb23b84	-1.3924413
52	0x3fc5c900	1.5451965
53	0x3f63860c	0.88876414
54	0xbeb5ae15	-0.35484377
55	0xbfbebdf1	-1.4901716
56	0x3f13ef71	0.57787234
57	0x3fda2bbf	1.70446
58	0xbecb727d	-0.39735785
59	0x3fb6e320	1.4288063
60	0x3f91aac5	1.138024
61	0x3f05d742	0.5228158
62	0x3dbe1b26	0.09282522
63	0x3f9bff53	1.2187294
64	0xbf6f03a2	-0.9336492
65	0xbf626fb7	-0.88451713
66	0x3fdd3429	1.7281543
67	0xbd23d2fe	-0.03999614
68	0xbf86eb7e	-1.0540617
69	0x3f919729	1.1374255
70	0x3ec525dd	0.3850545
71	0xbfac762d	-1.3473564
72	0x3f62ce7c	0.8859632
73	0x3f61aa75	0.8815072
74	0x3fd2476c	1.6428046
75	0xbf2e3fca	-0.68066084
76	0x3e34a8eb	0.17642562
77	0x3fa67d19	1.3006927
78	0x3e873b7b	0.26412567
79	0x3fbfd4de	1.4986837
80	0xbf8d55a4	-1.104176
81	0x3f636959	0.8883262
82	0x40452fd9	3.0810454
83	0xbf034042	-0.51269925
84	0xbeb04666	-0.3442871
85	0xbfca7c59	-1.5819198
86	0x3e7c2818	0.2462467
87	0x3fa6c125	1.3027693
88	0x3fc9ecc0	1.5775375
89	0xbd9d8e77	-0.07693189
90	0x3f80d726	1.0065658
91	0x3fab9ea5	1.340779
92	0xbf89d9f3	-1.0769638
93	0x3fd6f70e	1.6794145
94	0x3fad19ad	1.3523461
95	0xbf7ced75	-0.9879983
96	0x3f49aea5	0.7878211
97	0x3f23e309	0.64018303
98	0x3c124d07	0.008929498
99	0xbf9614bd	-1.1725079
100	0x3f0d1dc1	0.55123526
101	0xbfdd6e8b	-1.729936
102	0xbed7d2e1	-0.42153075
103	0x3fd6d33f	1.6783217
104	0x3e4b029a	0.19825211
105	0x3fba8459	1.4571639
106	0xc004697c	-2.0689383
107	0xbda0c576	-0.07850163
108	0x3d86de63	0.06585386
109	0xbfe3a84b	-1.7785734
110	0x3f88dc6b	1.0692266
111	0x3e657a23	0.22409873
112	0xbe162e4f	-0.14666103
113	0xbf8f869d	-1.1212956
114	0xbdfbed61	-0.12301136
115	0x3f911755	1.1335245
116	0x3f3d5687	0.73960155
117	0x3f6e01b9	0.9297138
118	0x3f854621	1.0412027
119	0x3ec2a284	0.38014615
120	0x3ee2155d	0.44156924
121	0xbfb14ad8	-1.3850965
122	0x3f8f179c	1.117908
123	0xbe0e1f5d	-0.13879152
124	0xbee76e4a	-0.4520133
125	0x3fee7e67	1.8632325
126	0x3fc9e5ae	1.5773218
127	0x3f5709ca	0.8399931
128	0x3da28d40	0.079370975
129	0xbf92a8bd	-1.1457745
130	0x3fb5ea1a	1.4212067
131	0xbf2b49da	-0.66909564
132	0x3ebbf873	0.3671299
133	0xc00602fd	-2.0939324
134	0xbf97a239	-1.1846381
135	0xbd4667bd	-0.048438776
136	0x3e358c03	0.17729191
137	0xbfeb43e4	-1.8380094
138	0xbc56233f	-0.013069927
139	0xbfc11528	-1.5084581
140	0x3d6cc82d	0.05780809
141	0x3fb08ae9	1.3792392
142	0x3f20f697	0.62876266
143	0x3ee0e46a	0.43924266
144	0x3f51b778	0.81920576
145	0xbf474078	-0.77832747
146	0xbec355aa	-0.38151294
147	0x3f9a12b7	1.2036961
148	0x3f6d530e	0.92704856
149	0xbfadc261	-1.3574945
150	0xbef72d15	-0.48276582
151	0xbf8fe107	-1.1240548
152	0xbf8cb7ff	-1.0993651
153	0x3f83b383	1.0289158
154	0xbf4299e8	-0.7601609
155	0x3fd2fc9d	1.6483341
156	0xbf81b50b	-1.0133375
157	0xbf9be3cd	-1.2178894
158	0xbed2599f	-0.41084
159	0x3fd5e607	1.6710824
160	0x3c47b4da	0.0121891145
161	0xbfae94a9	-1.3639117
162	0x3e660355	0.22462209
163	0x3fa4b3b1	1.2867337
164	0xbfcd48a0	-1.6037788
165	0xbe4fcd81	-0.20293237
166	0x3fa1a7e2	1.2629359
167	0x3fb60f1d	1.4223362
168	0x3fbd09d0	1.476862
169	0x3f00bde3	0.50289744
170	0xbf1c7ffb	-0.6113278
171	0x3fd77391	1.6832143
172	0xbf5523e5	-0.83257896
173	0xbf71de9d	-0.94480306
174	0xbea50599	-0.32230833
175	0x3fa6d515	1.3033777
176	0x3f802a9e	1.0013006
177	0xbdf385c0	-0.11890745
178	0xbf85f02f	-1.0463923
179	0xbfb28484	-1.394669
180	0x3f7fb421	0.9988423
181	0xbf2aaf3f	-0.66673654
182	0x3d349ce4	0.044094935
183	0xbfaf0216	-1.3672512
184	0xbfdc7366	-1.7222717
185	0x3db67cf9	0.089105554
186	0xbe0bd82d	-0.13656683
187	0x3fa9879d	1.3244511
188	0x4007c49f	2.1213758
189	0xbf0fdd5f	-0.5619716
190	0x3ecf2bb1	0.4046302
191	0x3fd2bec0	1.6464462
192	0x3fc14a1f	1.5100745
193	0xbf0d7154	-0.5525105
194	0x3f55a19a	0.8344971
195	0xbf519dab	-0.8188121
196	0xc0014b60	-2.0202255
197	0x3ec09a9a	0.37617952
198	0xbf164df5	-0.58712703
199	0x3fa97b20	1.32407
200	0x3f08d403	0.53448504
201	0x3f9a93df	1.2076377
202	0x3ec9bb0a	0.39400512
203	0xbfba0d97	-1.4535397
204	0xbf885836	-1.065192
205	0x3f309229	0.6897302
206	0x3f8dbeaa	1.1073811
207	0x3e46282f	0.19351266
208	0x3f237ba4	0.63860536
209	0x4000793d	2.0073998
210	0x3fcf6810	1.6203632
211	0x400bc9c3	2.1841896
212	0xbfa44a1b	-1.2835115
213	0xbf9471bf	-1.1597213
214	0xbf3691c7	-0.7131619
215	0x3fb8ee60	1.4447746
216	0x3e896c45	0.26840416
217	0x3fd31c4c	1.649301
218	0xbf03f7b2	-0.5154983
219	0x3fdf0155	1.7422282
220	0xbf9c4ef4	-1.2211595
221	0xbf4a8101	-0.79103094
222	0xbff215c4	-1.8912892
223	0xbeb4fe9e	-0.35350507
224	0xbff6c686	-1.9279335
225	0xbfaf0b68	-1.3675356
226	0x3f636cd9	0.88837963
227	0xbf7ca8da	-0.9869515
228	0x3f501718	0.8128524
229	0x3f22201f	0.6333026
230	0x3f7d5142	0.98952115
231	0x3f102a7d	0.5631483
232	0xbf7ad960	-0.9798794
233	0xbf853162	-1.0405695
234	0xbf08f16c	-0.5349338
235	0x3f5e629a	0.86869204
236	0xbf5490b0	-0.83033276
237	0x3fedce82	1.8578646
238	0x3fca56a7	1.5807694
239	0x3e50f748	0.2040683
240	0x4005adf7	2.088743
241	0x3eb37317	0.35048744
242	0x3dfd154a	0.12357576
243	0xbf91c955	-1.1389567
244	0x3d6fc9ac	0.05854194
245	0xbfd35e22	-1.6513102
246	0x3ec134ac	0.37735498
247	0xbfc3c26a	-1.5293705
248	0xbe38cdf2	-0.18047312
249	0xbfbd5286	-1.4790809
250	0xc014d9f1	-2.325802
251	0xbea0c8c0	-0.3140316
252	0xbeaccdd2	-0.33750778
253	0x401b8813	2.4301803
254	0x3dfc29ac	0.12312636
255	0xbfc78d51	-1.5590001

hidden_layers.0.layer.bias f4 [128]
0	0xbfae8a0c	-1.3635879
1	0xbf647012	-0.89233506
2	0x3f71b5ce	0.94418037
3	0x3f8ab61d	1.0836827
4	0xbf8ba630	-1.0910091
5	0x3fa882b1	1.3164884
6	0xbf30fa48	-0.691319
7	0xbfb6c593	-1.4279045
8	0xbfaa3d21	-1.3299905
9	0x3f80722f	1.0034846
10	0xbf2c2f0a	-0.67259276
11	0x3f78c561	0.97176176
12	0xbf904176	-1.1269977
13	0xbf57b4f2	-0.84260476
14	0x3f8753da	1.0572464
15	0xbf91758d	-1.1363999
16	0xbf9522a9	-1.1651202
17	0x3f86a71a	1.0519745
18	0x3f8fa428	1.1221972
19	0x3f930999	1.1487304
20	0xbfb2c7cc	-1.3967223
21	0xbf85ce96	-1.045367
22	0x3f932599	1.1495849
23	0x3f9d2095	1.2275568
24	0x3f86a72d	1.0519768
25	0xbf957ac6	-1.1678092
26	0xbf9cb4f4	-1.2242723
27	0x3f7facc8	0.9987302
28	0xbf99f3c4	-1.2027516
29	0x3f94d412	1.1627219
30	0xbf94500b	-1.1586927
31	0x3f8c2b65	1.0950743
32	0xbf908a06	-1.1292121
33	0xbf881534	-1.0631471
34	0xbfb811fe	-1.4380491
35	0xbf4df4ae	-0.80451477
36	0xbf920f43	-1.1410908
37	0x3f59559a	0.8489624
38	0xbfc09649	-1.5045863
39	0x3fa11dc1	1.2587205
40	0x3f86fcf2	1.0545943
41	0x3fb7e9b9	1.4368201
42	0xbfabe9ae	-1.3430688
43	0xbf93e108	-1.1553049
44	0x3f9f2326	1.2432601
45	0x3f8d267a	1.1027367
46	0xbf887d3b	-1.0663217
47	0x3f94e717	1.1633023
48	0x3f836927	1.0266465
49	0xbf7a9a4a	-0.97891676
50	0xbf97648b	-1.1827558
51	0x3f205374	0.6262734
52	0xbf9c5e54	-1.2216287
53	0x3f9302f8	1.1485281
54	0xbf971c00	-1.180542
55	0xbf82373b	-1.0173105
56	0x3fa17a0d	1.2615372
57	0xbf7d1484	-0.9885943
58	0xbf8b964b	-1.0905241
59	0x3f96b9a4	1.1775403
60	0x3fadfdac	1.359304
61	0x3f5951c6	0.848904
62	0x3e80704c	0.25085676
63	0x3f981bda	1.18835
64	0xbf7a82bf	-0.9785575
65	0x3f9b7ab9	1.2146827
66	0x3f768396	0.96294534
67	0xbf8a3ed8	-1.0800428
68	0xbf9267fc	-1.1437984
69	0xbf91eb5d	-1.1399952
70	0xbf76bff5	-0.96386653
71	0x3fa6c54f	1.3028964
72	0x3f911d30	1.1337032
73	0xbf907189	-1.1284648
74	0x3fe8da4e	1.8191621
75	0xbf933db4	-1.1503205
76	0x3f88f69c	1.0700259
77	0xbf97b510	-1.1852131
78	0xbf8f8b7e	-1.1214445
79	0x3fb639c6	1.4236381
80	0xbf90a167	-1.1299256
81	0x3f9a9332	1.207617
82	0x3f8b7485	1.0894934
83	0xbf905524	-1.1275983
84	0x3f964ef5	1.1742846
85	0xbfc06754	-1.5031533
86	0xbfb5f202	-1.421448
87	0xbf8d2480	-1.1026764
88	0xbfab8369	-1.3399478
89	0x3f982141	1.1885148
90	0x3f98e9d9	1.1946365
91	0x3f84627c	1.0342555
92	0xbf25eba8	-0.6481271
93	0xbfa5cdf1	-1.2953473
94	0xbf8cd31f	-1.1001929
95	0x3fc7c1ce	1.560602
96	0xbf91ff3d	-1.1406018
97	0xbf71d48c	-0.94464946
98	0x3f820b27	1.0159653
99	0x3f9c4600	1.2208862
100	0x3f950830	1.1643124
101	0xbf52c80d	-0.82336503
102	0xbf901f7e	-1.1259611
103	0xbf9221d8	-1.1416578
104	0xbf8ab072	-1.0835097
105	0xbf8f8a96	-1.1214168
106	0xbf606eba	-0.87668955
107	0xbf7be980	-0.9840317
108	0xbfae12ae	-1.359945
109	0xbf70d842	-0.94079983
110	0x3fac7970	1.347456
111	0x3fa8354e	1.3141267
112	0x3f9e37b0	1.2360744
113	0xbf91362d	-1.1344658
114	0x3f821cae	1.0165002
115	0xbf86cc07	-1.0531014
116	0x3f00edfb	0.5036313
117	0x3f98363e	1.1891553
118	0xbf808900	-1.0041809
119	0x3f7458c9	0.95447975
120	0x3f37d7fe	0.7181395
121	0xbfe8699e	-1.8157232
122	0x3f6ecdfc	0.9328306
123	0x3f83d2c3	1.0298694
124	0xbf9b2f91	-1.2123891
125	0xbf9b7334	-1.2144532
126	0x3c2f77f5	0.010709752
127	0xbf7db344	-0.9910166

hidden_layers.0.layer.weight_g f4 [128, 1]
0	0xbf016983	-0.50551623
1	0xbf0c0111	-0.5468913
2	0xbec90da9	-0.39268234
3	0xbeaad679	-0.33366755
4	0xbe437f07	-0.19091426
5	0x40221359	2.532431
6	0x40143b14	2.3161058
7	0x40385245	2.8800213
8	0xbe2b0c06	-0.16703805
9	0x3f5d4a65	0.8644164
10	0xbd8c1727	-0.068403535
11	0xbec89ce7	-0.39182207
12	0xbefd8bbf	-0.4952068
13	0xbf10cf6a	-0.5656649
14	0xbf5dcd25	-0.8664115
15	0xbeb11db5	-0.34592977
16	0x4004b7a9	2.0737097
17	0xbe3aaeea	-0.18230787
18	0xbf0eb4c6	-0.5574459
19	0xbe638624	-0.2221914
20	0xbeff186b	-0.49823317
21	0xbf0b70f7	-0.54469246
22	0xbf2e050c	-0.6797645
23	0xbec120f7	-0.37720463
24	0xbeeefd4a	-0.4667762
25	0xbef87ad0	-0.48531199
26	0x3f74f862	0.956915
27	0xbf07595f	-0.52870744
28	0xbf3df09f	-0.74195284
29	0xc02cbb64	-2.6989374
30	0xbe9fdd48	-0.31223512
31	0xbea9a567	-0.33134004
32	0xbe4234e6	-0.18965492
33	0xbf0d3593	-0.5515987
34	0x402b6d47	2.6785448
35	0xbf20abdf	-0.62762254
36	0x400e276d	2.2211564
37	0xbfbd312f	-1.4780635
38	0xbea81b7a	-0.32833463
39	0x3fee9087	1.8637856
40	0xbecf043c	-0.40432918
41	0x400385e4	2.055047
42	0x401881f8	2.3829327
43	0xbdead308	-0.11466032
44	0xbf208de3	-0.627165
45	0xbf10f5b7	-0.5662493
46	0xbedfa14d	-0.4367775
47	0xbdcfc48f	-0.101449125
48	0xbf5ab927	-0.8543877
49	0xbf151e28	-0.5824914
50	0xbf3e0314	-0.74223447
51	0xbfcb21d0	-1.5869694
52	0xbf3b38ea	-0.7313372
53	0xbec153f4	-0.37759364
54	0xbd865022	-0.06558253
55	0xbef82918	-0.48468852
56	0xbf0cb159	-0.5495811
57	0xbda72d0d	-0.0816289
58	0xbf0d30c6	-0.5515255
59	0xbf81690d	-1.0110184
60	0x3fe3ed49	1.7806789
61	0xbf26f897	-0.6522307
62	0xbfd963b1	-1.6983548
63	0xbe5a3f91	-0.21313311
64	0x3f04887c	0.5177076
65	0x3f6acee4	0.9172194
66	0x3ee3d32f	0.44497058
67	0xbf08f0a0	-0.53492165
68	0xbf0f3d1a	-0.5595261
69	0x400be71f	2.1859815
70	0x3e9317a8	0.28728986
71	0x4012020d	2.2813752
72	0x3efd4840	0.49469185
73	0xbf1a604e	-0.603032
74	0x3f4ff680	0.81235504
75	0xbf15f305	-0.58573943
76	0xbecd8fe3	-0.4014884
77	0xbf3e84d9	-0.7442146
78	0xbee3c2f8	-0.44484687
79	0xbf249680	-0.64292145
80	0xbf2ab2d6	-0.6667913
81	0x4001fea9	2.0311682
82	0xbe44e576	-0.19228157
83	0x3f5ab763	0.85436076
84	0x3ec21f21	0.37914374
85	0x3fb30f8a	1.3989117
86	0x402b01bd	2.671981
87	0xbebe1910	-0.37128496
88	0x3fc0bb18	1.5057096
89	0xbee35e3a	-0.44407827
90	0xbec8163c	-0.39079463
91	0xbef5380c	-0.47894323
92	0xbf8ae3c3	-1.0850757
93	0x3fe784d5	1.8087412
94	0xbe9652a3	-0.29359922
95	0x405b0368	3.422083
96	0xbe083656	-0.13301978
97	0xbed37c0e	-0.41305584
98	0xbf025207	-0.50906414
99	0x3f84a2c3	1.0362171
100	0xbe84c4a3	-0.25931272
101	0xbfededcf	-1.8588198
102	0xbedbba99	-0.429158
103	0x3f85ad74	1.0443559
104	0xbeabca65	-0.33552852
105	0xbe772ca1	-0.24138118
106	0xbf50dfd6	-0.81591547
107	0xbf1acfdb	-0.6047341
108	0x403652de	2.8488078
109	0xbeb2c805	-0.34918228
110	0x4011d31f	2.2785108
111	0xbf03d4f4	-0.51496816
112	0x3d5dba40	0.0541327
113	0xbf06c50e	-0.5264443
114	0xbf34e9c1	-0.7066918
115	0xbf315e7d	-0.692848
116	0xc001f6f1	-2.030697
117	0xbed64280	-0.4184761
118	0xbea54615	-0.3228003
119	0xbec6b3b4	-0.38808978
120	0xbff66c11	-1.9251729
121	0x3eb24629	0.34819153
122	0xbebb1bb8	-0.36544585
123	0xbeecce18	-0.46250987
124	0xbec25bc2	-0.3796063
125	0x40115676	2.2709022
126	0xbfa47c7b	-1.2850488
127	0xbf164678	-0.58701277

hidden_layers.0.layer.weight_v f4 [128, 128]
0	0x3f77aebf	0.96751016
1	0xbf4062cd	-0.7515076
2	0x3f53a61d	0.82675344
3	0xbf80f309	-1.0074168
4	0x3f244a04	0.6417544
5	0xbf607704	-0.87681603
6	0x3f44fdc2	0.76949704
7	0x3f517310	0.81816196
8	0xbf6c7104	-0.9235995
9	0xbf6004d6	-0.8750738
10	0x3f9a1b16	1.2039516
11	0x3fabfaf7	1.3435963
12	0x3f6fa4ec	0.93611026
13	0x3f660b3a	0.8986088
14	0xbf5ad554	-0.8548176
15	0xbf342282	-0.70365155
16	0xbf852941	-1.0403215
17	0xbf8595b0	-1.0436306
18	0xbf6be796	-0.9215025
19	0x3f6d750f	0.9275674
20	0x3f5a5c88	0.8529744
21	0x3f8b0193	1.0859855
22	0xbf52137e	-0.8206099
23	0xbf90b869	-1.1306278
24	0xbf8fa1a9	-1.122121
25	0xbf74464f	-0.9541978
26	0x3f1d135b	0.6135766
27	0xbf7ac935	-0.9796327
28	0x3f85d3d1	1.0455266
29	0xbf65e112	-0.89796555
30	0x3f83818d	1.0273911
31	0x3f512a64	0.8170531
32	0xbf746fe0	-0.9548321
33	0x3f4c309e	0.79761684
34	0x3f7874f2	0.97053444
35	0xbf87353a	-1.0563118
36	0xbf4cc919	-0.7999435
37	0xbf5a2076	-0.8520578
38	0xbf48ea75	-0.78482753
39	0x3f871680	1.0553741
40	0xbf821142	-1.0161517
41	0xbf5fc821	-0.8741475
42	0xbf5b97fb	-0.8577878
43	0xbf43df99	-0.7651306
44	0x3f6fc5b0	0.9366102
45	0xbf81eec1	-1.0150987
46	0xbf828a4b	-1.0198454
47	0xbf8c9507	-1.098298
48	0x3f6b182e	0.9183377
49	0xbf4c0bf6	-0.7970575
50	0x3f77be13	0.96774405
51	0xbf21f99f	-0.63271517
52	0xbf91da5b	-1.1394762
53	0x3f5981c8	0.84963655
54	0x3f59ed3f	0.85127634
55	0x3f9188f2	1.1369917
56	0x3f896bc6	1.0736015
57	0xbf803a3d	-1.0017773
58	0x3f44b7c9	0.76842934
59	0xbfc7f330	-1.562109
60	0x3f7cb16a	0.9870821
61	0x3f4b7ae1	0.79484373
62	0xbf6d897f	-0.9278793
63	0x3f32d362	0.69853795
64	0xbf4e407a	-0.80567133
65	0x3f6a72a4	0.9158118
66	0x3f73e5e1	0.9527264
67	0xbf793110	-0.9734049
68	0xbf40cd45	-0.75313216
69	0xbf7a8fec	-0.9787586
70	0x3f7097d0	0.9398165
71	0xbfb0d7fe	-1.3815916
72	0xbf77cf25	-0.9680045
73	0xbf50ee34	-0.8161347
74	0x3fd63632	1.6735289
75	0x3f5ca972	0.86196053
76	0xbf605fb8	-0.87646055
77	0x3f2a5c28	0.6654687
78	0x3f47f7a5	0.7811225
79	0xbf39816d	-0.72463113
80	0x3f654475	0.8955758
81	0x3f8a91fd	1.0825802
82	0x3f33cab1	0.7023116
83	0x3f759d6b	0.95943326
84	0xbf93ddcd	-1.1552063
85	0xbf88a2dc	-1.0674701
86	0x3f688667	0.9083008
87	0xbf83b47c	-1.0289454
88	0x3fab2858	1.3371687
89	0xbf2d0804	-0.67590356
90	0x3f687f00	0.90818787
91	0x3f628a54	0.8849232
92	0x3f89e46f	1.0772837
93	0xbf7d0b12	-0.98845017
94	0xbf6a0cf6	-0.91426027
95	0x3f6d74fe	0.9275664
96	0x3f5fde56	0.8744863
97	0x3f8a35d8	1.0797682
98	0x400867d7	2.131338
99	0xbf3dc960	-0.741354
100	0xbf38d6c1	-0.7220269
101	0xbf71aae8	-0.9440141
102	0xbfa483d2	-1.2852728
103	0x3fb34ed6	1.4008434
104	0x3f3f6db6	0.7477678
105	0x3fadb2f2	1.3570235
106	0xbf67063f	-0.90243906
107	0x3f6b5c6d	0.91937906
108	0x3f50ad71	0.8151465
109	0xbf8efa4b	-1.1170133
110	0xbf3b7f95	-0.7324155
111	0x3f387cc5	0.72065383
112	0xbf6268f1	-0.8844138
113	0x3f686249	0.9077497
114	0x3f48fae4	0.7850783
115	0x3f6027b6	0.87560594
116	0xbf6f6124	-0.935076
117	0x3f5da8b7	0.86585563
118	0x3f835c7c	1.0262599
119	0xbf1b1874	-0.6058419
120	0xbf3ed614	-0.7454541
121	0xbf8f5d7b	-1.1200403
122	0xbf4f2aa8	-0.80924463
123	0xbf4b9fd3	-0.7954075
124	0xbf74079d	-0.95324117
125	0x3f4124cb	0.75446767
126	0x3f83e512	1.0304282
127	0xbf44c172	-0.76857674
128	0x3f64e0a8	0.894053
129	0xbf99715c	-1.198772
130	0x3f5b960b	0.8577582
131	0xbf71cea7	-0.9445595
132	0x3f16e894	0.58948636
133	0xbf4ce838	-0.8004184
134	0xbf8eb4d3	-1.1148933
135	0x3f507965	0.81435233
136	0xbf65a1c1	-0.8969994
137	0xbf56e858	-0.8394828
138	0x3f733ddc	0.95016265
139	0xbf326a30	-0.6969328
140	0x3f5e8e47	0.8693585
141	0x3f4338ca	0.7625853
142	0xbf5c36f5	-0.8602136
143	0xbf692694	-0.9107449
144	0xbf69b83c	-0.91296744
145	0xbf650e09	-0.8947454
146	0xbf242c11	-0.6412974
147	0x3f6c84aa	0.9238993
148	0x3f6b00a2	0.9179784
149	0x3f6aa230	0.9165373
150	0xbf45d1d7	-0.77273315
151	0xbf761a2d	-0.9613369
152	0x3f11b667	0.5691895
153	0xbf3f9dfc	-0.7485044
154	0x3f39d972	0.7259742
155	0xbf65c847	-0.89758724
156	0x3f74d483	0.9563677
157	0xbf2e2f31	-0.6804076
158	0xbf97acd5	-1.1849619
159	0x3f734d08	0.95039415
160	0xbf5c78f7	-0.8612208
161	0x3f331898	0.699594
162	0x3f60729b	0.87674874
163	0xbf5fc1e2	-0.87405217
164	0xbf6fa377	-0.936088
165	0x3f76921e	0.9631671
166	0xbf65c3b5	-0.8975175
167	0x3f5e28cc	0.86781
168	0xbe832589	-0.25614575
169	0xbf41d761	-0.7571927
170	0xbf4ca501	-0.79939276
171	0xbf47e54f	-0.7808427
172	0x3ed7e893	0.42169628
173	0xbf02206d	-0.5083073
174	0x3f79dd08	0.9760289
175	0xbf53f92c	-0.8280208
176	0x3f76711e	0.96266353
177	0xbf67c282	-0.9053117
178	0x3f4d7155	0.80251056
179	0xbf6f5d65	-0.93501884
180	0xbf5599a5	-0.8343757
181	0x3f5df1de	0.86697185
182	0x3f715c6b	0.94281644
183	0x3f3c93f9	0.7366329
184	0x3e519de6	0.2047039
185	0xbf422894	-0.7584317
186	0x3f72d86f	0.948615
187	0x3edb3bdf	0.42819116
188	0x3f629316	0.88505685
189	0x3e39aa60	0.18131399
190	0xbf2b7bb3	-0.66985625
191	0xbfa6a67e	-1.3019559
192	0xbf496f7d	-0.7868574
193	0x3de3aa42	0.111164585
194	0x3f5c24f6	0.859939
195	0x3f321a79	0.69571644
196	0xbf6b6c6c	-0.91962314
197	0xbf5947a1	-0.8487492
198	0x3f5963ec	0.84918094
199	0x3f743909	0.9539953
200	0xbf76be9b	-0.9638459
201	0xbf42340d	-0.75860673
202	0xbf5b3fa6	-0.85643995
203	0x3f6f499d	0.934717
204	0xbf5c5cac	-0.86078906
205	0xbf13449a	-0.5752655
206	0x3f54557d	0.82942945
207	0xbf616b32	-0.8805419
208	0x3f760ce0	0.96113396
209	0x3f348252	0.70511353
210	0x3f6080e7	0.8769669
211	0x3f745bb0	0.95452404
212	0x3f5df090	0.86695194
213	0xbf68e91d	-0.909807
214	0x3f697d6e	0.91207016
215	0xbf558708	-0.83409166
216	0xbf944b1c	-1.1585422
217	0xbf6f78b1	-0.93543535
218	0x3f017788	0.50573015
219	0x3f735158	0.95045996
220	0x3e1936cd	0.14962311
221	0xbf6fa21a	-0.9360672
222	0xbf84ee78	-1.0385275
223	0x3f736d36	0.9508852
224	0xbe7e5d0a	-0.24840179
225	0xbf955212	-1.1665671
226	0xbf51d7ea	-0.81970084
227	0xbf77ac31	-0.9674712
228	0xbf44b12e	-0.76832855
229	0xbf3c83ee	-0.7363881
230	0xbf656973	-0.8961403
231	0xbf872f09	-1.0561229
232	0x3f435cbb	0.7631337
233	0xbf5186ab	-0.8184611
234	0xbf47a8ab	-0.7799174
235	0x3f20d01b	0.62817544
236	0x3f7a3671	0.9773932
237	0xbf292c1e	-0.6608294
238	0xbf3aa137	-0.72902244
239	0x3f54c08a	0.8310629
240	0xbf61c086	-0.8818439
241	0x3f66d1e2	0.90164006
242	0x3f204fda	0.62621844
243	0x3f1d54c9	0.61457497
244	0xbf5ce20d	-0.86282426
245	0x3f6d6812	0.92736924
246	0x3f0e2b5e	0.55534923
247	0xbf6a0480	-0.91413116
248	0xbf3bf480	-0.7341995
249	0xbf5e44c7	-0.86823696
250	0xbf5f6376	-0.8726114
251	0xbf69ca15	-0.9132398
252	0xbf664d4f	-0.89961714
253	0x3f46c06c	0.7763736
254	0x3f7996c6	0.97495687
255	0xbf616b4f	-0.88054365

hidden_layers.1.layer.bias f4 [128]
0	0x3f4554b3	0.77082366
1	0x3fc080f1	1.503935
2	0x3f53dab2	0.8275558
3	0xbf414324	-0.75493073
4	0x3f242b06	0.6412815
5	0x3f828fd1	1.0200139
6	0xbf2baa6c	-0.6705692
7	0xbe2d86c9	-0.16945948
8	0x3d1419c5	0.03615739
9	0xbf1bffae	-0.6093701
10	0x3e5c0f30	0.21490169
11	0x3e81f035	0.25378576
12	0x3f20f856	0.6287893
13	0x3f46e8cf	0.7769899
14	0x3e366a51	0.17813994
15	0xbf1d4b46	-0.61442983
16	0x3f8473dc	1.0347857
17	0xbf82936d	-1.0201241
18	0x3f1b1ce0	0.60590935
19	0xbf8b935c	-1.0904346
20	0xbfb3f28b	-1.4058393
21	0x3ef7f771	0.4843097
22	0x3fa3ab26	1.2786605
23	0x3e039ecf	0.1285355
24	0x3d5ee45a	0.05441699
25	0x3f2bcd6e	0.67110336
26	0xbe584d96	-0.21123347
27	0xbe468e81	-0.19390298
28	0xbfa0fb10	-1.2576618
29	0xbf289934	-0.6585877
30	0x3fdbe0e0	1.7178001
31	0xbf887bf6	-1.066283
32	0xbf46a5ff	-0.7759704
33	0x3f03310f	0.5124673
34	0xbf830c0c	-1.0238051
35	0xbf13664c	-0.5757797
36	0x3f5f6e48	0.8727765
37	0xbfa79c9e	-1.3094671
38	0x3ec02537	0.37528393
39	0xbf974f6b	-1.1821111
40	0xbeb7c4bc	-0.35892284
41	0x3f74ea3f	0.9566993
42	0xbf856644	-1.0421834
43	0x3f18048f	0.59381956
44	0xbf6ac6fd	-0.9170988
45	0xbf0f9f40	-0.5610237
46	0xbf0cdcfc	-0.55024695
47	0x3f1bc130	0.60841656
48	0x3fa5af50	1.2944126
49	0xbf0a1ff7	-0.53955024
50	0x3f0a5761	0.5403958
51	0x3f75ea8d	0.9606102
52	0x3fbae34f	1.4600619
53	0xbf363897	-0.711801
54	0x3f87b7db	1.0602983
55	0xbe8c8848	-0.27447724
56	0xbf613bbb	-0.87981766
57	0xbf3a45f7	-0.7276301
58	0xbe2252f5	-0.15851958
59	0xbf6b1155	-0.9182332
60	0x3f594105	0.84864837
61	0xbf9a0667	-1.2033204
62	0x3faf8c8c	1.3714767
63	0x3f41b691	0.756692
64	0xbf17bc38	-0.59271574
65	0x3f494d5b	0.7863366
66	0x3f38cb4a	0.72185194
67	0xbeecc121	-0.46241096
68	0x3f372c3d	0.7155188
69	0x3f973993	1.1814445
70	0x3f229e10	0.63522434
71	0xbf31086b	-0.6915347
72	0x3eadcb72	0.3394428
73	0x3f71a2e8	0.943892
74	0xbd4a40a4	-0.049378052
75	0xbf3eddd4	-0.7455723
76	0xbf80e88b	-1.0070966
77	0xbf4ac12b	-0.79201
78	0xbd951d49	-0.07280976
79	0x3f29c08e	0.6630944
80	0xbf8672c6	-1.0503776
81	0xbf7955a1	-0.97396284
82	0x3e0b600e	0.1361086
83	0x3f79b5ae	0.97542846
84	0x3f91767a	1.1364281
85	0x3f7541e0	0.9580364
86	0xbeebb991	-0.46040013
87	0xbf77351a	-0.965654
88	0xbf195c66	-0.59906614
89	0xbf5ac972	-0.8546363
90	0x3f2ab73c	0.66685843
91	0x3f28acc9	0.6588865
92	0xbf131546	-0.57454336
93	0xbf5c1001	-0.8596192
94	0xbf4334fa	-0.7625271
95	0xbe12169e	-0.1426644
96	0x3f356994	0.70864224
97	0xbed9ee08	-0.42564416
98	0x3f77fc1e	0.96869075
99	0xbf7a5eac	-0.9780071
100	0x3f1c0092	0.6093837
101	0x3fc54a92	1.5413382
102	0x3e4aedc4	0.19817263
103	0x3f386c5c	0.72040343
104	0xbf200bab	-0.62517804
105	0x3eb29b00	0.3488388
106	0xbf4adc59	-0.79242474
107	0x3f9c9f7e	1.2236173
108	0x3f3212e1	0.69560057
109	0xbf120091	-0.57032114
110	0x3f4d125c	0.8010614
111	0x3f65c30a	0.8975073
112	0xbf49c5ed	-0.78817636
113	0xbf71925c	-0.9436395
114	0xbf15ccaa	-0.5851542
115	0xbe4a3d76	-0.19750008
116	0xbf5df9ff	-0.8670959
117	0xbf2de445	-0.67926437
118	0xbf9b0801	-1.2111818
119	0x3f118772	0.568473
120	0xbf640d33	-0.8908264
121	0x3f903e46	1.1269004
122	0xbf5c874b	-0.8614394
123	0x3f3b376f	0.7313146
124	0xbf266791	-0.6500178
125	0x3f99b3bc	1.2007976
126	0x3f9d0a0a	1.2268689
127	0x3f85672a	1.0422108

hidden_layers.1.layer.weight_g f4 [128, 1]
0	0xbe532782	-0.2062054
1	0xbfd2824b	-1.6446012
2	0xbe224109	-0.15845121
3	0xbf64af66	-0.89330137
4	0xbe351745	-0.17684658
5	0xbf0a8810	-0.54113865
6	0x3da8031e	0.082037196
7	0x3f9f024a	1.2422574
8	0x3fa17e47	1.2616662
9	0xbf533dc9	-0.8251615
10	0x3e502715	0.20327409
11	0xc0058c48	-2.086687
12	0xbde66af0	-0.112508655
13	0x3cc15025	0.023597786
14	0x3fc2d477	1.5221089
15	0xc083ae9e	-4.1150656
16	0xc0059f9a	-2.0878663
17	0xbeb5f69a	-0.35539705
18	0x3edadc8a	0.42746383
19	0x3f5a9a93	0.8539211
20	0xbe80f20b	-0.25184664
21	0x3ec8a4dc	0.39188278
22	0xc00ec229	-2.2306006
23	0x3f933ceb	1.1502966
24	0x3d7c9c15	0.06167229
25	0x3fe0e968	1.757123
26	0xc09705ce	-4.7194586
27	0xc0c09e79	-6.019345
28	0xc0010e13	-2.016484
29	0x3eb214a8	0.34781384
30	0x3f1dbe50	0.6161852
31	0xbf36780e	-0.7127694
32	0xbfbcac9e	-1.4740179
33	0xbf6e9d99	-0.93209225
34	0xbfcb1d9d	-1.5868412
35	0xbf9607e2	-1.1721156
36	0x3fec4af3	1.8460373
37	0x3f27260b	0.65292424
38	0x3f54fccb	0.8319823
39	0xbf691541	-0.91048056
40	0xbf375baf	-0.71624273
41	0xbfdc2357	-1.7198285
42	0xbfc9fb36	-1.5779788
43	0xbf5453d5	-0.8294042
44	0x3fcd0e81	1.6020051
45	0xbf8819be	-1.0632856
46	0x3fd9fe65	1.703076
47	0xbe217476	-0.15767083
48	0x3c933a70	0.017972201
49	0xbef6738b	-0.48135027
50	0x3e4bb8b3	0.19894676
51	0xc04b0423	-3.1721275
52	0x3cb80a60	0.022465885
53	0x3db4407a	0.088013604
54	0xc02c36b8	-2.6908398
55	0x3eb7ff1d	0.35936823
56	0x3fd7fa1b	1.6873201
57	0xc0feb8da	-7.960065
58	0xbf362244	-0.71146035
59	0xbfce48e3	-1.6115993
60	0xc00f2c5d	-2.2370827
61	0xbe8b7a4f	-0.27241752
62	0x3d35a327	0.044345047
63	0xbeb4d8e9	-0.3532174
64	0xbe760b61	-0.24027778
65	0xc07b5f2a	-3.9276834
66	0x3e6714d8	0.22566545
67	0x3e8098b5	0.25116506
68	0xbfef69d9	-1.8704177
69	0xbf5ae3c7	-0.8550381
70	0xbd2c37a8	-0.042045265
71	0xbea37a7a	-0.3192938
72	0x3e634ebb	0.22198002
73	0xbf8504f1	-1.0392133
74	0x3fc62ee7	1.5483063
75	0xc03df64e	-2.9681582
76	0xbf3af530	-0.73030376
77	0x3caa2537	0.020769699
78	0x3f950897	1.1643246
79	0xbfa2e3f1	-1.2725812
80	0xbffec357	-1.9903363
81	0xc000ca5c	-2.012351
82	0xbfaffd86	-1.3749244
83	0xbf4d0c08	-0.80096483
84	0xbeae6222	-0.34059244
85	0xc031cefb	-2.778258
86	0xbf6720a8	-0.90284204
87	0xbff2ae6a	-1.8959477
88	0x3f99fe74	1.2030778
89	0xbf4a3544	-0.78987527
90	0x3e796778	0.24355876
91	0xbe36bc5e	-0.17845294
92	0x3e657b61	0.22410347
93	0x3ff3c726	1.904515
94	0xbe38cb71	-0.18046357
95	0x3fcc5409	1.5963145
96	0x3fd6c80b	1.6779798
97	0x3ff7de60	1.9364738
98	0xc04f89d6	-3.2427878
99	0xc05b9255	-3.4308064
100	0xbdf48b44	-0.11940625
101	0x3f0d2330	0.55131817
102	0x3fc678b5	1.5505587
103	0x3d825a02	0.06364824
104	0xbe8c02a0	-0.27345753
105	0x3fc2de17	1.5224026
106	0xbf6d8800	-0.92785645
107	0xbf06be9e	-0.5263461
108	0x3e284522	0.16432622
109	0xbf4590c4	-0.7717402
110	0xbf505e64	-0.8139403
111	0xbf9b9803	-1.2155765
112	0xc00628db	-2.0962436
113	0x3fefd000	1.8735352
114	0xbf4b330c	-0.79374766
115	0x3ffadb00	1.9598083
116	0xc0b0f987	-5.53046
117	0xc09b181a	-4.846692
118	0xc076f865	-3.8589108
119	0x3e9ba04a	0.30395728
120	0xc02bb940	-2.6831818
121	0xbf7a3308	-0.9773412
122	0x3d23f032	0.04002399
123	0xbf88e2ba	-1.0694191
124	0xbe0a7a5d	-0.1352324
125	0xbf249f0e	-0.643052
126	0xc002ae82	-2.041901
127	0xbfd1a70f	-1.6379107

hidden_layers.1.layer.weight_v f4 [128, 128]
0	0x3f4ac3d9	0.7920509
1	0x3f5a67ea	0.8531481
2	0xbf7e191e	-0.99257076
3	0xbf6d7784	-0.9276049
4	0x3f66629b	0.8999421
5	0x3f4fef3b	0.8122441
6	0xbf8eca4a	-1.1155484
7	0xbf5f5b1a	-0.87248385
8	0x3f5e485c	0.8682916
9	0xbfbb7171	-1.4643995
10	0xbf634023	-0.8876974
11	0xbf6255f5	-0.8841241
12	0x3f588b5d	0.8458765
13	0x3f0c57a9	0.5482126
14	0xbf5c2101	-0.8598786
15	0x3f69db20	0.91349983
16	0xbf9d79f3	-1.2302841
17	0xbf75d22e	-0.96023834
18	0xbf51abd4	-0.81902814
19	0xbf4ef143	-0.80836886
20	0x3f704930	0.93861675
21	0x3f50a40e	0.8150033
22	0xbf6b4a57	-0.9191031
23	0xbf37c376	-0.71782625
24	0xbf7761b0	-0.96633434
25	0x3f409c1e	0.75238216
26	0xbf97f0b6	-1.1870334
27	0xbf7342e2	-0.9502393
28	0x3f607f63	0.87694377
29	0xbf101f4d	-0.5629776
30	0x3f402c16	0.7506727
31	0xbf65f49d	-0.89826375
32	0x3f7f0cbc	0.99628806
33	0x3f5b5f55	0.8569234
34	0xbf915aa8	-1.1355791
35	0x3f541d9d	0.82857686
36	0xbf64b27d	-0.8933485
37	0xbf5c4c3a	-0.8605381
38	0x3f448ff9	0.76782185
39	0x3f967fd4	1.175776
40	0xbf636873	-0.8883125
41	0x3e9eddff	0.31028745
42	0xbf6c5efa	-0.9233242
43	0x3f50a811	0.8150645
44	0xbf5dfa49	-0.8671003
45	0xbf7881ca	-0.9707304
46	0x3f2776d7	0.6541571
47	0xbf59d9dc	-0.8509805
48	0xbf5ecfaa	-0.8703562
49	0x3f43298c	0.7623527
50	0x3f583f5e	0.8447169
51	0x3dd383c0	0.10327864
52	0x3f40bb5b	0.7528588
53	0xbf5ae1e8	-0.85500956
54	0x3f301f36	0.68797624
55	0x3f7fea80	0.99967194
56	0xbf5a5dc3	-0.8529932
57	0x3f63d627	0.88998646
58	0x3f619668	0.88120127
59	0xbf7ddb83	-0.99163073
60	0xbf22d04f	-0.63599104
61	0xbf6b3d46	-0.9189037
62	0x3f4c57eb	0.7982165
63	0xbf080edd	-0.5314768
64	0xbf999e5c	-1.2001452
65	0xbe629794	-0.22128135
66	0xbf327df8	-0.69723463
67	0x3f541ca8	0.82856226
68	0x3f607319	0.87675625
69	0xbf8249e6	-1.0178802
70	0xbf780ceb	-0.9689471
71	0x3f33b70f	0.702012
72	0x3ea1c9ea	0.3159936
73	0x3e6460bc	0.22302526
74	0xbf554b6b	-0.83318204
75	0x3f55b2c8	0.83475924
76	0xbf571caa	-0.8402811
77	0x3f8185ea	1.0118992
78	0x3f83dc16	1.030154
79	0xbf388c7a	-0.7208935
80	0x3f6ea05e	0.9321345
81	0x3f5048f6	0.8136133
82	0xbf5929bc	-0.84829307
83	0x3f45a8ed	0.77210885
84	0x3f774f68	0.9660554
85	0xbd25ca14	-0.04047592
86	0xbf8f941f	-1.1217078
87	0x3f6f1fdc	0.9340799
88	0xbf152876	-0.58264863
89	0xbf305914	-0.6888592
90	0xbf5c83a2	-0.86138356
91	0xbf808d5e	-1.0043142
92	0x3f72d337	0.9485354
93	0xbf86061b	-1.0470613
94	0x3f4b29d6	0.7936071
95	0xbf18eb07	-0.59733623
96	0x3f3c27b9	0.7349811
97	0x3f6e1618	0.9300246
98	0xbf6ff6bd	-0.9373587
99	0x3dda226c	0.10651097
100	0xbf43c526	-0.764727
101	0x3f4a464e	0.79013526
102	0x3f7ecb91	0.9952937
103	0x3d0b9190	0.034074366
104	0x3f786ac5	0.9703792
105	0x3f43bffb	0.76464814
106	0x3f56ff66	0.8398346
107	0x3f80bcea	1.0057652
108	0xbf6df11b	-0.9294602
109	0x3f7694a4	0.9632056
110	0x3f8a8268	1.0821047
111	0xbf6e42bf	-0.93070596
112	0xbf2af348	-0.6677747
113	0x3f4e3502	0.80549634
114	0xbf65b65d	-0.8973139
115	0x3f5adb42	0.8549081
116	0xbf62d1b5	-0.8860124
117	0xbf52c58b	-0.82332677
118	0x3f81e597	1.014819
119	0xbf5a1bd1	-0.85198694
120	0xbf7f1f2e	-0.9965695
121	0x3f6b5d4a	0.9193922
122	0xbf6c6f8e	-0.9235772
123	0xbf74e153	-0.9565632
124	0x3f782459	0.9693046
125	0x3c514f82	0.012775304
126	0xbf6426c1	-0.89121634
127	0x3f697c33	0.9120514
128	0x3f0b2a45	0.54361373
129	0x3f88db2f	1.069189
130	0xbf5f4b6d	-0.87224466
131	0xbf27497e	-0.65346515
132	0x3f0ef33c	0.55839896
133	0x3f84b387	1.0367287
134	0xc0048c7a	-2.071074
135	0xbf5a1a2d	-0.8519619
136	0x3ebade4e	0.3649773
137	0xc0152045	-2.3300946
138	0xbf70835e	-0.9395045
139	0xbf71056e	-0.9414891
140	0x3f705b20	0.93889046
141	0xbe113d25	-0.14183481
142	0xbf5f3910	-0.87196445
143	0x3f69d468	0.9133973
144	0xbf77be64	-0.9677489
145	0xbf455f38	-0.7709842
146	0xbf28b895	-0.6590665
147	0xbeda0e7b	-0.42589173
148	0x3f2b1f08	0.66844225
149	0x3f59f8ee	0.8514546
150	0xbf55a566	-0.83455503
151	0xbee44f4b	-0.44591746
152	0xbf56613f	-0.83742136
153	0x3e9060b1	0.2819877
154	0xbf471e82	-0.77780926
155	0xbf75f8b2	-0.96082604
156	0x3ef6d8c9	0.4821227
157	0xbd75d144	-0.060014024
158	0x3f003c61	0.5009213
159	0xbf2f2348	-0.6841321
160	0x3f4b5edc	0.7944162
161	0x3f4043a2	0.751032
162	0xbf966b8a	-1.1751568
163	0x3f3de33a	0.74174845
164	0xbf46413d	-0.77443296
165	0xbed992cb	-0.42494807
166	0x3e88d1c7	0.26722547
167	0x3f3ffcae	0.74994934
168	0xbf248861	-0.642706
169	0x3f79efb4	0.9763138
170	0xbf5b3022	-0.8562032
171	0x3f1af4ae	0.605296
172	0xbf454a4f	-0.7706651
173	0xbf2f1970	-0.6839819
174	0x3f0ed9e2	0.5580121
175	0x3db1cf13	0.086820744
176	0xbf710e35	-0.94162303
177	0x3f27d6a1	0.6556187
178	0x3f203133	0.6257507
179	0x3ef284f5	0.47367063
180	0x3ec5856a	0.3857835
181	0xbf18d228	-0.59695673
182	0xbd7cbc1f	-0.061702844
183	0x3f775009	0.966065
184	0xbf36a66b	-0.71347684
185	0x3e86326a	0.26210338
186	0x3f6b6440	0.91949844
187	0xbf670b2e	-0.90251434
188	0x3f414227	0.75491565
189	0xbf47f77a	-0.78111994
190	0xbe8d59df	-0.2760763
191	0xbe4650fb	-0.19366829
192	0xbeddea1d	-0.43342677
193	0x3f205fdf	0.6264629
194	0x3e5ca0a2	0.21545652
195	0x3f4eb11e	0.8073901
196	0x3f0e000a	0.5546881
197	0xbf893090	-1.0717945
198	0xbf7598f8	-0.95936537
199	0x3f8d043b	1.1016916
200	0x3eca9b3b	0.39571556
201	0xbe137c53	-0.14402895
202	0xbf0eefaa	-0.5583445
203	0xbeb8d831	-0.3610244
204	0xbf3b7602	-0.7322694
205	0x3f62974d	0.88512117
206	0x3f620629	0.8829065
207	0xbee9a867	-0.45636293
208	0x3ef05f79	0.4694784
209	0x3f8de8e1	1.1086694
210	0xbf2e4f1b	-0.68089455
211	0x3e00b9a2	0.12570813
212	0x3ebafd44	0.3652135
213	0x3d41d4f8	0.047322243
214	0xbf895f1d	-1.0732151
215	0x3ec0dafc	0.37667072
216	0xbf432c32	-0.7623931
217	0xbe590b8b	-0.2119581
218	0xbf7233c9	-0.9461027
219	0xbf412428	-0.75445795
220	0x3f59f242	0.8513528
221	0xbf47b804	-0.7801516
222	0xbe4cce13	-0.20000486
223	0x3e641232	0.22272566
224	0x3f1a1ae7	0.601973
225	0x3f59b185	0.850365
226	0xbf5f6fc2	-0.87279904
227	0x3f33b627	0.7019982
228	0xbe3f9869	-0.18710484
229	0x3f812b82	1.0091403
230	0x3f604cf2	0.8761741
231	0xbe6d538a	-0.23176399
232	0x3f18a3ab	0.5962474
233	0x3f2a7d40	0.66597366
234	0x3f6c8c6a	0.92401755
235	0x3f66f232	0.9021331
236	0xbf84156e	-1.031904
237	0x3f1b71d0	0.6072054
238	0x3f8cb344	1.0992208
239	0x3ae88518	0.001773986
240	0x3ef5e435	0.4802567
241	0x3f724e3b	0.9465062
242	0xbf39a17b	-0.72512025
243	0x3f6b2f12	0.918687
244	0xbd943b88	-0.07237917
245	0xbf85d69f	-1.0456122
246	0x3f52561b	0.82162637
247	0xbf653eb6	-0.89548814
248	0xbf9bd800	-1.2175293
249	0x3ece901b	0.4034432
250	0xbf52ffa8	-0.8242135
251	0xbf35835e	-0.70903575
252	0x3f5b6380	0.856987
253	0xbf8e74e8	-1.1129427
254	0xbefb3a70	-0.49068022
255	0x3f60830e	0.87699974

hidden_layers.2.layer.bias f4 [128]
0	0x3ec2484b	0.3794578
1	0xbf54cede	-0.83128154
2	0x3f6049b4	0.8761246
3	0xc08020e1	-4.0040135
4	0xbed12e29	-0.4085553
5	0xbed99fa1	-0.425046
6	0xbf556692	-0.83359635
7	0x3fc7a612	1.5597556
8	0xc035bfc0	-2.8398285
9	0x3f5e5f2e	0.8686398
10	0x3f0a44b0	0.5401106
11	0x3e9fa2be	0.3117885
12	0x3f288ee5	0.6584304
13	0x3e936225	0.28785816
14	0xbf303398	-0.68828726
15	0xbf4c7fad	-0.7988232
16	0x3ea2e977	0.31818745
17	0x3f6e5ec9	0.9311338
18	0x3f4cd0a4	0.8000586
19	0xbfd8674b	-1.6906523
20	0xbeeb0f99	-0.45910338
21	0x3f03b591	0.51448923
22	0x3f66aa4c	0.901036
23	0x3f299e4a	0.66257155
24	0xbf694e64	-0.9113524
25	0x3f19f1e5	0.60134727
26	0xc00c1c16	-2.1892142
27	0xbe89fb8a	-0.26949722
28	0x3eeb8f95	0.46007982
29	0x3f15789c	0.5838716
30	0xbf2f8344	-0.6855967
31	0xbf1a880f	-0.6036386
32	0x3f0d304a	0.5515181
33	0x3f189373	0.5959999
34	0x3f383261	0.7195187
35	0x3fab1dbe	1.3368452
36	0xbf0b5ef5	-0.5444177
37	0x3fb579cf	1.4177798
38	0xbf6cd72f	-0.92515844
39	0x3f407139	0.75172764
40	0xc017186f	-2.3608663
41	0x3f26f961	0.6522427
42	0xbe6da68d	-0.23208065
43	0xbfaf146a	-1.3678105
44	0xbc753a09	-0.01496745
45	0x3e4f0ffe	0.20220944
46	0xbf8ecde9	-1.1156589
47	0xbf2b1a91	-0.6683741
48	0x3f322c50	0.69598866
49	0xbf322814	-0.69592404
50	0xbf36360b	-0.71176213
51	0xbf66530a	-0.8997046
52	0x3f56978f	0.8382501
53	0xbf47ea08	-0.7809148
54	0xbe9c99b1	-0.30586007
55	0x3f2b9e88	0.67038774
56	0x3f4f0df1	0.8088065
57	0x3f58b053	0.8464405
58	0xbee6987b	-0.45038208
59	0xbf620a6d	-0.8829716
60	0xbf3432e1	-0.70390135
61	0x3fe4c305	1.7872015
62	0x3f9f6820	1.2453651
63	0x3e064f38	0.13116157
64	0x3f1ca491	0.6118861
65	0xbf1beef9	-0.6091152
66	0x3e19fa94	0.15036994
67	0xbfb8ff36	-1.4452884
68	0xbe9ce6b0	-0.3064475
69	0x3f41628f	0.75541013
70	0xbf4beea3	-0.79661006
71	0xbeed3007	-0.46325704
72	0x3f17d240	0.5930519
73	0x3f44706e	0.76734054
74	0x3ef575b5	0.47941366
75	0x3f60b3d3	0.8777439
76	0x3ea2c5a1	0.31791404
77	0x3f7633da	0.9617287
78	0xbf33f6eb	-0.7029864
79	0xbf367c9c	-0.7128389
80	0x3e9473e2	0.28994662
81	0xbe058004	-0.13037115
82	0x3e94333c	0.2894534
83	0x3f79f141	0.9763375
84	0xbf1854ba	-0.5950428
85	0x3f5b232e	0.85600555
86	0xbfca2aeb	-1.5794348
87	0xbf779379	-0.967094
88	0xbf6e2f6f	-0.9304113
89	0xbecd310a	-0.40076476
90	0x3e990fb5	0.29894796
91	0x3f3910db	0.72291344
92	0xbf110044	-0.5664103
93	0xbe9fcd2d	-0.31211224
94	0xbf143e83	-0.57907885
95	0xbf209699	-0.62729794
96	0xbf603abb	-0.87589616
97	0xbe19599a	-0.14975587
98	0x3f331071	0.6994696
99	0x3eddaefe	0.4329757
100	0xbf2a1333	-0.66435546
101	0x3f264971	0.6495581
102	0xbf329317	-0.6975569
103	0xbe770c96	-0.24125895
104	0xbf60ba6f	-0.87784475
105	0x3f191452	0.5979663
106	0x3f0a368c	0.5398948
107	0x3f677172	0.9040748
108	0xbf6ddd42	-0.9291574
109	0xbfa19039	-1.2622138
110	0xbea9c2a6	-0.33156317
111	0xbf289ac9	-0.65861183
112	0x3f0cc7e3	0.549925
113	0x3f067d26	0.5253471
114	0xbed7fc8d	-0.42184868
115	0x3ead5faf	0.33862063
116	0x3f7e93e1	0.99444395
117	0xbf1c8c5c	-0.6115167
118	0x3f41005b	0.7539117
119	0xbee7bb84	-0.4526025
120	0x402ce402	2.7014165
121	0x3f3ed54c	0.74544215
122	0x3f16eb8e	0.5895318
123	0xbdb451f6	-0.08804695
124	0x3f465261	0.7746945
125	0xbf65e24a	-0.89798415
126	0xbf5e05da	-0.8672768
127	0xbed1fb54	-0.4101206

hidden_layers.2.layer.weight_g f4 [128, 1]
0	0x3ef1a0af	0.47192904
1	0xbf1723b4	-0.59038854
2	0xbeb62ecf	-0.35582587
3	0x3e883844	0.26605427
4	0xbedd1020	-0.43176365
5	0x3f3e3a91	0.74308115
6	0xbd847af2	-0.064687625
7	0x3fe7b2de	1.8101461
8	0x3fec19ae	1.8445337
9	0xbf14b561	-0.5808926
10	0x3f55ad08	0.8346715
11	0x3edb4e46	0.42833155
12	0xbf634d38	-0.887897
13	0x3f051106	0.519791
14	0xbd1c8c6e	-0.03821986
15	0xbf441636	-0.7659639
16	0xbf203cf1	-0.6259299
17	0x4019f21b	2.405402
18	0xbfa32926	-1.2746933
19	0xbfaa78a4	-1.3318067
20	0xbfc3aca5	-1.5287062
21	0xbf818fe8	-1.0122042
22	0xbf050121	-0.5195485
23	0x40c7ed71	6.2477345
24	0x3f720e04	0.94552636
25	0xbedd19c0	-0.43183708
26	0x400277f0	2.0385704
27	0xbf834678	-1.025588
28	0xbf756822	-0.9586202
29	0xbf834d61	-1.0257989
30	0x3eb57f70	0.3544879
31	0xbfb6a955	-1.4270426
32	0xbf75ecb6	-0.9606432
33	0x3e42822f	0.18994974
34	0xbed7ce91	-0.42149785
35	0x3fb1cac3	1.3890003
36	0xbf7ce937	-0.9879336
37	0xc034e1a1	-2.8262713
38	0xbebd9a08	-0.3703158
39	0xc010ba0c	-2.2613554
40	0x401d985b	2.462424
41	0xbf34d8b8	-0.70643187
42	0xbf906522	-1.1280863
43	0x3fbf7e02	1.496033
44	0xbf8ed730	-1.115942
45	0xc062db33	-3.5446289
46	0x40d8a474	6.770075
47	0xbfd4084e	-1.6565034
48	0xbe5b4f8e	-0.21417066
49	0xc01ae26e	-2.4200702
50	0xbf49d669	-0.7884279
51	0xbf05cfe5	-0.52270347
52	0xbf06116f	-0.5237035
53	0x3fb3bf07	1.4042672
54	0xc011a0a6	-2.2754302
55	0x3f471daf	0.7777967
56	0xbf12c55f	-0.57332414
57	0xbef87106	-0.4852373
58	0x3eb98772	0.3623615
59	0xbf0b611b	-0.54445046
60	0xbf2a8fa7	-0.66625446
61	0xbf8f3c7c	-1.1190333
62	0xc0cb2c0f	-6.3491282
63	0xbf911ca2	-1.1336863
64	0xc00b3c0f	-2.1755407
65	0x3dd303bc	0.10303447
66	0xc0453204	-3.0811777
67	0x3feedc79	1.8661033
68	0x3f0da6ac	0.55332446
69	0xbf1fa57e	-0.62361896
70	0x3fe7aae6	1.8099029
71	0x3f0da16e	0.5532445
72	0xbf47e938	-0.7809024
73	0xbf11e162	-0.5698453
74	0xbf81d5d9	-1.0143386
75	0xbe7eb80b	-0.24874894
76	0x3f0e9bb7	0.5570635
77	0xbfe11c05	-1.7586676
78	0xbf2b1c40	-0.6683998
79	0xbe67e5e7	-0.22646295
80	0x3fafc5cc	1.3732238
81	0xbfc1a548	-1.5128565
82	0x3f0cf5c5	0.55062515
83	0xbeed41d8	-0.46339297
84	0x3e6be676	0.23037133
85	0xbf010bbb	-0.50408524
86	0x3fccea9a	1.6009095
87	0x3f102ce4	0.563185
88	0x3f951d5d	1.1649586
89	0xbf887de3	-1.0663418
90	0x3fbb45f1	1.463072
91	0xbf0a5b77	-0.54045814
92	0xbf65d676	-0.89780366
93	0x3f0eae4b	0.557347
94	0xbf35e08c	-0.71045756
95	0xbf307dd9	-0.6894203
96	0xbeef3a07	-0.4672396
97	0x3f514a9e	0.8175448
98	0xbf448254	-0.76761365
99	0xbf859eda	-1.0439103
100	0xbf1a1162	-0.60182774
101	0xbf651cb6	-0.89496934
102	0xbf0c6025	-0.54834205
103	0xbfbc62a6	-1.4717605
104	0xbeb62763	-0.35576925
105	0xbf989956	-1.1921794
106	0xbf811ff0	-1.0087872
107	0x3ec30281	0.38087848
108	0xbf02eb89	-0.5114065
109	0x3fa01fb8	1.250968
110	0x3f851834	1.0398011
111	0xbf409124	-0.75221467
112	0x3ed9179d	0.42400828
113	0xbe84ceed	-0.25939122
114	0x3f8bd7e1	1.0925256
115	0xbf81e4b5	-1.0147921
116	0xbee7c40b	-0.45266756
117	0xbf2a5ccc	-0.66547847
118	0xbed100c1	-0.40820888
119	0xbfa53d9d	-1.2909428
120	0x4009754d	2.1477845
121	0xbf4e3298	-0.8054595
122	0xbf451dbb	-0.7699849
123	0xc0064eb7	-2.0985544
124	0xbf17cef0	-0.59300137
125	0xbee8ed67	-0.45493624
126	0xbeeb81ba	-0.4599741
127	0x3ecc208d	0.39868584
