bg_1d.pth (torch, 206600 bytes, 13 tensors)

input_layer.bias f4 [128]
0	0xc006340a	-2.0969262
1	0x3fd51404	1.6646733
2	0x3ff38306	1.902436
3	0xbe13e1b3	-0.14441566
4	0x3f81f874	1.0153947
5	0x3f46bca5	0.776316
6	0x400043e4	2.0041437
7	0xc02f22c6	-2.7364974
8	0xc0a33fa6	-5.1015196
9	0xbaee1991	-0.0018165578
10	0xbdca646e	-0.09882437
11	0x4074d5ee	3.8255572
12	0xbec13c77	-0.37741444
13	0xbfc75b36	-1.557471
14	0xbea963ad	-0.3308386
15	0xbf4dcbb4	-0.8038895
16	0xbf1d1276	-0.61356294
17	0x3fd8b216	1.6929348
18	0x3de86330	0.113470435
19	0xbf370f5c	-0.7150781
20	0x3fe81990	1.8132801
21	0xc0864b09	-4.1966596
22	0xbfcee17d	-1.6162564
23	0xbff5e916	-1.9211757
24	0xbde6879b	-0.112563334
25	0x3d55d7e0	0.052207828
26	0xbf4ef9bb	-0.8084981
27	0xbf22c504	-0.6358187
28	0xbffe9a38	-1.9890814
29	0xbfa6539f	-1.2994269
30	0x40730ddf	3.7977216
31	0x3f8968de	1.0735128
32	0xbe93a4f3	-0.28836784
33	0x3f868209	1.0508434
34	0xc0e1199d	-7.0343766
35	0xbe627750	-0.22115827
36	0x3d3b1388	0.045672923
37	0xbf882e3a	-1.0639107
38	0x3e0a7d18	0.13524282
39	0x3edaed7b	0.42759308
40	0x3d1d290b	0.03836922
41	0x3f56cd07	0.83906597
42	0x3f6e37e5	0.9305404
43	0x3cfd0610	0.03088668
44	0xbf318101	-0.6933747
45	0xbcf9022e	-0.030396547
46	0xbfa8d4d6	-1.3189952
47	0xc01f7bc6	-2.4919295
48	0x3d84603a	0.06463666
49	0xbfd2c3e9	-1.6466037
50	0x3d08aa51	0.03336555
51	0xbf6ccc85	-0.9249957
52	0xbfb4ec60	-1.4134636
53	0xbed0e0d5	-0.40796533
54	0xbe21261c	-0.15737194
55	0x40494eb1	3.145428
56	0xbfc0d7e6	-1.5065887
57	0xbf569d2d	-0.8383358
58	0xc00b1f6e	-2.1737933
59	0xbf7ef7d9	-0.99596936
60	0x3f321887	0.69568676
61	0x3fddd54a	1.7330716
62	0xbfbf9375	-1.4966875
63	0x40503cde	3.253715
64	0x4000688f	2.0063818
65	0xbfedc08b	-1.8574384
66	0x3f871445	1.0553061
67	0x4003445a	2.0510468
68	0xbef7ff64	-0.48437035
69	0xbf7a37c5	-0.9774135
70	0x3efb870b	0.49126467
71	0x3e922972	0.28547245
72	0xbde115ad	-0.109904625
73	0xbfc53edb	-1.5409807
74	0xbfd5ac77	-1.6693257
75	0xbfbf8aae	-1.4964197
76	0x40047855	2.0698445
77	0xbfc4f943	-1.5388569
78	0xbfbb5b5d	-1.4637257
79	0xbfe23358	-1.7671919
80	0xbe36b2e4	-0.17841679
81	0x3f8da033	1.1064514
82	0x3fa5072f	1.2892817
83	0xbfa7bc59	-1.3104354
84	0xbfc1c917	-1.5139493
85	0x3f791926	0.97304
86	0xbfb24098	-1.3925962
87	0x3f4e0e96	0.80491006
88	0xbfcdded5	-1.6083628
89	0x3f757315	0.95878726
90	0xc000e6f9	-2.0140975
91	0xbf7d9fe9	-0.9907213
92	0xbf1772fa	-0.59159815
93	0x3fa6a9e5	1.3020598
94	0xc06fefe6	-3.7490172
95	0x3f9ad09f	1.2094916
96	0xbfd20be6	-1.6409881
97	0x403447d7	2.8168848
98	0xbda9e8d6	-0.08296363
99	0xbeec1320	-0.4610834
100	0xbfd5576d	-1.6667305
101	0xbfbf6363	-1.4952205
102	0xbfeff1fd	-1.8745724
103	0xbf7b6267	-0.98197025
104	0xbf1991a9	-0.59987885
105	0x40209fe9	2.5097601
106	0x40172749	2.3617728
107	0xbfdece5d	-1.7406727
108	0x4085d0a3	4.1817183
109	0x400cb0a9	2.1982825
110	0x3f817276	1.0113056
111	0xc0364c7e	-2.8484187
112	0xbfa574a4	-1.2926221
113	0x3eee6daf	0.46568057
114	0xbec61127	-0.3868496
115	0xbfec7924	-1.8474469
116	0xbfe06796	-1.7531612
117	0xc051d01a	-3.2783265
118	0xbf6b1916	-0.91835153
119	0x3ee7236a	0.45144206
120	0xbfc1f6e1	-1.5153466
121	0x3f2a1ec3	0.6645319
122	0x3f8ad126	1.0845077
123	0xbf9c9360	-1.2232475
124	0x3f3c955b	0.736654
125	0x3f0b5471	0.5442572
126	0x3fa330a6	1.2749221
127	0xbf94b99e	-1.1619146

input_layer.weight_g f4 [128, 1]
0	0xbf48b8a4	-0.7840674
1	0x3f50a616	0.8150343
2	0xbfefec37	-1.8743962
3	0xbfd04cca	-1.6273434
4	0x400073c4	2.0070658
5	0x3e97f960	0.29682446
6	0xc162f595	-14.184957
7	0xc0148590	-2.320652
8	0xc0b55c2f	-5.667503
9	0x3f65b605	0.89730865
10	0xbe0a1141	-0.13483144
11	0xc064ec8d	-3.576938
12	0x3f75c337	0.96001
13	0xbfc5c615	-1.5451075
14	0xbf9f20a4	-1.2431836
15	0xbf106f88	-0.56420183
16	0xc0089140	-2.1338654
17	0xbd8994b3	-0.06717815
18	0x3e775e9c	0.24157184
19	0x3ec9c068	0.39404607
20	0xbfe38434	-1.777472
21	0xc0c38704	-6.1102314
22	0x406aa1db	3.6661289
23	0x4054fb32	3.3278317
24	0xc0e23a11	-7.069588
25	0xc0767411	-3.8508341
26	0xbf059392	-0.521783
27	0xbfd65650	-1.674509
28	0xc0415e8d	-3.021396
29	0x3fb73d54	1.4315591
30	0xc06d419d	-3.7071297
31	0xbf30b9d9	-0.6903358
32	0xc048acb9	-3.1355422
33	0xbfb1b203	-1.388245
34	0x41079a5c	8.475185
35	0xbebd16e8	-0.3693154
36	0x3f22d13c	0.63600516
37	0xbf3bae54	-0.7331288
38	0xbf43dd4f	-0.76509565
39	0x3eaa45a6	0.33256263
40	0xbf322188	-0.69582415
41	0xbf5fb507	-0.873856
42	0xbed6085a	-0.41803247
43	0xbf6a298a	-0.91469634
44	0x3f39bee5	0.72556907
45	0x3e9e946d	0.30972615
46	0xbff3039d	-1.8985478
47	0x4010577c	2.2553396
48	0x3f0c6e51	0.5485583
49	0x3f7f7d8a	0.9980093
50	0x3ef6f77d	0.48235694
51	0xbf20fa49	-0.62881905
52	0xbd7c7a13	-0.061639857
53	0xbe4d0b26	-0.20023784
54	0x3f0d17b2	0.5511428
55	0xc029da26	-2.6539397
56	0xbfd5eb72	-1.6712477
57	0x3fa56c6e	1.2923715
58	0x4020dcff	2.5134885
59	0xbef84f6d	-0.48498097
60	0xbf68adec	-0.90890384
61	0xc03b224f	-2.923969
62	0x4077c92b	3.8716533
63	0x412ac565	10.673192
64	0x4025eaee	2.592464
65	0xc0789e23	-3.884652
66	0xbe0e0b1d	-0.13871427
67	0x4038ff7c	2.8905935
68	0x3f77a61a	0.96737826
69	0x4045e1a0	3.091896
70	0x3f55dae1	0.8353711
71	0x3f95e9c6	1.1711967
72	0xc04e16eb	-3.2201488
73	0xc0337daa	-2.804545
74	0xbec65de8	-0.3874352
75	0xc0425922	-3.0366902
76	0xc00b1d6e	-2.1736712
77	0xbfe0829e	-1.7539861
78	0xbfc6274f	-1.5480746
79	0x401c334d	2.4406312
80	0x3eb4c4ef	0.35306498
81	0xbf4c0778	-0.79698896
82	0xbf9cd16c	-1.225141
83	0xbece5fcb	-0.4030746
84	0xbfa8d8a6	-1.3191116
85	0xbfba898a	-1.4573224
86	0x3fa885ab	1.3165792
87	0x3fc9c2c5	1.5762564
88	0xc0067358	-2.10079
89	0x3f4e4079	0.8056713
90	0xc0148d31	-2.3211176
91	0x3fc3088b	1.5236982
92	0x3f330556	0.69930017
93	0x3f6d76ac	0.92759204
94	0xc0b32ba1	-5.599076
95	0xbe8ccfa6	-0.27502173
96	0xc0e3665b	-7.1062446
97	0xc0199b25	-2.4000943
98	0x3f2a4332	0.6650878
99	0xbfc57b82	-1.5428317
100	0x3f07f564	0.5310881
101	0xbfe534a6	-1.7906692
102	0xc0a5d7f5	-5.182612
103	0x3efc5a07	0.49287435
104	0x3f24da81	0.6439591
105	0xc03399d9	-2.806265
106	0xc0364563	-2.847985
107	0xc00a5554	-2.161458
108	0x408a8db3	4.3297973
109	0xc048bc97	-3.1365106
110	0xc0445761	-3.0678332
111	0xc040b14d	-3.0108216
112	0xbf1f38b4	-0.621959
113	0x3d802154	0.06256357
114	0xbf3c542e	-0.7356595
115	0xbfbf4bdb	-1.4945024
116	0x4197ae35	18.960062
117	0xc098364d	-4.7566285
118	0xbf21c44d	-0.63190156
119	0x3f602405	0.8755496
120	0x411a0147	9.625312
121	0x3fa82ea5	1.3139235
122	0xbe06e9e3	-0.13175158
123	0x3fdfc55e	1.7482107
124	0x3f348e33	0.7052948
125	0x4001ec3a	2.0300431
126	0x3f9f5873	1.2448868
127	0x4047998d	3.118747

input_layer.weight_v f4 [128, 2]
0	0x3fc947be	1.5725019
1	0xbcbf78f6	-0.023373108
2	0x4040bc45	3.011491
3	0x40658deb	3.586787
4	0xbf3fbcce	-0.7489747
5	0xbf404333	-0.7510254
6	0x4011b63f	2.2767484
7	0xbed62058	-0.4182155
8	0x3fc3f534	1.5309205
9	0x3f37fff7	0.71874946
10	0x3fcc6f81	1.5971528
11	0xc070f66a	-3.76504
12	0xc0749db2	-3.822125
13	0xbef7f00e	-0.48425335
14	0x3f65c0b0	0.8974714
15	0x3fe4d4b3	1.7877411
16	0x3fcae50e	1.5851152
17	0x402973c3	2.6476905
18	0xbf7f1309	-0.9963842
19	0x3fedfab4	1.8592134
20	0xbf9eaec6	-1.2397087
21	0x3fdefa22	1.7420084
22	0xbf2b6c9a	-0.6696259
23	0x4029b43d	2.6516259
24	0x3fe24842	1.7678301
25	0x3ef8fe01	0.4863129
26	0xbf0be3bc	-0.5464437
27	0xbff8729f	-1.940998
28	0x3fb64b3b	1.4241709
29	0xbfb0e433	-1.3819641
30	0x400a3bdd	2.1599038
31	0x3e92fc02	0.28707892
32	0xbff8d502	-1.9440005
33	0x405e2576	3.4710364
34	0x402bdde2	2.6854177
35	0x402a0f25	2.6571743
36	0x3f92b584	1.1461644
37	0xbf9a8720	-1.2072487
38	0xc03955d0	-2.8958626
39	0xc00215c1	-2.0325778
40	0x3e06b046	0.1315318
41	0x400c6b1d	2.1940377
42	0xbfffed88	-1.9994364
43	0x40066daa	2.1004434
44	0x3f9acdbc	1.2094035
45	0xc0a6c426	-5.211444
46	0xc02f8631	-2.7425654
47	0xbffa477c	-1.9553065
48	0x40a21a2d	5.0656953
49	0x3e8961bf	0.26832387
50	0x407920d1	3.892628
51	0xbe073284	-0.13202864
52	0x3ec63a53	0.38716373
53	0xbf946b2e	-1.1595209
54	0x3fb2d274	1.3970475
55	0x3e86e543	0.26346788
56	0xbf780e37	-0.9689669
57	0xbfbd0162	-1.4766047
58	0xc0581f3d	-3.3769066
59	0xc02d5e0c	-2.7088652
60	0xbf880f53	-1.0629677
61	0x3fde0486	1.734513
62	0xbfae232c	-1.3604484
63	0x3e82043d	0.2539386
64	0x40391b66	2.8922973
65	0x3f40dd72	0.753379
66	0xbf64bb27	-0.8934807
67	0xbf812b6e	-1.0091379
68	0xbf988514	-1.1915612
69	0x3fe0c4a2	1.7560008
70	0xbe5b1a78	-0.21396816
71	0x3f8643a5	1.0489393
72	0xc0094fd5	-2.1454976
73	0xbf9894fe	-1.1920469
74	0xbe187d5e	-0.14891574
75	0x3fbcf095	1.476092
76	0x3ebb28cc	0.36554563
77	0xbfd15621	-1.635441
78	0x3fce0915	1.6096522
79	0xbfd3efb2	-1.6557524
80	0xbf225ea8	-0.63425684
81	0x3fc82241	1.5635453
82	0x40933793	4.600534
83	0x3eee78c0	0.465765
84	0x3ed8fccd	0.42380372
85	0xbfdef5f1	-1.7418805
86	0x40a66909	5.2003217
87	0xbd24ed51	-0.040265385
88	0xc01c79dc	-2.4449377
89	0xc035c63a	-2.8402238
90	0xbfc02933	-1.5012573
91	0x403559ec	2.8336134
92	0xbfa71b26	-1.305516
93	0xc0272a16	-2.6119437
94	0xbfaaab3d	-1.3333508
95	0xbf94cce8	-1.1625032
96	0xbfdcaff7	-1.72412
97	0xbfdd5071	-1.7290174
98	0xc0925ee2	-4.5740824
99	0x3d832144	0.06402829
100	0xbff684fd	-1.9259335
101	0xbfc199ce	-1.5125062
102	0xbed023cd	-0.40652314
103	0x3fbeab05	1.4895941
104	0xbfc6bafa	-1.5525811
105	0xc039d9c7	-2.903917
106	0xbef4d6e0	-0.47820187
107	0x3fe598e2	1.7937281
108	0xc000cd3b	-2.0125263
109	0xbf99ae94	-1.2006402
110	0xbff98ed8	-1.9496717
111	0xc0401f01	-3.0018923
112	0x3f72ee9d	0.94895345
113	0xbf1d016c	-0.61330295
114	0xbf3bbcac	-0.73334765
115	0x40034335	2.050977
116	0xc02748a7	-2.6138093
117	0xc04caa8c	-3.1979094
118	0xbee79204	-0.4522859
119	0x4044625c	3.0685034
120	0xbf4ebcba	-0.80756724
121	0xbfb46d5b	-1.4095873
122	0x3fca96bd	1.5827252
123	0xbfefd908	-1.8738108
124	0xc03adb18	-2.9196224
125	0xbf95e01b	-1.1709017
126	0xbfbd96e2	-1.4811671
127	0x40a8865e	5.2664022
128	0x40123c91	2.2849467
129	0x3fb4fe4c	1.4140105
130	0xbfa9e04c	-1.3271575
131	0x3f9af706	1.2106636
132	0xbefcc8b0	-0.49371862
133	0x3f3c6135	0.73585826
134	0x40962587	4.692081
135	0x3f925b8a	1.1434186
136	0xc0000921	-2.0005572
137	0x4018a6ff	2.3851926
138	0xc047f673	-3.124417
139	0xbfb28eb9	-1.3949805
140	0x3ff7958f	1.9342517
141	0x3f9ab8c2	1.2087634
142	0xbff0eaed	-1.8821694
143	0xbe7deee4	-0.24798161
144	0xc05628c2	-3.3462377
145	0xbcf464ad	-0.029833162
146	0x3fb6f268	1.4292727
147	0x3f6c48dd	0.9229868
148	0xbe874b90	-0.26424837
149	0x3ff181f1	1.886778
150	0xbfc2ff50	-1.5234165
151	0x3ff750a0	1.932148
152	0xbf6e7eb7	-0.931621
153	0xbf8e8889	-1.1135417
154	0xbeb2fce5	-0.34958568
155	0xc0122c6c	-2.2839613
156	0x3f28444b	0.65729207
157	0xbf88d21e	-1.0689123
158	0xc003b4de	-2.0579143
159	0xbff41810	-1.9069843
160	0x3f945dec	1.1591163
161	0xbefb8420	-0.4912424
162	0xbf622422	-0.88336384
163	0xbe06aa9e	-0.13151023
164	0xbe5acd47	-0.2136737
165	0x3ff4cb35	1.9124514
166	0x3fc7dac5	1.5613638
167	0x3e225584	0.15852934
168	0x3f3e0454	0.74225354
169	0xbf8ce365	-1.1006895
170	0x3fe13a63	1.7595943
171	0xbfe79841	-1.8093339
172	0xbec05dc0	-0.37571526
173	0xc019084b	-2.3911312
174	0x4034ec18	2.82691
175	0x3fa11deb	1.2587255
176	0x3f3b56e7	0.7317948
177	0xc01df177	-2.4678628
178	0x3fa8ecbf	1.3197249
179	0xbfd18194	-1.6367669
180	0xbfb4f67d	-1.4137722
181	0x3fd78136	1.6836307
182	0xbfa2123e	-1.2661817
183	0x405bbc13	3.4333541
184	0x3ff237c6	1.8923271
185	0xbfdf371f	-1.7438697
186	0x3fd9cf89	1.701646
187	0x3fa6c888	1.3029947
188	0xbfce19e3	-1.610165
189	0x3fd9a4dc	1.7003436
190	0xbfef10d3	-1.8677009
191	0xbcebce2e	-0.028784838
192	0x40802e2f	4.0056376
193	0x3eb34a5e	0.35017675
194	0xbfd6cf26	-1.6781967
195	0xc032e552	-2.7952466
196	0xbf1becf0	-0.6090841
197	0x401fd40d	2.4973176
198	0xbf906da5	-1.1283461
199	0x3fe4e440	1.7882156
200	0xc01b742f	-2.4289663
201	0xc0348b20	-2.8209915
202	0xbe254632	-0.16140059
203	0xbfd88898	-1.6916685
204	0xbfe35ef8	-1.7763357
205	0x3fa49189	1.2856914
206	0xbff21889	-1.8913738
207	0xbfaef80d	-1.3669449
208	0xc022d0c2	-2.5439916
209	0xbfcb9030	-1.5903378
210	0x3e050b79	0.12992658
211	0x3ff19ced	1.8876015
212	0xbf6145e2	-0.8799726
213	0x3fcf0140	1.6172256
214	0xbed146d6	-0.40874356
215	0xbfbbbcd8	-1.4667006
216	0x3f7a980b	0.9788825
217	0xbfba22cb	-1.4541868
218	0x3fad6594	1.3546624
219	0xc00d11c5	-2.2042096
220	0x3f7703a3	0.96489924
221	0xbfb13229	-1.3843433
222	0xbc5a0a91	-0.013308183
223	0xc023ce5b	-2.55947
224	0xbfc778f2	-1.5583785
225	0x407f753a	3.99153
226	0xbffd491c	-1.9787936
227	0xbec922d8	-0.39284396
228	0xbeb05305	-0.3443834
229	0xbffa3261	-1.9546624
230	0x3f9f699f	1.2454108
231	0xbf894120	-1.0723
232	0x3ef9bbfe	0.4877624
233	0xc09faad4	-4.989603
234	0xbfb411dc	-1.406795
235	0x3fe935f4	1.821959
236	0xbfd8e36a	-1.6944401
237	0x4024d384	2.57541
238	0x4005f535	2.0930912
239	0xc02ca7ee	-2.6977496
240	0x3f7440b4	0.9541123
241	0xc0924c2c	-4.5717983
242	0x3fd8b6a2	1.6930735
243	0xbf3f8619	-0.7481399
244	0x3ff48ec4	1.9106069
245	0xc024141d	-2.5637276
246	0xbe2704b7	-0.16310392
247	0xc028ec47	-2.6394212
248	0x3f39f991	0.72646433
249	0xbf90d919	-1.1316253
250	0xbfde8a5d	-1.7385975
251	0x3fc1cf3d	1.5141369
252	0x40189f97	2.3847406
253	0x404de70d	3.2172272
254	0xbf9bdc25	-1.2176558
255	0x40229003	2.5400398

hidden_layers.0.layer.bias f4 [128]
0	0x3f0001c5	0.500027
1	0xbe990832	-0.29889065
2	0xbf3c235e	-0.73491466
3	0xbed11de2	-0.4084311
4	0x3d4cf5c4	0.050039068
5	0xbe415930	-0.18881679
6	0xbf8647c5	-1.0490652
7	0xbea246bd	-0.31694594
8	0xbde7bde8	-0.113155186
9	0x3fb479d4	1.4099679
10	0x3e544ee4	0.2073322
11	0xbe51b1ee	-0.20478031
12	0x3ed39330	0.41323233
13	0xbf10e751	-0.5660296
14	0xbdeb779a	-0.114974216
15	0xb8a6a381	-7.945952e-05
16	0xbe9737eb	-0.2953485
17	0x3d1d085b	0.038338047
18	0x3f193908	0.5985265
19	0xbf0405d2	-0.5157138
20	0x3eb94dc9	0.36192158
21	0x3e5a76e6	0.21334419
22	0x3dd5e4a1	0.10443998
23	0xbf640871	-0.8907538
24	0xbdaea8ae	-0.08528267
25	0x3ebc5f91	0.3679166
26	0x3e4659f0	0.19370246
27	0xbe93b2b8	-0.2884729
28	0xbfa54792	-1.2912467
29	0xbe656be9	-0.22404446
30	0x3e8394c7	0.25699446
31	0xbe31eb09	-0.17374815
32	0xbcad5879	-0.021160351
33	0x3e604cfc	0.21904367
34	0xbe3711c3	-0.1787787
35	0x3e6f36b8	0.23360717
36	0xbd84e78b	-0.06489476
37	0xbd08e4b0	-0.03342122
38	0x3e0491b8	0.12946212
39	0xbe9c239b	-0.30495915
40	0xbe8ebec7	-0.27879927
41	0xbee1f3bd	-0.4413127
42	0x3f481d1b	0.7816941
43	0x3e183165	0.14862593
44	0x3f4fe42e	0.8120755
45	0x3db8b1fb	0.09018322
46	0xbe004f9f	-0.12530373
47	0xbe956205	-0.29176345
48	0xbe45ab23	-0.19303565
49	0x3ee00572	0.43754154
50	0x3ede90ee	0.43469948
51	0xbed4216c	-0.4143175
52	0xbec8e94e	-0.39240497
53	0xbda328f6	-0.07966797
54	0x3ca02e36	0.019553285
55	0xbdd59dad	-0.10430465
56	0x3f8be789	1.0930034
57	0x3e975f9b	0.2956513
58	0x3e65432f	0.2238891
59	0x3e834991	0.25642064
60	0xbe91dcff	-0.2848892
61	0x3e002fe0	0.12518263
62	0x3e450838	0.19241416
63	0xbf6196fa	-0.88120997
64	0x3d3cef7e	0.046126835
65	0xbf1b0135	-0.60548717
66	0xbf783125	-0.9694999
67	0xbe9dc7bf	-0.30816457
68	0x3e74cceb	0.23906295
69	0x3edb0f6a	0.42785197
70	0xbe46b995	-0.19406731
71	0xbecd78a9	-0.4013112
72	0x3ca7a04b	0.020462176
73	0x3e229f85	0.15881164
74	0xbf3a0244	-0.7265971
75	0x3e36f253	0.17865877
76	0x3c5bceac	0.013415974
77	0x3e2860ca	0.16443172
78	0x3e8b6cd2	0.2723146
79	0xbdc15864	-0.09440687
80	0x3ee387e1	0.44439605
81	0xbedc714b	-0.43055186
82	0xbf71570e	-0.9427346
83	0xbe842a98	-0.25813746
84	0xbc898eaa	-0.01679166
85	0x3ed7b112	0.4212728
86	0xbf5dc361	-0.8662625
87	0xbc73516c	-0.014850955
88	0xbe950633	-0.29106292
89	0xbdf877d2	-0.12132229
90	0xbd7df1c0	-0.06199813
91	0xbe9c75d0	-0.30558634
92	0xbee17351	-0.44033292
93	0xbebde2e9	-0.3708718
94	0x3d8dc7f2	0.06922902
95	0x3e625c43	0.22105508
96	0x3d9ed54d	0.07755528
97	0x3df81c5b	0.121147834
98	0xbea1e764	-0.3162185
99	0x3e49b451	0.19697692
100	0x3d469983	0.048486244
101	0xbf3fc7e3	-0.7491438
102	0xbef20cc5	-0.47275367
103	0xbd97d15e	-0.074129805
104	0xbca13b6e	-0.019681659
105	0xbe4ea299	-0.20179214
106	0x3e474a7b	0.19462006
107	0x3cb4f606	0.02208997
108	0x3eab1002	0.3341065
109	0x3ccce69a	0.025012303
110	0x3d3fb241	0.046800856
111	0xbf0572d0	-0.52128315
112	0xbcd5a95e	-0.026081737
113	0xbe2297f1	-0.15878274
114	0xbd462f69	-0.048385058
115	0xbe15164c	-0.14559287
116	0x3e7ff001	0.24993898
117	0xbd64872e	-0.05579298
118	0xbea41d21	-0.32053474
119	0x3dbbb0da	0.09164591
120	0x3e1c950e	0.15291235
121	0x3ed4ef5f	0.41588876
122	0xbec241b0	-0.3794074
123	0x3ea38c14	0.3194281
124	0x3de0a4e3	0.1096895
125	0xbd175094	-0.03694208
126	0xbb64d65e	-0.0034917812
127	0x3ebc29e7	0.3675072

hidden_layers.0.layer.weight_g f4 [128, 1]
0	0xbf87af68	-1.0600405
1	0x3e470233	0.19434433
2	0xbfccdcac	-1.6004844
3	0x3eb969a4	0.3621341
4	0x3ec96ea7	0.39342234
5	0xbf2640bf	-0.64942545
6	0x3e5d6974	0.21622258
7	0xbfaf50c2	-1.369652
8	0xbfc74547	-1.5568017
9	0x3fa86c52	1.3158057
10	0xbef36883	-0.47540674
11	0x3e343d7b	0.17601578
12	0x3e9c4896	0.3052413
13	0x3ec34fb5	0.3814675
14	0xc0630407	-3.5471208
15	0xbfa58355	-1.2930704
16	0x3e0c1085	0.13678177
17	0x3e97d7af	0.2965674
18	0xbfb8d010	-1.4438496
19	0xc00dd252	-2.215962
20	0x3f73956e	0.95149887
21	0x3e84bc96	0.2592513
22	0x3e7f2e54	0.24920017
23	0x3d8749db	0.06605884
24	0x3e02792d	0.12741537
25	0x3ea6c7e8	0.3257439
26	0x3f054778	0.5206218
27	0x3e3b0b4e	0.18266031
28	0xbd0c63a7	-0.034274723
29	0xc0df1020	-6.9707184
30	0x3ef19e77	0.47191212
31	0xc00cf4d2	-2.2024426
32	0xc00b3ff3	-2.1757782
33	0xc000e76e	-2.0141253
34	0x3fc7c329	1.5606433
35	0x3e65b9b4	0.22434121
36	0xbe9bc248	-0.30421662
37	0x3e81568f	0.2526135
38	0xc0283af1	-2.6285975
39	0x3f13fb30	0.57805157
40	0xbf86c95a	-1.0530198
41	0xbdc052da	-0.09390803
42	0xc190b440	-18.088013
43	0x3b90d9ad	0.00442048
44	0x3dd62f25	0.10458211
45	0x3f1afbba	0.60540354
46	0x3f8cd775	1.1003252
47	0x3e853f68	0.26024938
48	0xbeb5d321	-0.3551264
49	0xbfa3880c	-1.2775893
50	0x3e9fef7f	0.3123741
51	0x3e895b48	0.26827455
52	0x3e99d71d	0.3004693
53	0xbfe0861b	-1.7540926
54	0x3e86afec	0.26306093
55	0x3ee3c72e	0.444879
56	0xbfeea4ce	-1.8644044
57	0xbd49508c	-0.04914908
58	0xbf5cd5a2	-0.8626348
59	0x3e59b1f8	0.21259296
60	0x3f47fbaf	0.78118414
61	0xbfe809ec	-1.8128028
62	0xc00d4bb5	-2.2077458
63	0x3f9a4c9c	1.2054629
64	0xbf3244b9	-0.6963611
65	0xbf2cf333	-0.6755859
66	0xc02383d6	-2.5549216
67	0xbf3f52b3	-0.74735564
68	0xbfbc5819	-1.4714385
69	0x3e7920b3	0.2432888
70	0xbdaf1d50	-0.08550513
71	0x3e31d466	0.1736618
72	0xbfc02f35	-1.5014406
73	0xbfcc4165	-1.5957457
74	0xbee6f4d8	-0.45108676
75	0xbeed9fed	-0.46411076
76	0xbf8566bc	-1.0421977
77	0x3e9c43f1	0.30520585
78	0x3ed9b0bf	0.4251766
79	0x3e810644	0.25200093
80	0xc0f1f430	-7.561058
81	0xbfa60540	-1.2970352
82	0x3df9eb57	0.12203091
83	0x3fb5c9df	1.4202231
84	0x3f6a4e97	0.9152617
85	0xbf87f16e	-1.0620553
86	0xbf9a7be4	-1.2069058
87	0x3e2b9677	0.16756617
88	0x3ef5b0e9	0.47986534
89	0xc011840b	-2.2736843
90	0xc01d7a3d	-2.4605858
91	0x3e9f59f6	0.31123322
92	0x3e962035	0.29321447
93	0x3e881eca	0.2658599
94	0x3ec56e83	0.38560876
95	0x3eb8fd7f	0.36130902
96	0xbffde122	-1.983433
97	0xbe0728b3	-0.1319912
98	0xbb096895	-0.0020966877
99	0xbfe2fe4d	-1.7733856
100	0x3f085d13	0.5326702
101	0xc012d4cc	-2.294238
102	0x3f10527f	0.5637588
103	0xbea41608	-0.32048059
104	0xc094de93	-4.6521697
105	0x3e8ca125	0.27466694
106	0x3e6364ff	0.22206496
107	0xbf1e567b	-0.6185071
108	0x3f93c890	1.1545582
109	0xbe90446b	-0.281772
110	0xc031c1d4	-2.7774553
111	0x3e83eae1	0.25765136
112	0x3e895fc8	0.26830888
113	0xc0062abc	-2.0963583
114	0x3f65f43b	0.8982579
115	0xbeae0a5c	-0.3399228
116	0x3e7b77ce	0.2455742
117	0x3f1ca042	0.61182034
118	0x3ecc96d2	0.39958817
119	0xc01b14d0	-2.4231453
120	0x3ed2168c	0.41032827
121	0xbe0a4372	-0.13502291
122	0x3ddcd28d	0.10782347
123	0xbebbf422	-0.36709696
124	0x3cc2b669	0.02376862
125	0xbf30bc6a	-0.690375
126	0x3eccedd3	0.40025195
127	0x3e828cd0	0.25498056

hidden_layers.0.layer.weight_v f4 [128, 128]
0	0x3f478a97	0.77945846
1	0xbf7df869	-0.9920717
2	0xbf5896fd	-0.8460539
3	0x3f420684	0.7579119
4	0xbf77eeff	-0.96849054
5	0x3e9be2df	0.30446526
6	0x3f74b235	0.9558442
7	0x3e5200a7	0.20508061
8	0x3ecc7aaf	0.3993735
9	0x3f12a757	0.5728659
10	0xbf15d3b3	-0.5852615
11	0xbf8166c7	-1.010949
12	0x3e15968b	0.14608209
13	0x3ef97493	0.48721752
14	0x3f698dae	0.9123181
15	0xbf172204	-0.5903628
16	0x3f818de9	1.0121433
17	0xbf456ab2	-0.7711593
18	0x3d4bc1e8	0.04974547
19	0x3f8f881a	1.121341
20	0xbf8c7cf7	-1.0975636
21	0x3f56f95b	0.83974236
22	0xbf1757e2	-0.59118474
23	0x3f62ebd7	0.88641113
24	0xbeaa356c	-0.33243883
25	0x3efd98ae	0.49530548
26	0x3e1b17e0	0.15145826
27	0x3f4f39b9	0.8094745
28	0xbe68d098	-0.22735822
29	0x3eab2c7d	0.3343238
30	0xbf000a86	-0.5001606
31	0xbf764713	-0.962022
32	0xbf32b339	-0.6980472
33	0x3ebb9a24	0.36641037
34	0x3f17baa4	0.59269166
35	0x3f184237	0.59476036
36	0x3e83a530	0.25711966
37	0x3fa3f8a0	1.2810249
38	0xbeead2aa	-0.4586385
39	0xbf69217e	-0.9106673
40	0x3f3c05ea	0.73446524
41	0xbf0f6592	-0.5601436
42	0xbf144adb	-0.5792672
43	0xbe81e88f	-0.2537274
44	0x3f59a91e	0.8502368
45	0xbe2ab9b1	-0.16672398
46	0x3f167840	0.58777237
47	0x3f23781a	0.63855135
48	0x3fa8e309	1.3194286
49	0xbede6cbd	-0.43442336
50	0x3f8960d1	1.0732671
51	0x3f3beebf	0.7341117
52	0x3f4e959c	0.80697036
53	0x3f07d257	0.5305533
54	0x3f6851f4	0.9075005
55	0xbf1f7b52	-0.62297547
56	0x3ee4bb2f	0.4467406
57	0x3f6034ae	0.8758038
58	0x3ede169b	0.43376622
59	0x3f7980da	0.97462237
60	0x3fc81698	1.5631895
61	0xbf25d96a	-0.6478487
62	0x3ef509fc	0.4785918
63	0x3dca7318	0.09885234
64	0xbf85d33a	-1.0455086
65	0x3f769100	0.96315
66	0xbfa01cc1	-1.2508775
67	0xbfbb76a2	-1.4645579
68	0x3f4907ff	0.78527826
69	0x3e99eab8	0.3006189
70	0xbfdf2436	-1.7432926
71	0xbd7bf335	-0.061511237
72	0xbf128cf4	-0.5724633
73	0x3f828373	1.0196365
74	0x3f559021	0.8342305
75	0x3ed25374	0.41079295
76	0xbf1c6d78	-0.61104536
77	0x3ed0604b	0.40698466
78	0x3f133fc5	0.5751918
79	0x3fa8d50c	1.3190017
80	0xbd9e576d	-0.07731519
81	0xbf917619	-1.1364166
82	0xbeb31a78	-0.34981132
83	0xbee95d1d	-0.45578852
84	0x3f3bac0f	0.73309416
85	0xbfa6a477	-1.3018941
86	0x3f1cd863	0.6126768
87	0xbf336918	-0.70082235
88	0x3f56f85f	0.83972734
89	0xbdf20899	-0.11818046
90	0x3f84f11c	1.0386081
91	0x3f086b1f	0.53288454
92	0xbedef250	-0.43544245
93	0xbf361be9	-0.7113634
94	0x3f5b87fd	0.85754377
95	0x3e6ce04e	0.2313244
96	0xbf6605c5	-0.89852554
97	0xbe83428e	-0.25636715
98	0x3f0bb6d6	0.5457586
99	0x3f645f1b	0.8920762
100	0x3f305d20	0.688921
101	0x3f80d688	1.006547
102	0x3da9b25c	0.082859725
103	0x3f1f9d82	0.6234971
104	0x3f2741d8	0.65334845
105	0xbf883fba	-1.0644448
106	0xbefdcc49	-0.4956992
107	0x3f131fd6	0.5747045
108	0xbf82b2d7	-1.0210828
109	0xbf566991	-0.8375483
110	0xbf256059	-0.6460014
111	0x3f51a853	0.8189747
112	0x3f458f48	0.77171755
113	0x3cb19169	0.021675782
114	0x3e28ceb4	0.16485101
115	0x3df0fe1f	0.1176722
116	0xbed386a1	-0.4131365
117	0x3f418ede	0.75608623
118	0x3f53637f	0.82573694
119	0xbdca5a8a	-0.0988055
120	0x3f4401e3	0.7656538
121	0xbf88ccc3	-1.0687488
122	0xbf0a279e	-0.539667
123	0xbeffd1eb	-0.49964842
124	0xbe4baf68	-0.19891131
125	0x3e5f24c5	0.2179137
126	0xbec265f7	-0.37968418
127	0xbf54ff65	-0.832022
128	0xbfa16a49	-1.2610561
129	0x3fb813de	1.4381063
130	0x3f2e7e9c	0.6816194
131	0xbeeda272	-0.46412998
132	0xbe365d19	-0.17808951
133	0xbee5b1ca	-0.44862205
134	0xbf360163	-0.71095866
135	0xbf923399	-1.1421996
136	0xbf7f2e62	-0.9968015
137	0x3eb74b16	0.35799474
138	0x3f06f99e	0.52724636
139	0x3e8228f4	0.2542187
140	0x3f91ca77	1.1389912
141	0x3f32b556	0.69807947
142	0xbecbcb6b	-0.39803633
143	0x3fd551b7	1.6665562
144	0xbfaccfbb	-1.3500894
145	0x3f279347	0.654591
146	0x3fa29b27	1.2703599
147	0xbf7892a2	-0.97098744
148	0xbea2018a	-0.316418
149	0xbf236b30	-0.6383543
150	0x3f3d165b	0.73862237
151	0xbfb98865	-1.4494749
152	0x3ec70ae7	0.38875505
153	0xbedac901	-0.4273148
154	0x3f235776	0.6380533
155	0xbf11df66	-0.56981504
156	0x3ebdb0a7	0.37048838
157	0xbf48d3d4	-0.78448224
158	0x3f51e2ed	0.81986886
159	0x3eaf5669	0.34245613
160	0x3ebd58ad	0.36981717
161	0xbf0d7098	-0.5524993
162	0xc07cf6d5	-3.9525654
163	0xbf08d2a2	-0.534464
164	0xbfb7599a	-1.4324219
165	0xbf2a1df8	-0.6645198
166	0x3ed0fa1e	0.40815824
167	0x3f9e12ed	1.2349526
168	0xbfac7647	-1.3473595
169	0x3e12b1a1	0.14325573
170	0x3fa202df	1.2657126
171	0x3c306cb8	0.010768108
172	0xbf9dafbe	-1.2319257
173	0x3f0f80b7	0.5605578
174	0x3e9f04a5	0.3105823
175	0x3ecfdeca	0.40599662
176	0xbf313dd4	-0.6923497
177	0xbfa19eb9	-1.2626563
178	0xbfb19a8b	-1.3875288
179	0xbf268c63	-0.65057963
180	0xbec9f51b	-0.39444813
181	0xbf6c97f9	-0.9241939
182	0xbfc15014	-1.5102563
183	0x3f41480f	0.7550058
184	0xbe5e7b45	-0.21726711
185	0xbf8f060e	-1.1173723
186	0xbfb42600	-1.4074097
187	0xbf4028f1	-0.7506247
188	0xbfa11434	-1.258429
189	0x3f27c0f3	0.6552879
190	0xbf85555b	-1.0416673
191	0xbf1e20fd	-0.61769086
192	0x3ee17c0b	0.4403995
193	0xbf03bc21	-0.51458937
194	0xbf47e481	-0.78083044
195	0x3e7338af	0.23752092
196	0xbf12ecad	-0.5739239
197	0x3ec6f89a	0.38861543
198	0x3fbf23e5	1.4932829
199	0xbfcee0e9	-1.6162387
200	0x3f71652a	0.9429499
201	0xbeda951b	-0.42691883
202	0xbf7820cc	-0.96925044
203	0xbf9b160a	-1.2116101
204	0x3f27b97e	0.65517414
205	0x3eefcddb	0.46836743
206	0xbefc45ab	-0.49271902
207	0xbf727418	-0.94708395
208	0x3f2d9e3e	0.67819583
209	0x3efaa1c9	0.48951557
210	0xbe16f014	-0.1474002
211	0x3f402010	0.75048923
212	0xbf312cd4	-0.6920903
213	0x402f3f7e	2.7382503
214	0x3f400ebc	0.7502248
215	0x3f07179e	0.5277041
216	0x3f03c316	0.5146955
217	0x3fae8a83	1.363602
218	0xbf63d624	-0.8899863
219	0xbfdb3b7e	-1.712753
220	0xbe50e894	-0.20401222
221	0x3e648fdb	0.22320502
222	0xbf5b46d6	-0.8565496
223	0xbf2df268	-0.6794801
224	0x3d767a96	0.0601755
225	0x3f951cc4	1.1649404
226	0xbf2e9a3c	-0.6820409
227	0xbefac874	-0.4898106
228	0xbf9a5fda	-1.2060502
229	0x3e8f3188	0.27967477
230	0xbe88d889	-0.26727703
231	0xbf627ef8	-0.8847499
232	0xbfc36aef	-1.5267009
233	0xbe8357e4	-0.25652993
234	0x3ed26ac5	0.41097084
235	0x3d1f460d	0.038885165
236	0x403cf0dd	2.9522011
237	0x3fa75244	1.307198
238	0x3f3a8530	0.7285948
239	0xbc8e64dd	-0.01738208
240	0xbfb6e8e0	-1.4289818
241	0xbf0e8d71	-0.5568457
242	0x3de27160	0.11056781
243	0xbfd19d23	-1.6376079
244	0x3f332475	0.69977504
245	0xbf62688d	-0.8844078
246	0xbf671340	-0.9026375
247	0xbdc1852e	-0.0944923
248	0x3e91ff4b	0.28515086
249	0x3f267b53	0.6503193
250	0x3eb82223	0.35963544
251	0x3f0b93bb	0.54522294
252	0x3faec8ba	1.3655007
253	0xbe1b0fe6	-0.15142784
254	0x3fb6e823	1.4289593
255	0xbe1f0a01	-0.1553116

hidden_layers.1.layer.bias f4 [128]
0	0x3e1a6b35	0.15079959
1	0xbf661ddf	-0.8988933
2	0x3de1401c	0.10998556
3	0xbe3e6301	-0.18592454
4	0xbf529323	-0.8225576
5	0x3ec857dc	0.3912953
6	0xbd9ac322	-0.0755675
7	0xbf3e15ad	-0.74251825
8	0x3c9e5d19	0.019331502
9	0xbd5e91cb	-0.054338258
10	0x3e3ae66c	0.18251961
11	0x3f4ee6d4	0.80820966
12	0xbf0f6546	-0.56013906
13	0x3ef64017	0.48095772
14	0xbf332ce8	-0.69990396
15	0x3b6c5b0b	0.0036065008
16	0xbe151731	-0.14559628
17	0xbe30a3c1	-0.17249967
18	0x3da06555	0.078318276
19	0x3e2f9f04	0.17150503
20	0x3e3cb721	0.18429233
21	0xbde1ace6	-0.11019306
22	0x3e979c06	0.29611224
23	0x3e4a8b85	0.19779785
24	0x3e6d986b	0.23202674
25	0x3e287c34	0.1645363
26	0xbe6e50ad	-0.23272963
27	0x3ec3ca4d	0.3824028
28	0xbee353f4	-0.4439999
29	0xbeb8b0b9	-0.3607233
30	0x3e3892c4	0.18024737
31	0xbe82330a	-0.25429565
32	0xbe1f53bc	-0.15559286
33	0xbe88a11d	-0.2668542
34	0xbe437ad3	-0.19089822
35	0xbeb69121	-0.356576
36	0xbe6f2f4d	-0.23357888
37	0x3e35596b	0.17709891
38	0x3d6d7c62	0.05797995
39	0x3d2f8cac	0.042858765
40	0x3e7ba70e	0.24575445
41	0xbc68f31e	-0.01421812
42	0x3dd1ea57	0.10249775
43	0x3e107c27	0.1410986
44	0x3f2b1c88	0.6684041
45	0xbecddcfb	-0.40207657
46	0x3d8a8e15	0.06765381
47	0xbc627fb7	-0.013824395
48	0xbd52e145	-0.051484365
49	0x3ed36c62	0.41293627
50	0x3dbac89e	0.09120296
51	0x3c8bd050	0.017067105
52	0x3c819281	0.015816929
53	0x3c22fc89	0.009947904
54	0xbdecbf33	-0.11559906
55	0x3cb179da	0.021664549
56	0xbdc0a246	-0.09405951
57	0xbf1757e9	-0.59118515
58	0xbf24634d	-0.6421402
59	0x3e650075	0.22363456
60	0x3e9590ef	0.29212138
61	0x3ed5a6ba	0.41728765
62	0xbe897c12	-0.2685247
63	0x3e861433	0.26187286
64	0xbefadaab	-0.48994955
65	0x3e70df59	0.235227
66	0xbe384df6	-0.1799849
67	0x3c55c248	0.013046809
68	0x3b50350a	0.0031769895
69	0x3e027ee7	0.12743722
70	0x3e4320b5	0.19055445
71	0xbd89c610	-0.067272305
72	0xbe11ecf4	-0.14250547
73	0x3eb284f8	0.34867072
74	0x3b42de75	0.0029734646
75	0xbe7fdf8d	-0.24987622
76	0x3e868c9c	0.2627915
77	0x3fc37d87	1.5272683
78	0x3e0eca31	0.13944317
79	0xbdf8f345	-0.12155775
80	0xbd43fe84	-0.047850147
81	0xbeae5c44	-0.34054768
82	0xbd405905	-0.046959896
83	0x3e511b06	0.20420465
84	0x3f3fe341	0.74956137
85	0xbc8a7a77	-0.016904099
86	0x3d7af9e1	0.06127346
87	0xbc22d86c	-0.009939294
88	0x3d944b8f	0.07240974
89	0x3da8ba1a	0.08238621
90	0xbe994684	-0.29936612
91	0x3ec97c82	0.39352804
92	0xbc933d3b	-0.017973533
93	0xbe0946a9	-0.13405861
94	0x3e4f1fbc	0.2022695
95	0xbc833c8b	-0.01602008
96	0x3e1557dd	0.14584298
97	0x3d18b0b2	0.037277885
98	0x3f04346e	0.516425
99	0xbf116547	-0.5679516
100	0xbe356f0a	-0.1771814
101	0x3e500640	0.20314884
102	0xbe038ab5	-0.12845881
103	0x3e426a9d	0.18985982
104	0x3d35dd98	0.04440078
105	0xbdf2894f	-0.11842596
106	0xbead9def	-0.33909556
107	0xbe4a616e	-0.19763729
108	0x3ecbf86f	0.39837977
109	0xbe9bac67	-0.3040497
110	0xbf5b893a	-0.85756266
111	0x3e6c4000	0.23071289
112	0xbebb536c	-0.36587083
113	0x3e2d0c4c	0.16899222
114	0xbead131d	-0.33803645
115	0xbd1abfc5	-0.037780542
116	0x3e000382	0.12501338
117	0xbedfbbe3	-0.43698034
118	0xbefa59e0	-0.48896694
119	0xbed87766	-0.42278594
120	0xbcc722dd	-0.024308616
121	0xbe9054a4	-0.28189576
122	0xbe9ff390	-0.3124051
123	0x3e316a71	0.1732576
124	0xbcb84b7f	-0.022496937
125	0xbe23f6c2	-0.160121
126	0xbda38ec2	-0.07986213
127	0xbdd5c45d	-0.10437844

hidden_layers.1.layer.weight_g f4 [128, 1]
0	0x3eb1be33	0.34715423
1	0x3e24385c	0.16037124
2	0xbfafa883	-1.3723301
3	0xbd23d399	-0.039996717
4	0xbf312313	-0.69194144
5	0xbf19606f	-0.5991277
6	0xc086a82f	-4.20803
7	0xbf1bf0f7	-0.6091456
8	0xbfe9dd27	-1.8270615
9	0x3e31eb8d	0.17375012
10	0xbed3a937	-0.41340038
11	0xbf3fd7cf	-0.7493867
12	0xc017125b	-2.3604953
13	0xbdfd7308	-0.12375456
14	0xc000f36b	-2.014857
15	0xbe546d84	-0.20744902
16	0xbe72d02c	-0.23712224
17	0x3fbb3875	1.4626604
18	0x3f63ca8e	0.8898095
19	0x3f2e07f5	0.6798089
20	0x3db254a8	0.08707553
21	0x3eefcded	0.46836796
22	0xbf311461	-0.6917172
23	0xbe9e9432	-0.3097244
24	0x3edb8963	0.42878255
25	0xbeae6f96	-0.34069508
26	0x3ec38f19	0.38195112
27	0x3ee7a48b	0.45242724
28	0x3eb8aae7	0.36067888
29	0xbf5b50f5	-0.85670406
30	0x3eca9e2c	0.395738
31	0xbe9fc119	-0.3120201
32	0xbf8056ec	-1.0026526
33	0xc086aa4b	-4.2082877
34	0xbe8bc357	-0.2729747
35	0xbf17ba43	-0.5926859
36	0x3f0f9389	0.56084496
37	0xbef2ec51	-0.4744592
38	0xbdac61e1	-0.084171064
39	0x3e52cd9d	0.20586248
40	0x3f127bc8	0.57220125
41	0xbea23383	-0.31679925
42	0xbe30d569	-0.1726891
43	0xbfadc78c	-1.3576522
44	0xbf430fc7	-0.7619595
45	0xbf129d4a	-0.57271254
46	0xbf2e3fd8	-0.6806617
47	0x3e9d00f0	0.30664778
48	0x3eac4e37	0.33653423
49	0xbf6561a2	-0.896021
50	0xbf33b1d0	-0.70193195
51	0xbeb0794d	-0.34467545
52	0xbbe9eb80	-0.0071386695
53	0x3eeb3780	0.4594078
54	0xbe7dc382	-0.24781612
55	0x3fadc230	1.3574886
56	0xbeb29a82	-0.34883505
57	0xbfa899ae	-1.3171899
58	0xbfbc61df	-1.4717368
59	0xbf3633da	-0.7117287
60	0xbffd3773	-1.9782547
61	0xbec1499a	-0.37751466
62	0xbf919f97	-1.1376828
63	0xbe1d6ce1	-0.15373565
64	0xbf015c22	-0.5053121
65	0x3f6c0f8e	0.92211235
66	0xbfa0115f	-1.2505301
67	0x3e8f2a38	0.27961898
68	0xbed685e1	-0.41899016
69	0x3e1be855	0.15225346
70	0x3da8fed1	0.08251727
71	0xbee5aa5f	-0.44856545
72	0xc011eefe	-2.280212
73	0xbedd7d36	-0.4325959
74	0x3f273181	0.6530991
75	0xbf0bc16f	-0.5459203
76	0xbee189cc	-0.44050443
77	0xc030ba5e	-2.761375
78	0xc0ee2261	-7.4416966
79	0xbf51da85	-0.8197406
80	0xbf348d03	-0.70527667
81	0x3e558632	0.20851973
82	0x3e04e11a	0.12976494
83	0xbea4c8c2	-0.32184416
84	0xc02b865e	-2.6800761
85	0xbedd4905	-0.43219772
86	0xbef4d84b	-0.47821268
87	0x3eec3e1a	0.4614113
88	0xbf5f1332	-0.87138665
89	0xbe18c095	-0.14917214
90	0xbf8a91d3	-1.0825752
91	0x3e1496f3	0.14510708
92	0xbf07bfe7	-0.53027195
93	0x3e3b4815	0.18289216
94	0x3f08c6af	0.5342817
95	0xbf6e435a	-0.9307152
96	0xbed58f65	-0.41710964
97	0xbf58b70b	-0.846543
98	0xbeb8cede	-0.36095327
99	0x3db2dd46	0.08733611
100	0xbcf900fc	-0.030395977
101	0xbe968e5a	-0.2940548
102	0xbcac55ee	-0.021037068
103	0xbe44c744	-0.19216639
104	0xbd41d8c6	-0.047325872
105	0x3d427231	0.047472183
106	0xbf83bfb8	-1.0292883
107	0xbf3c8d30	-0.73652935
108	0xbedf3e30	-0.43602133
109	0xc0a2d69b	-5.088697
110	0xbf43604d	-0.7631882
111	0x3e96a78f	0.29424712
112	0x3e41b064	0.18914944
113	0xbf287be9	-0.6581407
114	0xc09d06f0	-4.907097
115	0x3ef6719f	0.4813356
116	0xbe7043e1	-0.23463394
117	0xc0720a87	-3.7818925
118	0xbeddeeca	-0.43346244
119	0xc0258a27	-2.5865571
120	0xbec7a4a8	-0.3899281
121	0xbfe83e15	-1.8143946
122	0xbcfdb0b6	-0.030968051
123	0x3e804a6e	0.25056785
124	0x3f926429	1.1436816
125	0xbf2926ee	-0.66075027
126	0xbf75c64b	-0.96005696
127	0xbfa62e50	-1.2982883

hidden_layers.1.layer.weight_v f4 [128, 128]
0	0xbea3949f	-0.31949326
1	0xbe4f4e58	-0.2024473
2	0x3ee1db5a	0.44112664
3	0x3f085f62	0.5327054
4	0xbf491e46	-0.7856182
5	0x3f1fc72c	0.6241329
6	0xbe6ba09f	-0.23010491
7	0x3eb1180b	0.34588656
8	0xbde805aa	-0.11329205
9	0x3f79b71b	0.9754502
10	0xbfb1bf6e	-1.3886545
11	0x3fd1fc53	1.6405128
12	0xbe15710a	-0.14593902
13	0x3ea961de	0.3308248
14	0xbedda79f	-0.43291947
15	0xbe4ad223	-0.19806723
16	0x3fbf0637	1.4923772
17	0x3f01b6ca	0.5066954
18	0xbf00abcd	-0.5026215
19	0x3e8fdd75	0.28098646
20	0xbf4b25dd	-0.7935465
21	0xbe665346	-0.22492704
22	0xbf24c42d	-0.6436184
23	0x3f15da5f	0.5853633
24	0x3f8cb024	1.0991254
25	0xbefa807c	-0.4892615
26	0xbea71f30	-0.32640982
27	0xbcdc6da2	-0.026907746
28	0x3fc4990e	1.5359209
29	0xbe533a86	-0.20627794
30	0xbfb0a02c	-1.379888
31	0x3dc0c369	0.094122715
32	0x3f2d8f6f	0.6779699
33	0xbf0ffc06	-0.5624393
34	0x3e976390	0.29568148
35	0xbf9e0b4f	-1.2347201
36	0xbfa738e6	-1.3064239
37	0xbe942bb2	-0.28939587
38	0xbf0d84d3	-0.552808
39	0x3f072a4f	0.5279893
40	0x3ecd1d29	0.4006131
41	0x3e108d28	0.14116347
42	0xc0005e1e	-2.0057445
43	0x3e8bd4ae	0.273107
44	0xbf15c83f	-0.58508676
45	0xbf0b6af2	-0.5446006
46	0x3f8bac4a	1.0911953
47	0xbedf69db	-0.4363545
48	0x3f88e33d	1.0694348
49	0x3ea62ae3	0.32454595
50	0xbf596455	-0.8491872
51	0x3f6d781d	0.92761403
52	0x3f116485	0.56794006
53	0xbf280e67	-0.65646976
54	0x3f4f540a	0.8098761
55	0x3f4c70af	0.7985944
56	0xbf19ba2a	-0.6004969
57	0xbd807cd2	-0.062738076
58	0xbf507d06	-0.8144077
59	0x3f00243a	0.5005528
60	0xbef9686e	-0.48712486
61	0xbe1fe805	-0.15615852
62	0x3ee04b8c	0.43807638
63	0xbf4c1f23	-0.7973501
64	0x3e24744d	0.1605999
65	0x3ef6c315	0.4819571
66	0xbed4d8af	-0.41571566
67	0x3eef99ee	0.46797127
68	0xbe6da948	-0.23209107
69	0xbea765ac	-0.32694757
70	0x3fd299f8	1.6453238
71	0x3e888f08	0.26671624
72	0xbec739b5	-0.38911214
73	0xbcbf8780	-0.023380041
74	0xbf00ed03	-0.5036165
75	0x3e3ebddc	0.18627113
76	0x3e316261	0.17322685
77	0x3f1694ef	0.58821005
78	0x3d4b29e1	0.049600486
79	0xbd775139	-0.060380194
80	0xbf3a3db4	-0.727504
81	0x3de05460	0.10953593
82	0x3eeb6457	0.4597499
83	0x3f19cb82	0.60076153
84	0x3ec14d0e	0.377541
85	0xbe5c983c	-0.21542448
86	0x3f00a801	0.50256354
87	0xbf358d8b	-0.709191
88	0x3fae8da3	1.3636974
89	0x3cfa4d52	0.030554447
90	0x3e6bbc86	0.23021135
91	0x3fc213b7	1.5162266
92	0x3fab8dcb	1.3402647
93	0x3ee49d8d	0.44651452
94	0x3f4b67cd	0.7945526
95	0xbf45fdfa	-0.7734066
96	0xbe844d06	-0.25840014
97	0xbeee0f2f	-0.4649596
98	0xbecb8b75	-0.39754835
99	0xbfabbd24	-1.3417096
100	0xbfe69a20	-1.8015785
101	0x3e9a1c04	0.300995
102	0x3f091097	0.5354094
103	0xbe6e5c97	-0.23277508
104	0x3e642327	0.22279035
105	0xbe931fcd	-0.287352
106	0xbfc7761c	-1.5582919
107	0xbdac433a	-0.0841126
108	0xbd41f496	-0.047352396
109	0xbf06cfd8	-0.52660894
110	0xbee31c2a	-0.44357425
111	0xbddd49ec	-0.10805115
112	0x3f482d20	0.78193855
113	0xbf10959d	-0.5647829
114	0xbfc4a304	-1.5362248
115	0x3f3c79a6	0.7362312
116	0xbdba57cd	-0.09098778
117	0xbf2a9865	-0.66638786
118	0xbd828f7f	-0.06375026
119	0xbc7a1f47	-0.015266246
120	0xbe881e3a	-0.2658556
121	0xbeffd204	-0.49964917
122	0x3e18e34e	0.1493046
123	0xbf299394	-0.6624081
124	0xbf8f3aa7	-1.1189774
125	0x3e5f171a	0.21786156
126	0xbfe4596e	-1.7839792
127	0xbe115e8e	-0.14196226
128	0x3f27bb97	0.65520614
129	0xbdba207b	-0.090882264
130	0xbf5b0ea3	-0.8556921
131	0xbfe03427	-1.7515916
132	0x3f522710	0.82090855
133	0xbf8f18a9	-1.1179401
134	0x3f86b03d	1.0522534
135	0xbf0ee1dc	-0.55813384
136	0xbf3e308a	-0.74292815
137	0xbe099a1c	-0.13437694
138	0xbe8be3c4	-0.2732221
139	0x3e70dc53	0.23521547
140	0xbf8c02c7	-1.0938348
141	0xbee4b81a	-0.44671708
142	0x3f3ae171	0.73000246
143	0x3f14f170	0.58180904
144	0x3e040134	0.12891084
145	0xbfcb19c5	-1.5867239
146	0x3f62a173	0.885276
147	0xbea7c459	-0.3276699
148	0x3fd29f88	1.6454935
149	0x3fca20b7	1.5791234
150	0x3f8bd25a	1.0923569
151	0x3f2565c6	0.6460842
152	0xbed938fb	-0.42426285
153	0x3f312ccc	0.6920898
154	0x3fe2fcae	1.7733362
155	0x3e9de5e8	0.30839467
156	0x3f321e31	0.6957732
157	0x3e5f1a78	0.21787441
158	0xbedaa4d9	-0.42703894
159	0xbec473bb	-0.38369545
160	0xbdee190d	-0.11625872
161	0x3e8cff83	0.2753869
162	0xbf3ae219	-0.7300125
163	0x3f307d0e	0.6894082
164	0x3dadd749	0.08488328
165	0x3fed7826	1.8552291
166	0x3dec5f3c	0.11541602
167	0xbf85cac5	-1.0452505
168	0xbee4fe7e	-0.44725412
169	0x3f85a323	1.044041
170	0x3e4a8685	0.19777878
171	0xbfd10d7e	-1.6332242
172	0xbef9cb3e	-0.48787874
173	0x3fd2aaa7	1.6458329
174	0xbf77f89b	-0.96863717
175	0xbf45d60a	-0.7727972
176	0x401112da	2.2667756
177	0xbf1123d5	-0.566953
178	0xbdc69a7c	-0.09697434
179	0xbe908269	-0.28224495
180	0xbe8d653f	-0.27616307
181	0x3c9d7076	0.019218665
182	0xbe36ad82	-0.17839625
183	0xbfd6412f	-1.6738642
184	0x3eace8b8	0.337713
185	0x400c417d	2.191497
186	0x3e13bbeb	0.14427154
187	0x3f20f7cf	0.62878126
188	0x3fc7eea7	1.5619706
189	0x3f66a11a	0.9008957
190	0xbfe3bc2e	-1.7791803
191	0xbcc269d2	-0.0237321
192	0x3f422394	0.7583554
193	0xbf678817	-0.9044203
194	0xbf10a448	-0.56500673
195	0xbf944964	-1.1584897
196	0x3fc4f585	1.5387427
197	0x3f22effe	0.6364745
198	0xbddecad2	-0.10878529
199	0x3ee5282b	0.44757208
200	0x3e890c15	0.2676703
201	0x3f890fe8	1.0707979
202	0x40114dc9	2.2703726
203	0xbecc57a7	-0.39910623
204	0xbfcf5331	-1.6197263
205	0xbfeb1182	-1.8364718
206	0x3ffef5b9	1.9918739
207	0xbdf6f748	-0.12058884
208	0xbf1c88ce	-0.6114625
209	0xbf5d876c	-0.8653476
210	0x3f0c01f1	0.5469046
211	0x4022d60e	2.5443149
212	0xbfdf51cc	-1.7446837
213	0x3f8843ef	1.0645732
214	0xbed6bc97	-0.41940758
215	0x3f37eaaa	0.71842444
216	0xbf2d7f65	-0.67772514
217	0xbf0b5738	-0.5442996
218	0xbefebe8c	-0.4975475
219	0x3f0e7fe0	0.5566387
220	0x3ddca74f	0.10774099
221	0xbf701fd8	-0.9379859
222	0xbfcd7974	-1.605269
223	0x3f4909eb	0.7853076
224	0x3f95cc5c	1.170299
225	0x3f959ef9	1.168914
226	0xbf1dbd99	-0.6161743
227	0x3f4ac31c	0.79203963
228	0xbe10ae08	-0.14128888
229	0x3f2a8730	0.6661253
230	0xbf01c949	-0.5069776
231	0xbf258008	-0.64648485
232	0x3fb3a8dc	1.4035907
233	0xbfcebe16	-1.615176
234	0x3e83eb04	0.2576524
235	0x3ef9b205	0.4876863
236	0x3fe5c859	1.7951766
237	0x3ec707fb	0.38873276
238	0x3f66cf98	0.9016051
239	0xbe43e4f6	-0.1913031
240	0xbfcbc3b4	-1.5919099
241	0x3e99016b	0.29883894
242	0x3f445ff4	0.7670891
243	0xbea76cf9	-0.32700327
244	0x3f1e7dbb	0.619106
245	0x3fc795a2	1.5592539
246	0xbde5f8c4	-0.11229089
247	0xbe91385a	-0.28363305
248	0x3fd69cfb	1.6766657
249	0x3f760783	0.9610521
250	0xbdec2135	-0.11529771
251	0x3ee7dfa5	0.45287815
252	0xbd961dd5	-0.07329909
253	0xbe325e92	-0.17418888
254	0x3ef1076c	0.47075975
255	0x3f0b8405	0.5449832

hidden_layers.2.layer.bias f4 [128]
0	0x3fa2b4d9	1.271144
1	0xbf6ee1f1	-0.9331351
2	0xbedee622	-0.43534952
3	0x3e648b99	0.22318877
4	0x3f3acc10	0.72967625
5	0xbb53019a	-0.0032197
6	0xbe8fde7d	-0.28099433
7	0xbebd6417	-0.36990425
8	0x3d2713c8	0.04079035
9	0x3facafef	1.3491191
10	0xbf34600d	-0.7045906
11	0x3f28d083	0.65943164
12	0x3e6660a0	0.22497797
13	0xbe05f31f	-0.13081025
14	0xbdaedba4	-0.08537987
15	0x3f9c9368	1.2232485
16	0x3a8da35f	0.0010806135
17	0x3eff3e07	0.4985201
18	0x3dfaf747	0.12254196
19	0x3d9c4f3a	0.07632299
20	0xbe3a11ce	-0.18170854
21	0xbe458cdc	-0.19292015
22	0x3f5bb0d1	0.85816675
23	0xbe15e1ec	-0.14636964
24	0x3f014ed6	0.5051092
25	0x3e9e6990	0.30939913
26	0x3f308037	0.6894564
27	0x3d7d70df	0.06187522
28	0x3e9cec43	0.30649003
29	0x3e61440d	0.21998616
30	0xbf9e7366	-1.2378967
31	0x3eedda15	0.46455446
32	0x3f121981	0.57070166
33	0x3e2c6fee	0.16839573
34	0x3dd1cf2d	0.10244594
35	0xbda1b56c	-0.078959316
36	0x3e2f0db7	0.17095076
37	0xbdb5d496	-0.08878438
38	0x3ec07a7a	0.37593442
39	0x3e547974	0.20749456
40	0xbe3698b9	-0.17831697
41	0x3ff6dbe6	1.9285858
42	0x3eb7ca81	0.35896686
43	0x3f680a38	0.9064059
44	0x3ea1bc12	0.315888
45	0x3ee3f225	0.4452068
46	0xbeb75e09	-0.3581393
47	0x3fc5ff57	1.5468549
48	0x3ef8c663	0.48588857
49	0xbe24e602	-0.16103366
50	0x3ee24867	0.44195864
51	0x3df18fe3	0.11795022
52	0x3ed9d6f5	0.42546812
53	0x3e51caec	0.20487565
54	0xbd61c79b	-0.055122
55	0x3ec43b4c	0.3832649
56	0xbe9815b5	-0.2970406
57	0x3e42040d	0.18946858
58	0xbf5d022a	-0.8633143
59	0xbd94b5e9	-0.07261259
60	0x3f04669e	0.5171908
61	0x3ef499f6	0.47773713
62	0x3fcabf18	1.5839567
63	0xbf215576	-0.6302103
64	0xbde6bba3	-0.112662576
65	0xbe4f7c8f	-0.20262359
66	0x3d80e486	0.062935874
67	0xbdb836e4	-0.089948446
68	0xbdb846a5	-0.089978494
69	0xbe88dc0b	-0.2673038
70	0x3ef8447f	0.48489758
71	0x3ebf1413	0.37320003
72	0xbe597959	-0.21237697
73	0xbedf9688	-0.43669534
74	0xbd2f6690	-0.04282242
75	0x3edca6af	0.4309592
76	0x3d01351e	0.031544797
77	0x3edd98b4	0.43280566
78	0xbd76beef	-0.060240682
79	0x3d90c908	0.07069594
80	0x40054829	2.0825293
81	0x3e37e49a	0.17958298
82	0x3e64f2aa	0.22358194
83	0xbe65fb3b	-0.22459118
84	0x3f02a2da	0.5102974
85	0x3f8c8270	1.0977306
86	0x3dd1eea9	0.10250599
87	0xbf4646e5	-0.77451926
88	0xbff1e788	-1.8898783
89	0xbe969475	-0.2941014
90	0xbec47edd	-0.3837804
91	0xbf1a7f51	-0.6035052
92	0x3f2c63fb	0.6734006
93	0xbd88cd10	-0.066797376
94	0x3f941749	1.1569606
95	0x3e89fc63	0.26950368
96	0x3de5a447	0.11212974
97	0x3eb7dba6	0.35909766
98	0xbd11519d	-0.035478223
99	0x3f3ac86d	0.72962075
100	0x3dae88d8	0.085221946
101	0xbdb938aa	-0.09044011
102	0x3eb2f312	0.34951073
103	0xbde3f56a	-0.111307934
104	0xbf032926	-0.5123466
105	0x3f0f4575	0.5596536
106	0x3f5652ad	0.83719903
107	0xbf34da6b	-0.7064578
108	0x3d1371aa	0.03599707
109	0x3edb9433	0.42886505
110	0xbf108207	-0.56448406
111	0xbc9f3e21	-0.019438805
112	0x3f52d4cf	0.8235597
113	0x3ea30a1a	0.31843644
114	0x3e85e925	0.26154438
115	0xbd1a7fc0	-0.03771949
116	0x3db62eb2	0.08895625
117	0x3e275a20	0.16342974
118	0xc03dec9f	-2.9675672
119	0xbeea7072	-0.45788914
120	0x3e8c5b63	0.27413473
121	0xbe9a02df	-0.30080315
122	0xbf13736d	-0.57598
123	0x3ebc8b3c	0.36824977
124	0x3f148822	0.5802022
125	0x3e73779b	0.23776095
126	0x3f402f91	0.7507258
127	0x3f35e5bd	0.7105368

hidden_layers.2.layer.weight_g f4 [128, 1]
0	0xc0222c06	-2.533937
1	0xbf9ac5b6	-1.2091587
2	0xc0c67ce5	-6.202746
3	0xbf5c54a5	-0.8606666
4	0xbfa9f2fd	-1.3277279
5	0xbf10be8e	-0.56540763
6	0xbf82b1b1	-1.0210477
7	0xbf72503c	-0.9465368
8	0xbf0c9341	-0.5491219
9	0xc01634e6	-2.3469787
10	0xc03e0f94	-2.9697008
11	0xc04642bc	-3.0978231
12	0xbcab18e9	-0.020885902
13	0xbfce647e	-1.6124418
14	0xbf8a7e04	-1.0819707
15	0xc03b11f8	-2.9229717
16	0xc02a0991	-2.656834
17	0xc06c9f1b	-3.697211
18	0xbf8379bc	-1.0271525
19	0xbfc79117	-1.5591153
20	0xc0239f7e	-2.5566096
21	0xbf1df550	-0.6170244
22	0xbfb0a422	-1.3800089
23	0xbf08bbbe	-0.5341147
24	0xbee9cc2f	-0.45663592
25	0xbfd95279	-1.6978294
26	0xbfd09f22	-1.6298563
27	0xbda481aa	-0.08032544
28	0xbf9d16ac	-1.2272544
29	0xbf213464	-0.62970567
30	0xc038259c	-2.8772955
31	0xbfea9d43	-1.8329242
32	0xbf8722f6	-1.0557544
33	0xbf480d0b	-0.781449
34	0xbf6c6e93	-0.9235622
35	0xbf8f9521	-1.1217386
36	0xbeba0456	-0.36331433
37	0xbeba1d9e	-0.3635072
38	0xbfbf3b4b	-1.493997
39	0xbe9a078d	-0.30083886
40	0xbeadd057	-0.33948013
41	0xbfccf1ab	-1.6011251
42	0xbfea6650	-1.8312473
43	0xc042ed48	-3.0457325
44	0xbfe56a6c	-1.7923102
45	0xbfd81001	-1.6879884
46	0xc0156958	-2.3345547
47	0xc03a7e66	-2.9139647
48	0xbf02588a	-0.5091635
49	0xbf16dca1	-0.58930403
50	0xc017ab9d	-2.3698494
51	0xc01fa361	-2.4943469
52	0xc00b8b63	-2.1803825
53	0xbf888c3f	-1.06678
54	0xc00de648	-2.2171803
55	0xbf6c0e44	-0.9220927
56	0xbfa1963a	-1.262397
57	0xbec6a101	-0.3879471
58	0xbfcbf6db	-1.5934709
59	0xbf112a96	-0.56705606
60	0xbfb6cef6	-1.428191
61	0xc02ca693	-2.697667
62	0xc1822ffd	-16.273432
63	0xbf032f35	-0.5124391
64	0xbec6b3d8	-0.38809085
65	0xbf8fdd02	-1.1239321
66	0xc08b4019	-4.3515744
67	0xbff6ae44	-1.9271932
68	0xbed12d47	-0.40854856
69	0xbf237bc8	-0.6386075
70	0xbe9b1047	-0.30285856
71	0xbf12ef4e	-0.573964
72	0xbf76e31e	-0.96440303
73	0xbfcb0e06	-1.5863655
74	0xbf153781	-0.5828782
75	0xbf26109e	-0.64869106
76	0xbfc6deaf	-1.5536708
77	0xbf38c22b	-0.72171277
78	0xc007de1c	-2.1229315
79	0xbf459d51	-0.7719317
80	0xc0354122	-2.8321004
81	0xc077ffd9	-3.8749907
82	0xbf007628	-0.5018029
83	0xbfaf6527	-1.3702744
84	0xbf427103	-0.7595369
85	0xbfd91389	-1.6959087
86	0xbf3fea4d	-0.7496689
87	0xbf954fb3	-1.1664947
88	0xc0770354	-3.8595781
89	0xc00b4bd9	-2.1765044
90	0xbfc53c3b	-1.5409006
91	0xc002bc2d	-2.0427353
92	0xbf42f4d7	-0.76154846
93	0x3e7a1991	0.24423815
94	0xc08a9e51	-4.3318257
95	0xbf684d5b	-0.90743035
96	0xbf0b3367	-0.5437531
97	0xbf89f51e	-1.0777929
98	0xbe4782c8	-0.19483483
99	0xc0487ceb	-3.1326244
100	0xbf8503bb	-1.0391763
101	0x3c286416	0.010277769
102	0xbf832fbd	-1.0248944
103	0xbee30912	-0.44342858
104	0xbfcc9052	-1.5981543
105	0xbe9d571c	-0.30730522
106	0xc0b451a2	-5.634965
107	0xbfb661ff	-1.4248656
108	0xbf4110c8	-0.7541623
109	0xc032e9b3	-2.7955139
110	0xc00e79e1	-2.226189
111	0xbf68afb3	-0.90893096
112	0xbfb98376	-1.4493244
113	0xbfd8cd87	-1.6937722
114	0xbfa464ec	-1.2843299
115	0xbf3fa95d	-0.748678
116	0xbfd1010d	-1.6328446
117	0xc01f6be7	-2.4909608
118	0xbf54a750	-0.830678
119	0xc0219fe0	-2.525383
120	0xbf86221d	-1.047916
121	0xc022d378	-2.544157
122	0xc066744f	-3.600849
123	0xbfe9bd65	-1.8260924
124	0xc0050614	-2.078496
125	0xc0535320	-3.3019485
126	0xbf8f701f	-1.1206092
127	0xc05d9478	-3.4621868
