bshj_1d.pth (torch, 206956 bytes, 13 tensors)

input_layer.bias f4 [128]
-1.3341345 1.918257 -1.8718895 -1.6432673 -2.2456453 -1.337107 0.57949317 0.553435
-2.6813776 2.0045013 2.2899973 0.021943802 -1.9001415 -1.7177734 3.2963722 -1.56683
-1.2020198 -0.2757903 2.7501512 -1.4865081 -0.57063353 -1.5517714 1.0389457 -1.9021243
0.4141022 -1.6448332 1.4583962 1.5987394 1.7433889 2.084824 1.9696052 1.8577499
-0.633973 1.4145079 -2.0665045 -1.35374 0.60719013 2.3441432 -1.0474908 0.2545773
0.13503906 -0.12247242 1.2099204 -1.2287037 1.5125716 -0.97269785 -1.7206742 -0.90071666
1.9206773 1.1028885 -1.7119629 -1.4879974 -1.8559921 0.31749913 2.243629 -1.4840504
-1.8074912 -0.28891006 1.2463214 -0.668918 -1.8273365 1.1072214 1.3437842 -1.3182425
1.6367873 -1.2822591 -0.4514333 2.2189305 2.0431025 0.23496859 2.2082496 2.8411973
-1.5098951 -1.8967903 1.5478219 -1.468993 0.7179869 -1.5486925 -1.933793 1.3207992
-0.16934527 1.4767362 -1.781313 -1.6345224 0.62798744 1.5838099 1.0326571 -1.9978825
1.9206175 -1.4447657 -1.0782777 -1.2534355 1.7538855 0.5573892 0.06557992 -1.9486696
-0.49450412 -0.6615648 1.5628544 -2.6886046 2.3574913 1.4988688 -0.9020672 -2.3540301
2.0922883 -0.9321334 1.1915289 0.81580085 1.8450803 -1.4473643 0.63045317 -1.3391675
0.525515 -1.459289 1.6145377 0.4503841 -0.961607 -1.5596225 -1.68549 2.8236728
-0.88485634 1.4432029 -2.4295743 1.973132 -1.6842371 0.71904784 0.3135325 1.4162965
00000000: ebc4 aabf 7289 f53f 139a efbf 9556 d2bf
00000010: a7b8 0fc0 5226 abbf aa59 143f ebad 0d3f
00000020: b19b 2bc0 c049 0040 518f 1240 7dc3 b33c
00000030: d637 f3bf 00e0 dbbf c3f7 5240 e38d c8bf
00000040: c9db 99bf 6334 8dbe 7a02 3040 e645 bebf
00000050: 0a15 12bf 72a0 c6bf 2cfc 843f cf78 f3bf
00000060: 3405 d43e e589 d2bf baac ba3f 7ea3 cc3f
00000070: 5e27 df3f c26d 0540 061c fc3f c0ca ed3f
00000080: 0e4c 22bf 980e b53f 9c41 04c0 5a47 adbf
00000090: d070 1b3f 7106 1640 2e14 86bf f557 823e
000000a0: ae47 0a3e d2d2 fabd acde 9a3f 2a46 9dbf
000000b0: f29b c13f ba02 79bf 0d3f dcbf 5e95 66bf
000000c0: c1d8 f53f 732b 8d3f 9a21 dbbf b376 bebf
000000d0: 2691 edbf 3f8f a23e 9e97 0f40 5df5 bdbf
000000e0: df5b e7bf 05ec 93be 7687 9f3f 363e 2bbf
000000f0: 2ae6 e9bf 6eb9 8d3f 1f01 ac3f 2cbc a8bf
00000100: 3f82 d13f 1121 a4bf 4422 e7be f502 0e40
00000110: 31c2 0240 9b9b 703e f653 0d40 2dd6 3540
00000120: 3e44 c1bf 06ca f2bf 071f c63f f607 bcbf
00000130: fdcd 373f 8e3b c6bf 8786 f7bf f30f a93f
00000140: d968 2dbe b105 bd3f 1002 e4bf 0838 d1bf
00000150: c9c3 203f 48ba ca3f 1c2e 843f 9dba ffbf
00000160: cbd6 f53f 15ee b8bf 0105 8abf 9370 a0bf
00000170: 527f e03f 0fb1 0e3f c44e 863d 016e f9bf
00000180: a52f fdbe 505c 29bf 9d0b c83f 1912 2cc0
00000190: 23e1 1640 efda bf3f e0ed 66bf 6ea8 16c0
000001a0: 0de8 0540 4ba0 6ebf 0584 983f 53d8 503f
000001b0: 972b ec3f 3c43 b9bf 6165 213f d769 abbf
000001c0: 2788 063f fbc9 babf 2ca9 ce3f bf98 e63e
000001d0: e02b 76bf b6a1 c7bf 23be d7bf 0eb7 3440
000001e0: f285 62bf dfba b83f 257e 1bc0 978f fc3f
000001f0: 1595 d7bf 8513 383f 5587 a03e 3449 b53f

input_layer.weight_g f4 [128, 1]
1.0391953 2.6180625 -1.4474244 0.093421996 -0.8014501 1.505118 -0.38940185 -4.809886
-1.5753878 -0.33183417 -1.2737879 -3.54957 -3.0411057 -3.0217922 7.8933234 2.2621377
-0.79866207 -3.4758782 -1.3851146 -2.2695258 -2.9117062 -1.8991219 -1.2717779 0.47646353
-0.42702547 -0.9795404 -1.0533175 -1.6433697 -1.9532069 -2.2044168 -0.6928509 -1.0871379
0.9853618 2.011556 -0.95885533 -1.4733144 0.9119181 -1.0550579 -2.159397 3.1295404
3.994106 -0.33793953 5.2970233 -1.0006286 2.1092198 -1.0580565 1.0786903 1.713916
2.3637338 2.2897544 -1.8495104 -0.4147725 -1.328116 1.5112499 -1.5436076 1.8712717
-1.269677 0.5947391 -1.1381332 -2.280257 1.3349079 -0.003694998 1.0551406 -0.08738089
-1.2049717 -1.4615637 -0.72818214 -1.146979 -2.1431053 4.5794234 -2.068715 0.6957379
-1.7138982 -2.0606594 2.4617286 -0.66018444 -1.5404111 -2.2154613 -0.71711475 -2.2322066
1.1016026 -2.5966249 -2.9697917 -1.3912135 0.7004966 -2.0674891 -1.5698894 -1.4772514
0.4512475 0.7784949 -2.773074 -3.018246 -1.8576748 2.3419566 2.0937262 -1.5850754
-0.9839483 1.1959329 3.005045 1.1213412 -0.959161 -0.015820468 -0.66324764 -1.2623852
-0.5850599 -0.073369555 -0.6678667 -0.30807474 -3.2031043 0.49233404 3.3142798 -0.36962986
2.449929 -2.3181167 -3.2700534 -0.65254205 -0.669822 0.82144195 -1.3258547 1.7068453
-2.2420497 0.65319115 -6.8575783 -1.50897 -1.4698454 -1.1157668 1.3098954 -0.9772894
00000000: 5a04 853f 568e 2740 3445 b9bf 0854 bf3d
00000010: d52b 4dbf b5a7 c03f ae5f c7be 96ea 99c0
00000020: 4fa6 c9bf 2be6 a9be 7b0b a3bf 282c 63c0
00000030: 7aa1 42c0 0b65 41c0 1b96 fc40 ddc6 1040
00000040: 1e75 4cbf ca74 5ec0 6f4b b1bf e93f 11c0
00000050: 6559 3ac0 6d16 f3bf 9ec9 a2bf 07f3 f33e
00000060: 15a3 dabe 29c3 7abf 1cd3 86bf f059 d2bf
00000070: af02 fabf 2a15 0dc0 ad5e 31bf 5627 8bbf
00000080: ac40 7c3f 55bd 0040 8b77 75bf 9195 bcbf
00000090: 7773 693f 230c 87bf 8f33 0ac0 644a 4840
000000a0: 6f9f 7f40 6906 adbe 3781 a940 9914 80bf
000000b0: 75fd 0640 656e 87bf 8612 8a3f 9961 db3f
000000c0: 6a47 1740 568b 1240 c2bc ecbf 105d d4be
000000d0: b5ff a9bf a370 c13f ef94 c5bf d585 ef3f
000000e0: c784 a2bf d240 183f 59ae 91bf bbef 11c0
000000f0: 43de aa3f c827 72bb d90e 873f c1f4 b2bd
00000100: 833c 9abf 8514 bbbf 256a 3abf 35d0 92bf
00000110: a328 09c0 a38a 9240 d465 04c0 e11b 323f
00000120: 0461 dbbf d8e1 03c0 f68c 1d40 d901 29bf
00000130: 312c c5bf 1eca 0dc0 d594 37bf 79dc 0ec0
00000140: 5001 8d3f 1a2f 26c0 1111 3ec0 4913 b2bf
00000150: bf53 333f be51 04c0 23f2 c8bf 9316 bdbf
00000160: ea09 e73e 714b 473f 0b7a 31c0 f12a 41c0
00000170: 4ac8 edbf 9ee2 1540 9cff 0540 c0e3 cabf
00000180: 09e4 7bbf 5414 993f a852 4040 1c88 8f3f
00000190: 938b 75bf ed99 81bc 99ca 29bf d795 a1bf
000001a0: 7cc6 15bf c742 96bd 50f9 2abf f9bb 9dbe
000001b0: a9ff 4cc0 3513 fc3e 291d 5440 2040 bdbe
000001c0: a3cb 1c40 065c 14c0 8e48 51c0 ff0c 27bf
000001d0: 7479 2bbf 054a 523f 9bb5 a9bf e879 da3f
000001e0: be7d 0fc0 8937 273f 4871 dbc0 ee25 c1bf
000001f0: e523 bcbf 72d1 8ebf a7aa a73f a32f 7abf

input_layer.weight_v f4 [128, 2]
-1.0783442 -2.5777893 3.105762 -0.4889858 -0.21311249 2.6155267 -2.2381678 -0.25192532
3.7609534 -1.6168303 -1.1154765 -3.200375 -1.7630222 1.1365975 2.5510128 0.49871585
-2.8593032 -1.3518319 2.9884317 1.5537169 0.5494454 -2.666471 -2.212864 -0.2741558
1.1541033 -2.6097136 -0.37139922 -2.9148283 -0.27204967 -5.378406 -0.8495045 -3.1272175
2.459873 -0.8656398 1.5592415 -1.1562659 -1.2981306 -0.74860555 -0.67875355 -2.7572591
-1.3542814 -0.6936878 -2.1536326 2.7486548 1.9318408 -1.2090471 -1.5346868 -3.1585367
-1.5597105 1.3032929 -1.5578408 2.312974 0.6551919 2.1275568 -4.0545206 2.1932683
2.2157307 -1.8419969 1.7320797 -3.099561 -2.9089894 1.2021589 3.5473635 2.1376634
-0.08929001 -1.7382553 1.0892353 3.240473 -0.8550127 2.5943594 -0.37880847 -2.0339847
-0.1306161 -1.6326413 -1.9490271 0.2607054 0.27151844 -1.8311896 -0.08996885 3.893395
-0.024546556 -2.919453 1.0105958 0.18716855 -0.35126925 -3.7430947 -1.754949 -0.8040313
1.453804 2.6893625 -1.2288715 2.9401846 5.615498 -2.3448422 -1.1729189 -2.1040473
2.1929548 0.52103436 1.0365554 2.492605 -0.382457 -2.217045 0.24949285 1.440544
-0.21546642 2.2689617 -2.6128862 -2.6235833 2.774271 -2.2749407 1.2374297 -2.2615721
-1.3789074 2.4483526 -0.08627997 2.5696645 0.9906965 2.177954 -1.723864 0.45776922
-2.136188 -2.7645996 1.8904005 0.92194265 0.68715996 2.4537134 1.629257 0.3178692
-2.094451 2.5793235 -1.5028504 1.6316277 -1.6161691 0.6495406 1.3871945 -3.0315385
2.133629 -2.4429915 -0.043519154 3.5818322 2.0076149 -3.0880482 3.8315163 1.86386
-1.4299427 1.8784322 0.15093587 -2.545186 1.528967 2.8932953 -0.85932726 -2.565043
-0.11863316 1.4638877 0.4641645 -2.1820188 -0.10953715 1.9252807 2.8821602 -0.7231325
-2.0901396 -0.4381559 2.6935205 2.3884037 -1.776984 -3.4209085 -1.6933764 -2.460438
-0.6419436 -1.2222848 1.4441779 -2.537069 0.7797495 1.7916358 0.8775595 -2.8278117
2.9601924 1.1414748 -2.4601388 -0.817971 -1.9632658 -1.6304191 -3.0368586 -1.9424738
0.2763734 2.1224139 0.10054697 3.369117 0.119502075 2.152652 -0.49481162 2.6681216
0.8456052 -1.9084222 -0.5826482 -2.3632817 1.2386967 3.351172 -3.5732872 -2.062303
-4.370652 2.0952725 -0.010382379 -1.4592487 1.3516089 -1.7563864 -0.7042772 2.699847
0.15434636 -2.1088552 -0.82247674 1.7155961 1.4570699 -3.3007743 -1.4324368 -0.7206273
1.0408177 3.3441353 -2.1938949 -0.3702598 0.26618832 -2.673885 1.9747301 -1.1805395
0.912868 2.6159124 -1.666181 3.2602732 -0.45469534 2.4379323 -1.3525224 -1.178605
-0.55578965 1.8067696 -4.5473375 -1.1175733 0.015126179 -2.1208394 3.793698 2.6156414
1.455175 0.35392895 1.3465756 2.706537 1.0754565 -1.1948125 1.5740281 -2.9775195
1.3253024 -2.836758 1.1723924 -2.0789504 -0.7110074 -1.9456939 0.90020883 2.4823277
00000000: 2f07 8abf 80fa 24c0 cec4 4640 595c fabe
00000010: 293a 5abe ca64 2740 243e 0fc0 5bfc 80be
00000020: 76b3 7040 4cf4 cebf efc7 8ebf f2d2 4cc0
00000030: b6aa e1bf 077c 913f cb43 2340 af57 ff3e
00000040: d3fe 36c0 d408 adbf 7742 3f40 32e0 c63f
00000050: 74a8 0c3f 76a7 2ac0 909f 0dc0 265e 8cbe
00000060: a8b9 933f 8c05 27c0 0a28 bebe 8c8c 3ac0
00000070: 184a 8bbe e71b acc0 2079 59bf 5524 48c0
00000080: 8f6e 1d40 929a 5dbf 3a95 c73f 8500 94bf
00000090: 2529 a6bf 9da4 3fbf cbc2 2dbf ef76 30c0
000000a0: 1859 adbf 8695 31bf 1ed5 09c0 f6e9 2f40
000000b0: 8f46 f73f 0ec2 9abf 9e70 c4bf 7725 4ac0
000000c0: 98a4 c7bf 4dd2 a63f 5467 c7bf c407 1440
000000d0: a8ba 273f e429 0840 a2be 81c0 825e 0c40
000000e0: 88ce 0d40 8ec6 ebbf cab4 dd3f 355f 46c0
000000f0: e22c 3ac0 58e0 993f 0108 6340 7acf 0840
00000100: aedd b6bd 267f debf 106c 8b3f e963 4f40
00000110: 1de2 5abf fc09 2640 2ff3 c1be ce2c 02c0
00000120: 3ac0 05be 64fa d0bf b879 f9bf 2e7b 853e
00000130: 7704 8b3e 6c64 eabf 9741 b8bd 622d 7940
00000140: dc15 c9bc 51d8 3ac0 345b 813f 1da9 3f3e
00000150: 90d9 b3be dd8e 6fc0 2ba2 e0bf ffd4 4dbf
00000160: 4016 ba3f 841e 2c40 a94b 9dbf fc2b 3c40
00000170: 29b2 b340 e511 16c0 3522 96bf b6a8 06c0
00000180: 5f59 0c40 8262 053f d9ad 843f d786 1f40
00000190: 67d1 c3be 11e4 0dc0 0e7b 7f3e bf63 b83f
000001a0: 3ba3 5cbe ab36 1140 8739 27c0 cae8 27c0
000001b0: a88d 3140 a198 11c0 1964 9e3f 99bd 10c0
000001c0: 0a80 b0bf cfb1 1c40 8eb3 b0bd 6275 2440
000001d0: 499e 7d3f 9963 0b40 93a7 dcbf ba60 ea3e
000001e0: 4eb7 08c0 33ef 30c0 a5f8 f13f 6f04 6c3f
000001f0: b7e9 2f3f a409 1d40 7e8b d03f c0bf a23e
00000200: 7c0b 06c0 a313 2540 675d c0bf 2dd9 d03f
00000210: a1de cebf 4b48 263f 978f b13f ba04 42c0
00000220: 618d 0840 f959 1cc0 2441 32bd bd3c 6540
00000230: c37c 0040 95a2 45c0 9037 7540 f792 ee3f
00000240: 5d08 b7bf 7770 f03f ef8e 1a3e 54e4 22c0
00000250: 31b5 c33f c02b 3940 dffc 5bbf aa29 24c0
00000260: f1f5 f2bd ac60 bb3f f8a6 ed3e 32a6 0bc0
00000270: 0355 e0bd 996f f63f 5075 3840 361f 39bf
00000280: d9c4 05c0 f855 e0be a462 2c40 9bdb 1840
00000290: 3674 e3bf 2af0 5ac0 8fc0 d8bf d177 1dc0
000002a0: 6a56 24bf d473 9cbf d2da b83f 575f 22c0
000002b0: aa9d 473f 5254 e53f bda7 603f defa 34c0
000002c0: cb73 3d40 d91b 923f ea72 1dc0 8c66 51bf
000002d0: 4b4c fbbf 93b1 d0bf e45b 42c0 fba2 f8bf
000002e0: d080 8d3e a1d5 0740 92eb cd3d 9d9f 5740
000002f0: 81bd f43d 0dc5 0940 f357 fdbe 81c2 2a40
00000300: 9579 583f 2e47 f4bf 6f28 15bf 0240 17c0
00000310: 9d8d 9e3f 9a79 5640 bdb0 64c0 c6fc 03c0
00000320: 62dc 8bc0 f218 0640 db1a 2abc a9c8 babf
00000330: 8501 ad3f 45d1 e0bf 834b 34bf 4bca 2c40
00000340: f90c 1e3e 7cf7 06c0 d68d 52bf a798 db3f
00000350: 4481 ba3f e33f 53c0 175a b7bf 087b 38bf
00000360: 8439 853f 5006 5640 c668 0cc0 b192 bdbe
00000370: d649 883e ef20 2bc0 f5c3 fc3f eb1b 97bf
00000380: b8b1 693f 1c6b 2740 6b45 d5bf 51a8 5040
00000390: d4cd e8be 1507 1c40 741f adbf 87dc 96bf
000003a0: 3b48 0ebf 3a44 e73f ca83 91c0 a40c 8fbf
000003b0: cbd3 773c d5bb 07c0 f3cb 7240 ab66 2740
000003c0: 2d43 ba3f 2d36 b53e 975c ac3f e737 2d40
000003d0: 8fa8 893f 9eef 98bf c179 c93f ae8f 3ec0
000003e0: 82a3 a93f 718d 35c0 f410 963f 860d 05c0
000003f0: 9504 36bf 7f0c f9bf 1674 663f 75de 1e40

hidden_layers.0.layer.bias f4 [128]
0.37301698 1.6840278 -0.945117 -0.42313543 -0.016855212 -0.09514198 -0.2266425 0.15489979
-0.31960508 0.6722258 -0.47475132 0.3617137 -1.1077943 0.45332205 -0.48308682 0.41160205
0.23721263 0.7112886 0.01569749 0.6916318 0.29592246 0.39580065 -0.7673007 -0.28949955
0.4150571 -0.95910907 -0.34757072 -0.30192116 -0.0032232297 -0.6066758 -0.27848765 0.5615963
0.249433 -0.32595327 0.38603893 -0.79836076 -0.29474413 -0.13195963 0.65341663 -0.1925994
0.26046383 -0.69857705 -0.50046515 0.9495025 0.34242457 -0.5630405 -0.8245043 0.40787008
-0.47461602 -0.38101888 1.068678 0.45970613 -0.49942383 0.13449565 0.6347343 -0.23351218
0.15989843 0.5259197 -0.42829457 -0.8947907 0.2527092 0.16548878 -0.564272 0.5285656
0.5724401 0.25476724 -0.0038908576 -0.8442051 0.09714631 1.1711149 0.29089826 -0.23523073
-0.5436308 0.31189957 -2.0191429 -0.24644133 0.35110998 0.79773635 -0.56261325 -0.03970326
0.5978169 -0.11796822 0.12948084 0.17711605 0.026390433 0.67063564 -0.6397871 -0.3994732
0.45921233 -0.5242637 0.36637574 -0.69225705 -0.008642499 -0.72771126 -0.95139134 -0.12955116
-0.50224054 -0.5090544 -0.79019773 0.49719048 0.52142024 0.5442992 0.1525615 0.06993805
0.18598974 -0.3208083 0.75415796 0.7381779 0.4749785 0.31910324 -0.35975912 -0.4294634
0.31050852 -0.4431302 -0.5888461 -0.44307706 0.096036375 0.73422813 0.13625628 -0.5312628
-0.4894619 -0.6981205 -0.56062186 0.26708013 -0.4906801 0.010300821 0.17054284 -0.12943652
00000000: 15fc be3e 398e d73f 30f3 71bf 35a5 d8be
00000010: f113 8abc ccd9 c2bd f914 68be 0d9e 1e3e
00000020: 47a3 a3be fd16 2c3f 9b12 f3be 8a32 b93e
00000030: 34cc 8dbf d419 e83e 2857 f7be 81bd d23e
00000040: dee7 723e 0217 363f 0698 803c c80e 313f
00000050: 2683 973e 62a6 ca3e d26d 44bf 4939 94be
00000060: 5d82 d43e 2c88 75bf caf4 b1be 6995 9abe
00000070: d23c 53bb 1b4f 1bbf ef95 8ebe c6c4 0f3f
00000080: 5d6b 7f3e 59e3 a6be e5a6 c53e 5f61 4cbf
00000090: b4e8 96be 6d20 07be 5046 273f c738 45be
000000a0: 845b 853e f2d5 32bf 7c1e 00bf 9912 733f
000000b0: 4652 af3e 6c23 10bf b712 53bf 59d4 d03e
000000c0: df00 f3be e814 c3be 71ca 883f 9a5e eb3e
000000d0: 7bb4 ffbe 3ab9 093e f27d 223f d11d 6fbe
000000e0: 6abc 233e aca2 063f 6d49 dbbe 0111 65bf
000000f0: 1a63 813e e475 293e 2174 10bf 1350 073f
00000100: 6f8b 123f da70 823e c2fd 7ebb d31d 58bf
00000110: a5f4 c63d 18e7 953f 9ef0 943e 53e0 70be
00000120: 632b 0bbf 4db1 9f3e a339 01c0 1e5b 7cbe
00000130: b0c4 b33e 7338 4c3f 6c07 10bf e39f 22bd
00000140: 870a 193f 5299 f1bd a096 043e e95d 353e
00000150: c030 d83c c7ae 2b3f 16c9 23bf c087 ccbe
00000160: e11d eb3e 2536 06bf 9a95 bb3e c237 31bf
00000170: 4599 0dbc 494b 3abf 628e 73bf 0fa9 04be
00000180: d692 00bf 6451 02bf 664a 4abf c08f fe3e
00000190: cc7b 053f 3157 0b3f 1539 1c3e ae3b 8f3d
000001a0: 1874 3e3e fc40 a4be 7f10 413f 3af9 3c3f
000001b0: 6230 f33e 8061 a33e 5932 b8be a0e2 dbbe
000001c0: f9fa 9e3e f6e1 e2be 9ebe 16bf ffda e2be
000001d0: b8ae c43d 60f6 3b3f c486 0b3e d700 08bf
000001e0: c09a fabe 06b8 32bf ea84 0fbf babe 883e
000001f0: 6c3a fbbe c6c4 283c c8a2 2e3e 028b 04be

hidden_layers.0.layer.weight_g f4 [128, 1]
-0.6508913 -2.0473573 0.6049022 1.1925681 -3.0803432 -0.7754266 -0.87424606 -1.3798269
0.83201814 -2.501401 -1.2895627 -0.41870108 -15.071248 1.2755758 -0.9765246 -1.7421037
-1.3394556 0.52996415 0.6661528 -2.0665781 -0.674104 -2.610131 -0.7637129 -1.0447621
-0.9561312 -1.7595011 0.34763724 -2.5955484 -0.24253514 -0.734747 -1.7161363 -0.84859806
-0.075519435 -1.414084 -2.5038953 -0.3729625 0.70097315 -2.6975887 0.7422084 -4.8285947
-0.6635819 -0.10201552 -3.980582 -1.4718859 -0.70671177 1.0825883 -1.7464639 -2.0334036
-0.07630834 0.8661946 1.2019451 0.13381265 -1.2118996 -4.839429 -1.0134642 -4.52596
-3.9493203 -1.4684147 -0.548306 -1.8229641 0.03065932 -2.3570685 -0.7286432 -1.3779104
-0.64977306 -1.9246517 -2.1675017 -1.5782695 -1.0480934 0.7307736 0.7694636 -2.4408574
0.28371158 -0.7519784 -2.254988 -0.9981993 0.038328245 -0.58646363 0.73352146 -1.1944292
0.6557128 -1.5214884 1.0412121 -2.3148794 -0.56461895 -0.9664578 -0.23150633 -0.796177
-0.67592037 -0.9103996 0.22427215 -1.3690166 -1.6760789 -0.79666096 0.59550804 -0.12646101
1.1266218 1.1826899 -0.51099294 -0.6418017 -1.4498677 -1.4612604 -3.6241138 -1.7767777
0.60252607 -0.4195715 -0.28243995 0.44014043 0.693521 -0.6300574 -1.2761487 -0.36054862
-1.4819406 -1.6584691 -1.8444822 0.13438821 -2.5313797 -0.76180375 -0.22257943 0.96137077
-0.61415315 -2.091708 -1.1329606 -4.6476545 0.24528608 -1.0143788 -0.21853635 -2.200082
00000000: d0a0 26bf e707 03c0 dfda 1a3f 12a6 983f
00000010: 5824 45c0 5c82 46bf 97ce 5fbf 2b9e b0bf
00000020: 24ff 543f f416 20c0 6410 a5bf fd5f d6be
00000030: d523 71c1 1146 a33f 84fd 79bf 41fd debf
00000040: 4873 abbf bbab 073f fd88 2a3f d142 04c0
00000050: 1492 2cbf 630c 27c0 b082 43bf c4ba 85bf
00000060: 04c5 74bf 5537 e1bf 82fd b13e 771d 26c0
00000070: 225b 78be 6118 3cbf 5baa dbbf b93d 59bf
00000080: efa9 9abd b400 b5bf d23f 20c0 f1f4 bebe
00000090: fa72 333f 4ba5 2cc0 5f01 3e3f d983 9ac0
000000a0: 81e0 29bf 83ed d0bd dbc1 7ec0 c266 bcbf
000000b0: 10eb 34bf 4192 8a3f 218c dfbf 4923 02c0
000000c0: 8c47 9cbd eebe 5d3f 56d9 993f 2f06 093e
000000d0: 871f 9bbf 9adc 9ac0 32b9 81bf aad4 90c0
000000e0: aac1 7cc0 03f5 bbbf c85d 0cbf e356 e9bf
000000f0: 4129 fb3c 36da 16c0 5c88 3abf 5e5f b0bf
00000100: 8757 26bf fd5a f6bf 59b8 0ac0 bc04 cabf
00000110: ed27 86bf fb13 3b3f 91fb 443f 0237 1cc0
00000120: a542 913e a881 40bf b951 10c0 fd89 7fbf
00000130: 14fe 1c3d 7b22 16bf 10c8 3b3f 0ee3 98bf
00000140: cbdc 273f 22c0 c2bf 7046 853f fc26 14c0
00000150: de8a 10bf c769 77bf ff0f 6dbe 42d2 4bbf
00000160: 1e09 2dbf f30f 69bf 99a7 653e f03b afbf
00000170: c189 d6bf f9f1 4bbf 3773 183f ff7e 01be
00000180: 2535 903f 6262 973f 6fd0 02bf 1e4d 24bf
00000190: 4495 b9bf 950a bbbf 7bf1 67c0 746d e3bf
000001a0: 263f 1a3f 13d2 d6be f89b 90be 165a e13e
000001b0: 988a 313f 714b 21bf d758 a3bf d499 b8be
000001c0: 3bb0 bdbf b748 d4bf fe17 ecbf 109d 093e
000001d0: 2002 22c0 9205 43bf ddeb 63be 651c 763f
000001e0: 2439 1dbf 8bde 05c0 da04 91bf 96b9 94c0
000001f0: 462c 7b3e 2ad7 81bf fec7 5fbe 25ce 0cc0

hidden_layers.0.layer.weight_v f4 [128, 128]
-0.4628808 -1.7099893 -0.1514518 0.54480207 0.1871138 -0.16202697 2.4694426 0.34947962
0.0113930665 -0.40279916 -0.13179258 -0.042596705 -0.08802726 -0.84717554 -4.7181363 -0.5228312
0.11411781 -0.004054998 -0.09639966 -1.9341508 -0.9594966 -0.001659078 0.20434278 -0.48573813
-0.4889371 0.17497374 0.2313064 0.090807945 -0.081326604 -0.26255217 -0.017384676 0.06195171
-4.5530787 -0.15859884 0.2853694 -0.11648523 -0.40151 0.093110956 -0.07524037 1.4251244
-3.9769316 -0.39248618 -3.0359118 -0.11239338 -0.08157276 -0.1687779 0.0049625267 -0.11829592
0.11852281 0.065508656 -0.049298067 0.37898335 0.14584178 0.17473371 0.037099235 0.33277458
-0.026010105 -0.2590159 0.058293212 0.15189731 0.026000138 -0.5671678 0.29943088 -0.1928112
-0.17079635 0.29812372 0.14540346 -0.39830548 0.086076975 1.185242 -0.32338223 -0.011659521
0.016197847 -1.274272 0.15668102 0.02453868 0.32974103 -0.3963534 0.012574706 -0.11315444
-0.3026794 0.4628514 -0.1841823 -0.81725967 -0.5808273 -0.18990332 0.047017902 -0.46456215
-0.6952502 0.52276564 0.44720238 -0.014013062 0.38069054 1.3129041 2.1421793 0.22527105
-0.042576093 -0.4085905 0.24924225 0.57983357 0.22238222 -0.04443675 -0.36334965 0.22153682
0.10866285 0.70319843 -0.5475778 0.05181575 0.2602715 0.46092346 -0.24707071 -0.5494942
0.8824695 -0.09623318 0.7573611 -0.1297526 -0.045135945 1.8547536 -0.08295491 -0.2963104
-0.47466743 -0.046992272 -0.06454408 -0.2547875 -0.1921757 -0.5033843 0.6970896 0.8867397
0.46555308 -1.970011 1.0227736 1.204443 0.044770602 -0.031380534 0.9396763 -0.57431597
0.5481084 -0.6787686 -0.8006088 0.71127725 0.449918 -0.9098945 -3.9591339 0.07486587
0.5507146 -0.32153758 -0.90843576 -1.4897618 1.1200475 0.8409978 -1.1827563 0.26474598
1.7850344 1.0000225 0.44036543 -0.742204 -0.9461329 -0.64190423 -0.46287373 -0.8434073
-0.25159606 -0.3534757 0.6798461 0.6622454 -1.6687653 -0.9128372 0.30931106 3.6218688
-1.1971511 1.9788487 -4.683858 0.9801809 -0.3007112 0.8971821 -0.24872747 0.6639143
0.20628272 1.0674312 0.44911656 0.48266426 0.82566017 -0.8118113 -0.5147398 0.9681661
1.264362 0.37495074 0.38708293 1.4273355 0.41030473 -1.4452927 0.5173077 0.49354717
-0.8962616 1.1712627 1.3683293 -1.2311754 -0.7756169 0.79699504 -1.209488 -0.9674491
1.1395266 -0.8096137 0.021615082 0.6976629 2.11219 -0.20478293 1.0954444 -0.8890969
2.3543227 -0.599488 0.5485964 0.5058921 -0.31037977 -0.67854387 -0.53945595 0.56522137
-1.3331913 1.4464483 0.23530598 1.0183386 -0.40437266 2.498172 2.9353652 0.98590624
0.67427975 -1.6931987 -0.46175212 0.39182192 -0.7184999 -1.1693494 0.16543698 0.659792
-0.7750698 2.094439 -1.3082232 -1.0992597 -0.32461348 1.0608231 -2.3200712 -0.6571239
0.6989326 0.7251951 -0.61064917 0.5142858 1.2603092 -0.8538567 0.5178834 -0.025960468
-0.7347065 -0.060477644 -0.18690929 -1.0408283 0.6382212 -0.97506034 -1.2953526 -0.6171875
00000000: b6fe ecbe eee0 dabf 2e16 1bbe 2678 0b3f
00000010: c39a 3f3e 66ea 25be 590b 1e40 feee b23e
00000020: fca9 3a3c b13b cebe a2f4 06be e279 2ebd
00000030: a347 b4bd 7fe0 58bf f9fa 96c0 44d8 05bf
00000040: 99b6 e93d cadf 84bb 2f6d c5bd 4192 f7bf
00000050: 92a1 75bf 6c75 d9ba 3c3f 513e abb2 f8be
00000060: f755 fabe 512c 333e 96db 6c3e 84f9 b93d
00000070: 908e a6bd 3d6d 86be 4f6a 8ebc 14c1 7d3d
00000080: d2b2 91c0 bc67 22be f01b 923e cf8f eebd
00000090: b892 cdbe f5b0 be3d a017 9abd 7a6a b63f
000000a0: 0c86 7ec0 f3f3 c8be 614c 42c0 802e e6bd
000000b0: 9f0f a7bd 1dd4 2cbe b19c a23b 2245 f2bd
000000c0: 16bc f23d 6729 863d c5ec 49bd 1b0a c23e
000000d0: 8c57 153e 65ed 323e 5ef5 173d 6e61 aa3e
000000e0: 2513 d5bc bb9d 84be ddc4 6e3d f88a 1b3e
000000f0: 3efe d43c e931 11bf 014f 993e 4d70 45be
00000100: 3de5 2ebe aca3 983e a5e4 143e b2ee cbbe
00000110: 2049 b03d 03b6 973f 5b92 a5be 9307 3fbc
00000120: 59b1 843c 581b a3bf fd70 203e 5805 c93c
00000130: d1d3 a83e d5ee cabe 2406 4e3c 84bd e7bd
00000140: cbf8 9abe dcfa ec3e 499a 3cbe ee37 51bf
00000150: 19b1 14bf 0476 42be d895 403d 17db edbe
00000160: ebfb 31bf f8d3 053f b6f7 e43e 0b97 65bc
00000170: dfe9 c23e 3e0d a83f 7719 0940 74ad 663e
00000180: 4564 2ebd c632 d1be 5c39 7f3e f96f 143f
00000190: 2ab8 633e 4f03 36bd f708 babe 8cda 623e
000001a0: a18a de3d d004 343f 0f2e 0cbf c03c 543d
000001b0: 4e42 853e 29fe eb3e 1b00 7dbe a7ab 0cbf
000001c0: 85e9 613f e715 c5bd 6be2 413f dedd 04be
000001d0: 78e0 38bd 9168 ed3f 44e4 a9bd ffb5 97be
000001e0: 9c07 f3be f87a 40bd b02f 84bd 8273 82be
000001f0: b5c9 44be cbdd 00bf 7774 323f 5f01 633f
00000200: f95c ee3e 5229 fcbf 3fea 823f 302b 9a3f
00000210: 6161 373d e088 00bd a08e 703f 5f06 13bf
00000220: d550 0c3f c7c3 2dbf b3f4 4cbf 4416 363f
00000230: a75b e63e d9ee 68bf 7362 7dc0 4753 993d
00000240: a2fb 0c3f 93a0 a4be 3f8f 68bf 84b0 bebf
00000250: b75d 8f3f a24b 573f 8f64 97bf c98c 873e
00000260: 027c e43f bd00 803f 9477 e13e 1501 3ebf
00000270: c435 72bf d653 24bf c9fd ecbe 8ae9 57bf
00000280: 33d1 80be c4fa b4be 650a 2e3f ea88 293f
00000290: 1a9a d5bf b3af 69bf 055e 9e3e b3cc 6740
000002a0: 3f3c 99bf ea4a fd3f 2ae2 95c0 23ed 7a3f
000002b0: d2f6 99be baad 653f 6ab2 7ebe 4af6 293f
000002c0: c73b 533e 96a1 883f 9bf2 e53e c51f f73e
000002d0: 775e 533f ded2 4fbf fdc5 03bf bcd9 773f
000002e0: 9dd6 a13f 8bf9 bf3e bc2f c63e eeb2 b63f
000002f0: 7613 d23e 5aff b8bf 476e 043f 37b2 fc3e
00000300: 6671 65bf f0eb 953f 6a25 af3f 2897 9dbf
00000310: d48e 46bf de07 4c3f 81d0 9abf bfaa 77bf
00000320: 02dc 913f d842 4fbf 1d12 b13c 099a 323f
00000330: 1f2e 0740 9eb2 51be 8637 8c3f db9b 63bf
00000340: 39ad 1640 0c78 19bf d070 0c3f 2582 013f
00000350: 19ea 9ebe 0db5 2dbf c919 0abf 59b2 103f
00000360: 03a6 aabf 3825 b93f 0df4 703e eb58 823f
00000370: ef09 cfbe 0de2 1f40 06dd 3b40 5a64 7c3f
00000380: 999d 2c3f bcba d8bf c66a ecbe e29c c83e
00000390: 9cef 37bf 3ead 95bf 5068 293e 21e8 283f
000003a0: f96a 46bf 4a0b 0640 dc73 a7bf 8bb4 8cbf
000003b0: bd33 a6be 0dc9 873f 0c7c 14c0 4639 28bf
000003c0: 3fed 323f 63a6 393f 8153 1cbf 3ca8 033f
000003d0: d051 a13f 5a96 5abf 0294 043f 0cab d4bc
000003e0: ba15 3cbf 68b7 77bd 2665 3fbe dd39 85bf
000003f0: 7762 233f 8e9d 79bf 1dce a5bf 0000 1ebf

hidden_layers.1.layer.bias f4 [128]
-0.5541303 -0.21609941 -0.50289524 -0.39004245 0.16980678 -0.28427702 0.3263895 -0.26689488
-0.05717504 -0.11947633 -0.061243325 0.023765342 -0.29202247 -0.060705304 0.38916817 -0.6886049
-0.3792055 -0.19133174 0.21642625 -0.41290945 -0.17915273 -1.0732975 0.17410462 0.47469133
0.065140635 -0.21584323 -0.18691494 -0.49589327 0.049386363 0.23655808 -0.07831487 -0.5156576
-0.7426923 0.345401 0.1987454 -0.22338355 -0.2260709 -0.2729004 -0.5491838 -0.12332063
0.29347926 -0.15907481 -0.24850236 -0.110246025 0.44887137 -0.39670232 -0.19414994 0.3881837
0.031213949 0.035002727 -0.302302 0.8610161 0.59326637 0.3045606 -0.5844246 -0.69581395
0.7273816 -0.08750493 0.9099853 0.23257276 0.03594423 0.17294626 -0.09362505 0.054277603
-0.17137825 -0.068380535 0.1876228 -1.0603273 -0.61398345 0.10542374 0.3109417 0.009151366
-0.5560862 -0.028259572 0.028618379 0.30018646 0.21226867 -0.043778617 0.48051825 -0.4414494
-0.010954734 -0.20329984 -0.08240837 -0.055480223 0.123508126 -0.073220186 -0.13423057 -0.10788683
0.024494167 -0.060370818 0.028843151 0.1965365 -0.015466049 -0.08819728 0.3407495 0.20997922
0.31252018 0.6986549 0.21823841 0.40478694 0.1259598 -0.07533549 -0.19004914 0.062419634
0.03404502 0.2573254 0.20053658 -0.19512223 0.899979 1.3343768 0.28405756 -0.1766204
-0.2204079 -0.21740572 0.34310806 1.3800603 0.16440775 0.11852782 0.282156 0.42697522
0.70786697 -0.109040275 0.5576887 -0.17027038 0.11895561 -0.4539572 -0.64528674 -0.62571955
00000000: 7cdb 0dbf 2a49 5dbe bebd 00bf a5b3 c7be
00000010: d4e1 2d3e c28c 91be 861c a73e 72a6 88be
00000020: 6030 6abd 02b0 f4bd 48da 7abd 89af c23c
00000030: f883 95be 20a6 78bd 0d41 c73e 6948 30bf
00000040: 3927 c2be 78ec 43be d89e 5d3e de68 d3be
00000050: d073 37be d061 89bf 7b48 323e be0a f33e
00000060: 7468 853d 0206 5dbe a166 3fbe b9e5 fdbe
00000070: 5b49 4a3d 483c 723e 8c63 a0bd 2302 04bf
00000080: 1521 3ebf 66d8 b03e ea83 4b3e a8be 64be
00000090: 217f 67be 9ab9 8bbe 4f97 0cbf 878f fcbd
000000a0: ea42 963e 82e4 22be 6777 7ebe abc8 e1bd
000000b0: 78d2 e53e 911c cbbe 3ecf 46be 04c0 c63e
000000c0: 65b4 ff3c 055f 0f3d 54c7 9abe 8d6b 5c3f
000000d0: 4ee0 173f 5eef 9b3e da9c 15bf dd20 32bf
000000e0: ae35 3a3f c935 b3bd ccf4 683f 8e27 6e3e
000000f0: 423a 133d d318 313e 7dbe bfbd 3152 5e3d
00000100: c87d 2fbe 180b 8cbd 3120 403e ceb8 87bf
00000110: 052e 1dbf 67e8 d73d c033 9f3e 9cef 153c
00000120: aa5b 0ebf 9e80 e7bc 1771 ea3c 0ab2 993e
00000130: f55c 593e 3551 33bd 7d06 f63e a805 e2be
00000140: 7c7b 33bc d52d 50be b8c5 a8bd 3b3f 63bd
00000150: d4f1 fc3d 77f4 95bd bd73 09be c5f3 dcbd
00000160: fea7 c83c 6447 77bd 7948 ec3c dd40 493e
00000170: 5065 7dbc c7a0 b4bd b876 ae3e cb04 573e
00000180: a502 a03e 0cdb 323f e479 5f3e 3c40 cf3e
00000190: 9bfb 003e 7e49 9abd 3e9c 42be bbab 7f3d
000001a0: ca72 0b3d 28c0 833e 7659 4d3e 1fce 47be
000001b0: 0665 663f dccc aa3f fe6f 913e fadb 34be
000001c0: 9cb2 61be 9b9f 5ebe dcab af3e d1a5 b03f
000001d0: 815a 283e b7be f23d c076 903e 7f9c da3e
000001e0: c536 353f 8250 dfbd b0c4 0e3f 5c5b 2ebe
000001f0: 009f f33d 146d e8be 8331 25bf 282f 20bf

hidden_layers.1.layer.weight_g f4 [128, 1]
1.1262 -0.0544538 0.8820767 -0.7706522 -0.9350741 -0.5190553 -0.20277773 -1.0816981
-1.0728338 -0.20126121 -0.066201545 -0.37198037 -0.05870994 -1.9449644 -0.44838682 -0.35810068
0.16314828 0.11015872 -0.1878151 -0.44292307 -0.28663528 -0.8209683 -0.32483774 -0.793423
-0.22570859 -0.0543685 -0.94988275 -1.8195117 -0.18383875 -4.293613 -0.13006034 -0.57203245
-0.37980476 -0.179128 -0.042786293 -0.33222896 -0.9846663 -1.6653788 -0.5586794 -0.15980655
-0.38356468 0.16510326 -0.2887176 0.08116872 -0.012116892 0.2228675 -0.6587801 0.17276977
-0.058037512 0.18771783 0.035669066 -0.49511755 -1.7069167 0.088185675 -0.044605065 -0.9500819
-1.4465297 -0.19171341 -0.36899182 0.17866425 -0.24541184 -0.21463218 -0.008256796 -0.42247012
-0.3968399 -2.4794881 -0.06219747 -3.4032686 -1.5449892 -1.7537249 -0.058307048 -0.3236421
-0.34074607 -0.29873314 -0.075142816 0.36069214 -1.3246945 -0.9811189 -0.6343556 -1.5059175
-0.23408882 -1.3423655 -0.15052305 0.1750845 0.20656526 -0.83228165 -3.324563 -0.06582518
-1.8770891 -2.028022 -0.27010968 0.064258434 -0.25593323 -0.07096862 -0.17636283 -0.521984
-0.02056267 -1.0566908 -1.3606889 -0.23294874 -1.9244828 -0.98054254 -1.3857824 -0.038760368
0.33654323 -0.49904987 -0.3413768 -0.056314517 -2.6556082 -1.6527063 -0.042258907 -0.26931825
0.08945163 0.09645892 0.027871976 -1.1429291 -0.7025005 -1.3070036 0.19109547 -1.0665226
-2.3342822 -0.16443096 -0.02604101 -0.47125638 -0.10394593 -1.3997787 -1.7218149 -0.23855333
00000000: 5227 903f f30a 5fbd c7cf 613f 7649 45bf
00000010: 0461 6fbf cfe0 04bf f7a4 4fbe 1575 8abf
00000020: 9e52 89bf 6b17 4ebe ad94 87bd 3674 bebe
00000030: d679 70bd 98f4 f8bf f592 e5be f958 b7be
00000040: 5810 273e e59a e13d 9a52 40be d0c6 e2be
00000050: dcc1 92be fa2a 52bf 2251 a6be c51d 4bbf
00000060: 2720 67be 81b1 5ebd 842b 73bf c2e5 e8bf
00000070: 3a40 3cbe 4765 89c0 8a2e 05be b870 12bf
00000080: c575 c2be 556d 37be ae40 2fbd ea19 aabe
00000090: 1713 7cbf 222b d5bf 9d05 0fbf 54a4 23be
000000a0: 9762 c4be d410 293e cbd2 93be c93b a63d
000000b0: ee85 46bc 6137 643e d0a5 28bf 8fea 303e
000000c0: beb8 6dbd 1a39 403e ba19 123d 0c80 fdbe
000000d0: 3f7c dabf b19a b43d cdb3 36bd 9138 73bf
000000e0: e327 b9bf 8550 44be 7fec bcbe c3f3 363e
000000f0: 3e4d 7bbe 8ac8 5bbe 8347 07bc 014e d8be
00000100: 992e cbbe efaf 1ec0 c6c2 7ebd 27cf 59c0
00000110: 35c2 c5bf 0f7a e0bf 5fd3 6ebd 6bb4 a5be
00000120: 4576 aebe 8df3 98be 7ae4 99bd a4ac b83e
00000130: 978f a9bf 9c2a 7bbf 2165 22bf e8c1 c0bf
00000140: fbb4 6fbe a2d2 abbf b722 1abe 5a49 333e
00000150: d885 533e 6910 55bf a4c5 54c0 5acf 86bd
00000160: 7544 f0bf 1dcb 01c0 d14b 8abe ed99 833d
00000170: ae09 83be ff57 91bd 7598 34be bea0 05bf
00000180: 0b73 a8bc a541 87bf 0e2b aebf 1d8a 6ebe
00000190: 7455 f6bf d604 7bbf 5161 b1bf 31c3 1ebd
000001a0: 654f ac3e 7783 ffbe f1c8 aebe 0daa 66bd
000001b0: 7cf5 29c0 e18b d3bf ad17 2dbd 15e4 89be
000001c0: 6b32 b73d 418c c53d c553 e43c 804b 92bf
000001d0: 13d7 33bf e54b a7bf 88ae 433e d083 88bf
000001e0: e164 15c0 9760 28be f553 d5bc 8448 f1be
000001f0: 9be1 d4bd f32b b3bf 6e64 dcbf 5347 74be

hidden_layers.1.layer.weight_v f4 [128, 128]
1.2442979 -1.0406392 -0.85708517 1.1293747 0.13349009 1.1974546 -0.1929262 -0.7862411
1.6923441 0.96997374 1.5029693 -0.11137909 0.3599194 1.1125106 0.39517763 0.5073526
1.6745796 0.8962962 0.91240877 0.20261262 0.86077416 -0.24737205 0.10297118 -0.47471073
-0.11431137 0.1345679 -0.6505893 -0.43993497 -0.19140139 0.22980714 -0.4984296 -0.124731906
0.16401608 -0.27956477 0.38834843 1.460479 0.9942501 0.038431425 -1.6844921 -1.6581168
1.2644295 -0.60344374 -0.51410294 -1.0292519 -1.0068793 1.4266049 1.0981814 0.7964381
-1.0512545 1.4629694 -1.2772232 -1.3565971 -0.20500556 -1.2186726 -0.46100003 -0.9096997
-0.7798954 -0.028095556 0.62242335 0.19988409 0.8816506 1.3494577 -0.05525559 -1.1820089
0.36348492 -0.35982826 -0.4687103 1.00318 0.8776219 -0.29721212 -1.3388194 -1.152174
1.5494065 0.2832951 0.9283425 -0.11498958 -1.6903603 -1.4422393 0.81677395 0.40018925
-1.4407187 0.8598137 -1.482123 -1.3094205 -0.9812131 -0.46185863 0.27329078 -0.08746362
-0.14463204 0.7182418 -1.0167111 -0.15699857 -0.4758362 1.4116725 0.73110783 1.6770731
0.23055466 -0.039428703 -0.36201772 0.3554883 0.065717824 0.5198259 -0.6871623 0.19991566
-0.8771098 -0.2569147 0.74038893 -1.539702 -0.13180704 -0.06796189 1.2388743 -0.14573912
0.7361108 -1.4001265 -0.13733444 1.6459773 0.18890992 -0.31209707 0.74633455 0.70234734
-0.61948127 1.1973794 -0.3881759 -1.0321981 1.4479411 0.01956595 1.5286087 0.19257614
0.04328355 -0.54827994 -0.84903723 0.13714857 0.10060151 -0.4193063 -0.5957143 0.50086564
-0.07609344 -0.5849258 -0.31485686 -0.18886349 0.3438929 -0.16092516 -0.2649432 0.7294054
0.39425224 0.33397287 0.45244113 0.4577378 0.12666965 -0.7022129 -0.4376625 -0.54901093
-0.083541736 0.3473771 -0.23846063 -1.0622318 -0.4385911 -0.3193964 -0.15621519 1.0084094
-0.031337988 -0.5757965 1.3559992 0.021547578 0.46397516 -0.2247838 0.10750358 -0.06281993
-0.119432904 -1.5207739 -0.9904954 -0.39712635 0.14144205 -0.10279251 -0.74217546 0.6506108
-0.17313717 0.038864337 -0.54445094 -0.041236974 -0.8557411 -0.38802147 -0.55918103 -0.88235223
-0.38213775 0.627138 -0.08906578 -1.4552141 0.07340852 0.14745572 -0.18429285 -0.4093858
0.42555934 1.080445 -0.95960337 -0.03651418 -0.525726 0.15350902 -0.08110818 -0.9303171
-0.4079546 0.97787786 0.923234 -1.2439553 -0.38018525 0.12364537 0.1461731 0.5573086
0.17343129 1.3010889 -0.09532154 0.065206476 -0.1963427 -0.34339064 -0.63125163 -1.5211649
1.1058474 -0.80196154 0.009310261 -1.2778318 -0.4761711 -0.0690149 -0.08712063 -0.035732243
-0.34055668 -0.78087467 -0.47903222 0.19840187 0.5052418 0.9728893 -0.8370923 0.0770942
-0.825221 -0.23366281 1.1748283 -0.23225419 0.3313811 -0.02698887 -0.017121168 -1.3658048
0.24397399 -0.73778874 -0.7940549 -0.4175542 0.037303697 0.28798074 -0.4357416 0.6577664
-0.35585526 -0.5399494 -1.505923 -0.3040738 0.0031870017 0.7382148 0.14690237 0.7168942
00000000: 2745 9f3f aa33 85bf ef69 5bbf 5a8f 903f
00000010: a0b1 083e 3146 993f 728e 45be 1947 49bf
00000020: bb9e d83f 3350 783f 4c61 c03f b81a e4bd
00000030: 5b47 b83e bf66 8e3f b954 ca3e dce1 013f
00000040: a058 d63f ab73 653f 9f93 693f af79 4f3e
00000050: b25b 5c3f 194f 7dbe 8ee2 d23d 490d f3be
00000060: 141c eabd 2bcc 093e 058d 26bf 283f e1be
00000070: bafe 43be 9052 6b3e 2a32 ffbe 7173 ffbd
00000080: d5f3 273e 1d23 8fbe 9bd5 c63e faf0 ba3f
00000090: 2d87 7e3f 456a 1d3d 709d d7bf 2c3d d4bf
000000a0: d3d8 a13f 4a7b 1abf 409c 03bf 87be 83bf
000000b0: 6ce1 80bf fd9a b63f 3591 8c3f 5ee3 4b3f
000000c0: 828f 86bf 9542 bb3f 0d7c a3bf f9a4 adbf
000000d0: faec 51be 77fd 9bbf 3208 ecbe 14e2 68bf
000000e0: 3aa7 47bf a728 e6bc 2357 1f3f 6aae 4c3e
000000f0: dbb3 613f 08bb ac3f af53 62bd 114c 97bf
00000100: b21a ba3e 693b b8be ccfa efbe 3468 803f
00000110: d4ab 603f 302c 98be 6f5e abbf 707a 93bf
00000120: f452 c63f 0e0c 913e dba7 6d3f a87f ebbd
00000130: ba5d d8bf 4c9b b8bf 1918 513f 9be5 cc3e
00000140: 7869 b8bf c01c 5c3f 35b6 bdbf 179b a7bf
00000150: c830 7bbf bc78 ecbe c5ec 8b3e 2020 b3bd
00000160: 6c1a 14be b2de 373f 9723 82bf 3cc4 20be
00000170: cda0 f3be afb1 b43f e229 3b3f 55aa d63f
00000180: 8516 6c3e fe7f 21bd 635a b9be 9002 b63e
00000190: 1197 863d 4f13 053f dee9 2fbf b1b6 4c3e
000001a0: 458a 60bf 538a 83be 218a 3d3f f514 c5bf
000001b0: 6df8 06be 9a2f 8bbd 6f93 9e3f a33c 15be
000001c0: c271 3c3f 5837 b3bf 66a1 0cbe 62af d23f
000001d0: 9a71 413e 30cb 9fbe c80f 3f3f 09cd 333f
000001e0: 5396 1ebf ba43 993f febe c6be 111f 84bf
000001f0: 2256 b93f c548 a03c 73a9 c33f ae32 453e
00000200: 174a 313d 135c 0cbf 815a 59bf ad70 0c3e
00000210: 2a08 ce3d 51af d6be bb80 18bf bb38 003f
00000220: e1d6 9bbd b2bd 15bf eb34 a1be 6e65 41be
00000230: bb12 b03e 91c9 24be a3a6 87be 50ba 3a3f
00000240: 6edb c93e 7efe aa3e 5da6 e73e 9c5c ea3e
00000250: b0b5 013e 3ac4 33bf 4d15 e0be fb8b 0cbf
00000260: ee17 abbd 69db b13e 062f 74be 36f7 87bf
00000270: 038f e0be ed87 a3be e0f6 1fbe 8f13 813f
00000280: 435c 00bd 6667 13bf 6291 ad3f 8c84 b03c
00000290: 278e ed3e b92d 66be d62a dc3d bca7 80bd
000002a0: 3d99 f4bd b8a8 c2bf 1b91 7dbf 2554 cbbe
000002b0: 2fd6 103e e184 d2bd 36ff 3dbf 6e8e 263f
000002c0: df4a 31be 3630 1f3d 2361 0bbf 1ae8 28bd
000002d0: d911 5bbf c0aa c6be 7d26 0fbf d6e1 61bf
000002e0: 8fa7 c3be 1e8c 203f 1f68 b6bd 7544 babf
000002f0: 3557 963d a2fe 163e 44b7 3cbe 049b d1be
00000300: eae2 d93e 064c 8a3f 91a8 75bf e58f 15bd
00000310: fb95 06bf 7831 1d3e 0c1c a6bd 4329 6ebf
00000320: 6ddf d0be 3456 7a3f 1059 6c3f ed39 9fbf
00000330: a4a7 c2be c939 fd3d 67ae 153e c7ab 0e3f
00000340: f997 313e 158a a63f f137 c3bd f98a 853d
00000350: 100e 49be e6d0 afbe b599 21bf 88b5 c2bf
00000360: 688c 8d3f 5a4d 4dbf 118a 183c fe8f a3bf
00000370: b3cc f3be af57 8dbd 4d6c b2bd f95b 12bd
00000380: 725d aebe 67e7 47bf b643 f5be dc29 4b3e
00000390: 8757 013f 460f 793f ae4b 56bf 90e3 9d3d
000003a0: af41 53bf 4e45 6fbe c660 963f 0bd4 6dbe
000003b0: c9aa a93e c317 ddbc b141 8cbc b1d2 aebf
000003c0: 51d4 793e b9df 3cbf 2f47 4bbf aac9 d5be
000003d0: c3cb 183d 3672 933e 8619 dfbe 6163 283f
000003e0: a932 b6be 203a 0abf 16c2 c0bf 90af 9bbe
000003f0: 04dd 503b a5fb 3c3f 936d 163e 6186 373f

hidden_layers.2.layer.bias f4 [128]
0.01765797 0.016161637 0.0053843036 0.05398408 -0.30907553 0.023679962 0.19507946 -0.114638485
0.03707712 0.16665046 -0.0012454584 -0.0031196629 -0.28310806 0.29330695 0.035847973 0.0077486266
0.21991673 8.7510773e-07 -2.5484866e-07 4.263206e-07 0.084038444 -0.29157645 5.500959e-07 7.4598943e-06
0.055935834 -0.034198254 -0.044159647 7.095362e-07 8.231231e-06 0.023505133 1.9908148e-06 0.04857778
-0.30437157 0.019363021 -0.39558566 -0.05168642 1.7742165e-08 -0.000599499 -7.2793557e-07 0.035599098
-3.9426528e-08 -0.019572116 0.27800873 -3.0472038e-05 -0.3673152 -0.2632094 0.010843038 0.07526028
0.00040539543 0.18154225 -1.8613886e-05 -2.6323232e-07 -1.8083206e-06 -2.2972362e-08 -0.00021295415 0.012104613
0.27277794 0.08685155 -3.1124426e-05 -0.3214964 -2.5450686e-06 -0.12937191 6.6654907e-06 -0.16807261
1.44811975e-05 0.12914279 0.2108488 -0.2960731 0.009051809 7.779592e-08 0.030491056 -0.08784071
0.084062785 -0.5140758 0.32079843 2.32438e-07 0.018770853 -0.06400292 -0.1140637 -0.054348532
0.026802782 0.14013265 2.5874627e-07 -0.09780177 -0.3157613 0.08350245 0.22714052 0.06033428
0.08778929 0.2214533 0.010973181 -0.20213751 -2.5016476e-05 -0.025414487 -0.50559634 -0.0007466345
0.0036161083 0.105770305 0.3499818 0.059720423 0.13495515 0.014265782 -0.21462788 -0.025537435
0.24180567 -0.5895777 0.09713398 3.2009825e-07 -0.017792813 -0.006090427 1.4472098e-06 -3.893506e-06
0.19825658 -0.004947997 -0.47799528 0.29028916 0.0058167796 0.061495777 0.033643875 -3.9817945e-07
-0.010480938 0.048831746 0.0029821408 0.24837607 -7.171881e-09 1.7906976e-06 -0.024757314 0.05661865
00000000: 72a7 903c 6965 843c d06e b03b 691e 5d3d
00000010: 263f 9ebe 7bfc c13c e9c2 473e 95c7 eabd
00000020: 2ede 173d 6ba6 2a3e a63e a3ba 4273 4cbb
00000030: 8af3 90be 542c 963e 53d5 123d 31e8 fd3b
00000040: da31 613e f2e8 6a35 22d2 88b4 0fe1 e434
00000050: 591c ac3d 8249 95be 4daa 1335 0150 fa36
00000060: f91c 653d 7813 0cbd bfe0 34bd f576 3e35
00000070: de18 0a37 d68d c03c f099 0536 7ff9 463d
00000080: 97d6 9bbe 339f 9e3c 348a cabe 24b5 53bd
00000090: 6f67 9832 b227 1dba 5a67 43b5 5cd0 113d
000000a0: ed55 29b3 b455 a0bc 2957 8e3e 349e ffb7
000000b0: bd10 bcbe 62c3 86be ffa6 313c 1022 9a3d
000000c0: 418b d439 36e6 393e 0425 9cb7 6052 8db4
000000d0: 6cb5 f2b5 c254 c5b2 724c 5fb9 6d52 463c
000000e0: 8da9 8b3e 3adf b13d 998b 02b8 2d9b a4be
000000f0: f2cb 2ab6 127a 04be 21a8 df36 3a1b 2cbe
00000100: 45f4 7237 023e 043e bfe8 573e e596 97be
00000110: 0a4e 143c c210 a733 61c8 f93c d5e5 b3bd
00000120: 1c29 ac3d 799a 03bf b13f a43e 1294 7934
00000130: 55c5 993c f713 83bd 3b9a e9bd 919c 5ebd
00000140: 8291 db3c ef7e 0f3e d1e9 8a34 4b4c c8bd
00000150: 77ab a1be 5503 ab3d 8697 683e 1421 773d
00000160: dfca b33d a7c4 623e dbc8 333c 23fd 4ebe
00000170: 79da d1b7 0b32 d0bc c36e 01bf cbb9 43ba
00000180: 3bfc 6c3b 1a9e d83d d130 b33e 679d 743d
00000190: af31 0a3e 07bb 693c 69c7 5bbe e233 d1bc
000001a0: e89b 773e 90ee 16bf 2eee c63d f8d9 ab34
000001b0: 3cc2 91bc 3492 c7bb c03d c235 f6a4 82b6
000001c0: c603 4b3e cf22 a2bb ccbb f4be c8a0 943e
000001d0: af9a be3b ffe2 7b3d 29ce 093d 5ec5 d5b4
000001e0: 3db8 2bbc cc03 483d 0570 433b 4c56 7e3e
000001f0: 886c f6b1 e757 f035 dacf cabc f5e8 673d

hidden_layers.2.layer.weight_g f4 [128, 1]
-0.11000644 -0.40175185 0.1891048 -0.13355006 -1.0681406 0.16671476 -0.86700976 -0.23646462
0.36810657 -0.92578846 -0.0050455076 0.09647079 -0.7514821 -0.52851546 0.26133817 -0.022946645
-0.4979723 5.6590316e-06 1.019043e-06 -6.869974e-07 -0.17676626 -0.8242925 1.7526031e-06 0.00066276226
0.17928532 0.33630463 -0.30967152 -9.69151e-07 -7.9652935e-05 -0.55250454 7.155459e-05 -0.016894424
-0.4889367 0.29976442 -0.5260111 -0.14443384 2.3360836e-07 0.009354815 6.9238636e-06 -0.15847549
3.8161758e-08 -0.2711479 -0.78482383 0.0001730762 -0.4189428 -0.3537868 -0.016766017 -0.7453404
0.010753826 -0.29011315 0.0007122116 4.186529e-06 -3.9504853e-06 -3.782305e-08 0.003993619 -0.11734818
-1.0003774 -0.1391434 4.3923174e-05 -0.4801398 -4.22495e-06 0.28285143 -2.2320412e-05 -0.3244844
-2.6347416e-05 -0.7485783 -0.665934 -0.34481862 -0.04858699 3.370197e-05 0.12377031 -0.30091134
0.12098239 -1.1474751 0.0008199969 -1.9687526e-05 0.11759541 0.23989949 -0.6202786 -0.18666944
-0.038431346 -0.07550918 8.226999e-07 0.15080689 -0.37851998 0.37888974 -0.65013975 0.17091356
-0.19890583 -0.41556168 0.051823113 -0.8674895 -3.4095086e-05 0.34249368 -0.35591087 0.001011246
0.24523912 -0.43604353 -0.9556443 -0.15137161 -0.3141146 -0.122906744 -0.91390276 -0.21149805
-0.4897149 -0.71606654 -0.8201057 1.5739564e-06 0.07214779 -0.087616615 2.8771829e-06 1.6619711e-05
-0.6834001 -0.051309314 -1.2480599 -0.46412718 0.0051043346 -0.1163598 -0.19165708 1.3186838e-06
0.1879554 -0.29753634 -0.027533468 -0.8211033 -8.796397e-08 1.7471992e-05 -0.07586863 -0.12501912
00000000: 0e4b e1bd 6bb2 cdbe b0a4 413e 59c1 08be
00000010: d5b8 88bf 46b7 2a3e 5af4 5dbf c823 72be
00000020: 7778 bc3e 7900 6dbf c954 a5bb 7a92 c53d
00000030: 2261 40bf ca4c 07bf 1ece 853e 9afa bbbc
00000040: 3af6 febe b6e2 bd36 0dc6 8835 1a6a 38b5
00000050: 3702 35be d504 53bf fc3a eb35 39bd 2d3a
00000060: 9296 373e 1f30 ac3e 448d 9ebe c613 82b5
00000070: 580b a7b8 f070 0dbf 940f 9638 2d66 8abc
00000080: e955 fabe b97a 993e aaa8 06bf 77e6 13be
00000090: c7d5 7a34 f044 193c 8953 e836 6647 22be
000000a0: 4ce7 2333 e6d3 8abe 37ea 48bf ca7b 3539
000000b0: ac7f d6be 8b23 b5be e358 89bc a1ce 3ebf
000000c0: d130 303c b689 94be b6b3 3a3a 037a 8c36
000000d0: 698e 84b6 e272 22b3 e7dc 823b 3e54 f0bd
000000e0: 5e0c 80bf 9c7b 0ebe 263a 3838 e2d4 f5be
000000f0: 0bc4 8db6 e7d1 903e b83c bbb7 d222 a6be
00000100: a504 ddb7 d4a2 3fbf a77a 2abf 118c b0be
00000110: 2703 47bd 375b 0d38 4a7b fd3d 0d11 9abe
00000120: 9ec5 f73d 77e0 92bf 0ff5 563a a426 a5b7
00000130: ddd5 f03d 36a8 753e 94ca 1ebf 4626 3fbe
00000140: 306a 1dbd 8fa4 9abd 82d7 5c35 1f6d 1a3e
00000150: 5fcd c1be d6fd c13e 8f6f 26bf f703 2f3e
00000160: f8ad 4bbe 80c4 d4be 7944 543d cb13 5ebf
00000170: 5201 0fb8 555b af3e f339 b6be c98b 843a
00000180: f71f 7b3e 1941 dfbe 1ba5 74bf 2901 1bbe
00000190: a1d3 a0be 88b6 fbbd 88f5 69bf f292 58be
000001a0: e9bb fabe 2350 37bf 72f2 51bf bb40 d335
000001b0: 38c2 933d 5770 b3bd a015 4136 8f6a 8b37
000001c0: 4ff3 2ebf b729 52bd 6dc0 9fbf 14a2 edbe
000001d0: 4342 a73b 0c4e eebd c141 44be a1fd b035
000001e0: 6177 403e af56 98be de8d e1bc d333 52bf
000001f0: b4e6 bcb3 d190 9237 0361 9bbd 0305 00be

hidden_layers.2.layer.weight_v f4 [128, 128]
-0.62809694 0.19490655 -0.73294693 -1.79074 1.7241755 0.51234585 1.481725 -0.5463059
1.9297447 -0.88512 1.1526022 -0.2974373 1.4254472 -1.4624376 1.3721594 -0.8912696
-0.8220691 1.2009534 -0.34666035 -1.4967854 0.50551033 0.1448696 0.031328324 2.2156916
0.25607696 0.6667232 -1.4773246 -0.8030236 0.5939295 1.5746533 -1.5144569 -1.4850715
-0.5939069 1.3104539 1.4069973 -0.26401532 -0.86787045 -1.8174772 -0.93159413 0.63746494
0.081750385 -0.96979296 -1.3554053 -0.3063197 0.06467661 -2.1551118 0.029845767 0.76715225
0.06958858 -0.124721505 -0.32266897 0.7637042 0.44511095 -0.6970587 -0.61951727 -1.3302604
1.0409005 -1.2417563 1.0267419 -0.8549015 -0.48090824 0.13658167 -0.53203744 -1.4063058
-1.197974 -0.939344 -0.5078415 -1.4818921 -1.2474191 0.32462153 -0.07199316 -1.5525607
-0.7507961 0.36941913 -0.29092243 0.7626648 1.3398818 2.2665992 -0.049985576 -1.0601705
0.0619474 0.9509053 0.7738832 -0.22581501 0.75332195 0.79254806 -0.63280106 -0.86631036
1.1789665 0.9981889 -0.4861935 0.42789614 -0.20315827 -0.13674578 0.9644649 1.3547573
0.62081885 1.5356157 0.40860978 -0.60860014 1.3456523 2.19104 -1.5269239 -0.14091343
0.09877775 1.9792811 1.4387581 0.0042459797 0.31050372 0.3237654 1.4410635 -1.2100979
-0.5441329 -0.6390831 1.5093154 1.3675349 0.22158813 1.3063542 1.1670681 0.9985791
1.7498481 0.67430645 0.2647579 0.5588181 0.41765112 -1.4475802 -1.7706372 -0.6378306
-0.04975511 0.5744299 -0.4450975 -0.5365079 0.48825285 0.4423093 0.44447586 -0.7061078
-0.4040149 0.08722592 0.014795973 -0.99062437 0.63501805 -0.10476781 -0.080620624 0.45490277
0.15788046 -0.914619 0.40553874 -0.5053132 0.07641839 1.2038463 0.9373277 0.8399698
0.18339391 0.7056573 -0.6618557 0.16271566 0.8976365 0.26648697 -0.18691951 -0.8002321
0.36929566 0.22005989 0.86976606 -0.50005144 -0.10884386 -1.1664886 -0.82733846 0.36528626
0.38286817 -0.95461893 1.2909983 0.42710724 0.5002533 -0.3984792 0.6024636 -1.1101755
0.7966179 1.4648318 -0.4263694 0.19731262 0.34185153 -0.77076155 1.2108295 0.0773216
0.15063252 -0.2620951 -0.07547012 -0.77595484 -1.1358728 0.6678755 0.03849449 -0.30203024
0.40635595 -1.0971248 -0.13492526 0.013531979 0.5072555 0.9056854 -1.4950684 -0.54878855
-0.22315952 -0.24086751 0.14056034 1.2290517 0.54830307 -0.4997263 0.24879237 -0.8229155
0.78629404 0.6053476 -0.6791367 0.5775051 -0.051901553 -0.34998447 0.62594205 -0.7095288
0.4672735 -0.92005426 0.7290671 0.7047162 -0.83012897 0.630124 -0.5082031 0.8014248
0.57290596 -0.8038915 1.2416306 0.4352464 0.40781096 -0.64178574 -0.6292745 -0.39617753
-0.07895629 -2.1350734 -0.6764957 -0.14821485 0.4998737 0.5692634 -0.42614645 0.07596186
-0.032003872 0.7393275 0.36203796 0.48257813 0.10328899 0.8685621 0.27542326 0.8694224
0.7292077 -0.429413 0.79249305 0.17361963 -0.022561349 -0.6633869 -0.3796188 0.03129567
00000000: f6ca 20bf 9595 473e 69a2 3bbf f836 e5bf
00000010: c8b1 dc3f 1929 033f 2aa9 bd3f b4da 0bbf
00000020: e001 f73f 3997 62bf 7888 933f b449 98be
00000030: 0e75 b63f 2831 bbbf eba2 af3f 3f2a 64bf
00000040: 1f73 52bf d7b8 993f 777d b1be aa96 bfbf
00000050: 2069 013f b258 143e 2152 003d e4cd 0d40
00000060: 851c 833e 5fae 2a3f f918 bdbf f492 4dbf
00000070: c40b 183f 3d8e c93f b9d9 c1bf d316 bebf
00000080: 480a 18bf f4bc a73f 7d18 b43f 042d 87be
00000090: c22c 5ebf 18a3 e8bf f47c 6ebf e730 233f
000000a0: bf6c a73d 5a44 78bf ec7d adbf f0d5 9cbe
000000b0: 2c75 843d 5aed 09c0 1c7f f43c 1764 443f
000000c0: 7584 8e3d fd6d ffbd de34 a5be 1e82 433f
000000d0: 95e5 e33e 7072 32bf af98 1ebf f945 aabf
000000e0: 3a3c 853f dff1 9ebf 476c 833f d3da 5abf
000000f0: 9b39 f6be 11dc 0b3e 9b33 08bf d401 b4bf
00000100: 3657 99bf d978 70bf e701 02bf a4ae bdbf
00000110: 6eab 9fbf cb34 a63e 2671 93bd 4fba c6bf
00000120: 2c34 40bf 8124 bd3e c9f3 94be 003e 433f
00000130: 3f81 ab3f f60f 1140 adbd 4cbd abb3 87bf
00000140: 8fbc 7d3d 886e 733f 361d 463f 0d3c 67be
00000150: b5d9 403f 6ee4 4a3f 40ff 21bf 84c6 5dbf
00000160: 60e8 963f 4f89 7f3f 5bee f8be 3415 db3e
00000170: b908 50be 1607 0cbe 2ce7 763f b068 ad3f
00000180: fced 1e3f 0e8f c43f 4d35 d13e 38cd 1bbf
00000190: 563e ac3f 003a 0c40 3e72 c3bf 9c4b 10be
000001a0: fd4b ca3d 1559 fd3f 3a29 b83f dc21 8b3b
000001b0: 58fa 9e3e 94c4 a53e c574 b83f 7de4 9abf
000001c0: 4b4c 0bbf f39a 23bf 3f31 c13f 620b af3f
000001d0: 00e8 623e 9d36 a73f 7d62 953f e1a2 7f3f
000001e0: 06fb df3f 599f 2c3f 598e 873e b40e 0f3f
000001f0: 5ed6 d53e 4f4a b9bf 3da4 e2bf de48 23bf
00000200: 04cc 4bbd d70d 133f d2e3 e3be 9558 09bf
00000210: 47fc f93e 5d76 e23e 5792 e33e 7bc3 34bf
00000220: 0adb cebe 81a3 b23d cf6a 723c 8f99 7dbf
00000230: 8b90 223f 8190 d6bd 6d1c a5bd 04e9 e83e
00000240: 6aab 213e 7924 6abf c6a2 cf3e 355c 01bf
00000250: 3f81 9c3d a317 9a3f b5f4 6f3f 4308 573f
00000260: 9dcb 3b3e f5a5 343f 606f 29bf ef9e 263e
00000270: 81cb 653f fb70 883e d467 3fbe 03dc 4cbf
00000280: 5214 bd3e 6157 613e fda8 5e3f 5f03 00bf
00000290: 88e9 debd 804f 95bf 74cc 53bf cd06 bb3e
000002a0: 4c07 c43e e861 74bf 6f3f a53f cdad da3e
000002b0: 9a10 003f 7705 ccbe 0e3b 1a3f 3b1a 8ebf
000002c0: 27ef 4b3f 9c7f bb3f 174d dabe 520c 4a3e
000002d0: 2a07 af3e a150 45bf 76fc 9a3f c95a 9e3d
000002e0: 693f 1a3e 5431 86be 1490 9abd faa4 46bf
000002f0: 4864 91bf e4f9 2a3f 66ac 1d3d b5a3 9abe
00000300: e30d d03e 966e 8cbf d929 0abe 3cb5 5d3c
00000310: 7fdb 013f 00db 673f 675e bfbf 687d 0cbf
00000320: ee83 64be f9a5 76be 0def 0f3e 9151 9d3f
00000330: 975d 0c3f 20dc ffbe 6dc3 7e3e 97aa 52bf
00000340: 914a 493f 0ff8 1a3f e7db 2dbf 60d7 133f
00000350: b996 54bd 2a31 b3be bd3d 203f aea3 35bf
00000360: 793e ef3e ad88 6bbf 24a4 3a3f 4868 343f
00000370: 5583 54bf ce4f 213f 9919 02bf 2d2a 4d3f
00000380: f7a9 123f d5cb 4dbf c0ed 9e3f 9ed8 de3e
00000390: 99cc d03e 124c 24bf 2218 21bf c8d7 cabe
000003a0: d6b3 a1bd 0ba5 08c0 d22e 2dbf a2c5 17be
000003b0: 72ef ff3e 3fbb 113f de2f dabe e491 9b3d
000003c0: 7e16 03bd 9144 3d3f 0a5d b93e 7b14 f73e
000003d0: 2e89 d33d 165a 5e3f 4704 8d3e 7792 5e3f
000003e0: 5bad 3a3f 05dc dbbe d3e0 4a3f 58c9 313e
000003f0: 94d2 b8bc b9d3 29bf 655d c2be e32f 003d
