bshj_1d.pth (torch, 341545 bytes, 19 tensors)

input_layer.bias f4 [128]
000000 03 bc 98 3d b8 3b 65 3e 7d 08 de 3e 29 e8 f5 3e
       0.074577354 0.22386062 0.4336585 0.48028687
000010 37 6b 9c be 5d 77 4d 3f da d7 4b 3c 36 56 0b 3f
       -0.30550548 0.8026026 0.0124416 0.5442842
000020 46 e0 fc 3e e9 ea bf be 1e 08 88 3e 3b dc d6 3e
       0.49389857 -0.3748391 0.26568693 0.41964898
000030 43 14 c4 3e f3 c0 03 bf ba 1b 2a 3e 0d 7d c4 3e
       0.38296708 -0.5146629 0.1661214 0.38376656
000040 6e c2 d6 be 80 6f 0a bf 7f e7 0f 3d 97 da f2 3d
       -0.41945213 -0.54076385 0.03513288 0.11858099
000050 64 7f 54 bd 63 9a 7b 3e bf e8 fd 3e cf 48 48 3e
       -0.0518793 0.24570613 0.49591634 0.19559024
000060 cd 0a 93 be b6 df 08 bf 1c 76 8b be 55 62 f1 be
       -0.28719178 -0.53466356 -0.27238548 -0.47145334
000070 f6 1d a8 be 37 3c c2 3d a3 3a da 3e 26 c5 b7 be
       -0.32835358 0.09484141 0.4262286 -0.358926
000080 b1 93 92 3e 45 d6 a8 3d 6d 0a 0d 3f 5f 6c 08 bf
       0.28628305 0.08243994 0.55094033 -0.5329036
000090 ae 76 a7 3b 37 46 3f be 4f 65 31 be 0e 1c 22 3e
       0.0051105833 -0.18679129 -0.17323802 0.15831015
0000a0 e1 d6 aa bc 96 40 da bd 5d fc ec bd b8 49 be be
       -0.020854415 -0.1065685 -0.11571572 -0.37165618
0000b0 cb 8f 3b 3e bd 97 70 3e c3 8a 06 3f 1f 16 ef bd
       0.18316571 0.23495384 0.52555484 -0.11674141
0000c0 5f 24 6d bd 97 4b 11 3e 0d 1e a2 3e e5 e3 f4 3e
       -0.057896014 0.14188991 0.31663552 0.4783012
0000d0 98 9e a4 3e d0 b4 8d 3e 87 ee 21 3e 24 d4 b8 bd
       0.32152247 0.2767701 0.15813647 -0.090248376
0000e0 b6 d8 01 3f d8 a1 51 3e 7c e1 1c 3f 79 8d 8d 3e
       0.507213 0.20471895 0.6128156 0.27646998
0000f0 73 8e 4a 3e f3 1b f2 3e 66 1e 00 3f 51 87 73 3c
       0.19780903 0.4728695 0.50046384 0.014863805
000100 89 82 1e 3a 5f 4a 9d be 2e bb 41 3e 1a c5 fd be
       0.0006046673 -0.30720803 0.1891906 -0.4956444
000110 2e 34 ba 3e 38 64 89 3e 8f 4f e4 3e 21 4e cb 3e
       0.36367935 0.26834273 0.44591948 0.39708045
000120 3f 8d 42 3e 01 c3 07 3f d1 5c 90 3b dc 05 58 3e
       0.18999194 0.5303193 0.004405596 0.21095985
000130 e4 35 c1 3e 53 60 ff 3d 25 cd 1e 3f 1f 7f a2 bd
       0.37736428 0.12469544 0.62031776 -0.07934403
000140 4b 51 25 3e 9f e9 0e 3e de 9c ca 3e b1 9f f2 3d
       0.16144292 0.13956307 0.39572805 0.11846865
000150 10 38 e1 be f4 62 09 bf 81 e0 63 3e 67 05 99 3e
       -0.43988085 -0.53666615 0.2225361 0.29886934
000160 bb 35 d6 be 9e 01 3b 3e f5 78 fe 3d 03 5a b9 3e
       -0.41837868 0.18262336 0.124254145 0.36201486
000170 b5 a6 2d 3e 41 49 d4 bc 2a fe 28 3e 7a 93 d8 3e
       0.16958125 -0.025913836 0.16503206 0.42300016
000180 8d d6 fa 3e df 2e c1 be 28 9c 75 3e 54 44 d0 be
       0.48991814 -0.37731072 0.2398535 -0.4067713
000190 37 bf 23 be 7d 26 8e be a3 6e 36 be eb 37 d5 be
       -0.15990911 -0.2776374 -0.17815642 -0.41644225
0001a0 df 20 f2 3e 37 1a b5 be 85 76 b3 bd 80 28 2f 3e
       0.47290704 -0.35371563 -0.0876284 0.17105293
0001b0 aa 6c ec be 6f fe 31 3e 3c db 03 bf 69 6b a1 be
       -0.46176654 0.17382215 -0.515064 -0.3152726
0001c0 c1 c7 9e 3e 17 86 8e be 57 9b 8c 3e fa 1d be be
       0.31011775 -0.27836677 0.27462265 -0.37132245
0001d0 41 40 39 ba 05 2b e7 be 13 87 1d 3e c3 11 8f 3e
       -0.00070667645 -0.4515001 0.15383558 0.2794324
0001e0 66 4f b4 be f0 33 af bc b1 e0 d5 be 10 a2 c5 be
       -0.35216826 -0.02138707 -0.41772988 -0.38600206
0001f0 23 b5 9f bc 56 1b 37 bc d4 21 d3 3e 0e c3 db be
       -0.019495552 -0.011175951 0.41236746 -0.42922252

input_layer.weight_g f4 [128, 1]
000000 ab 6a 08 3f 1d 5e 87 3e d2 e4 6c 3f 7b 9c 6d 3f
       0.5328776 0.2643899 0.9253665 0.92816895
000010 a8 82 db 3e 06 da 0a 40 e0 d7 b8 3e df a7 cc 3f
       0.4287312 2.169557 0.361022 1.598873
000020 f7 25 50 3f 59 a3 31 3f 89 50 f8 be e6 c3 30 3f
       0.8130793 0.69389874 -0.48498943 0.6904892
000030 dd 93 97 3f dd b7 60 3f 4d 1b 61 be 1f d8 ab 3f
       1.1841999 0.87780553 -0.2198307 1.342533
000040 81 06 25 3f 8f 69 66 3f f7 55 da 3f 31 15 39 3f
       0.6446305 0.9000482 1.7057484 0.7229796
000050 ec f8 f0 3e fb 38 06 3f eb d5 86 3f 73 d1 c3 3e
       0.47064912 0.52430695 1.0534033 0.38245735
000060 ef b1 ed 3e 7c 1c 50 3f 43 fe 55 3f 41 b2 4b 3f
       0.46424815 0.81293464 0.835911 0.7956887
000070 62 98 ea be c7 77 1f 3d 9d 75 3b 3f ff 6c 02 bd
       -0.45819384 0.038932588 0.7322634 -0.031842228
000080 b7 81 19 3f f5 05 f9 3e 7f 81 75 3f a5 a3 9f 3f
       0.59963554 0.48637357 0.9590072 1.2471815
000090 36 38 84 bd a5 88 83 3f 6b ba 19 3f 6f 41 65 3f
       -0.06456034 1.0276076 0.60050076 0.8955297
0000a0 a8 ab 45 be ba ed 1a be 0b db 1a 3f cb f4 3e 3f
       -0.19303763 -0.15129748 0.60490483 0.74592274
0000b0 57 96 99 3e 91 ba c0 3e d3 ae ad 3f d9 6e 72 3e
       0.29997513 0.3764234 1.3568977 0.23675098
0000c0 de 15 2b 3e e0 e9 05 3f 40 90 0e 3f 6a 36 5e 3f
       0.1670756 0.5230999 0.5568886 0.8680178
0000d0 7d e9 1d 3f 93 c4 21 3f 8f 3a 91 3f 09 42 9a bd
       0.616844 0.63190573 1.1345996 -0.075321265
0000e0 3f c0 5d 3f 03 78 ac 3f 8c 1a 7f 3f d4 0e b6 3e
       0.8662147 1.3474125 0.9964988 0.35558188
0000f0 c1 02 ee 3f ea b0 60 3e fb f5 55 3f b8 76 f3 bc
       1.859459 0.21942487 0.8357846 -0.029719695
000100 7e 82 83 3f 5b 15 4e 3f af 55 21 3f 43 c4 5a 3f
       1.0274198 0.80501336 0.6302137 0.8545572
000110 f4 e4 89 3f 8f 77 68 3f b8 92 55 3f 4e 4c 3e 3d
       1.0772996 0.9080743 0.83427 0.04645949
000120 02 21 19 3f b5 c4 65 3f 4e 27 19 3f 17 98 dc 3e
       0.5981599 0.89753276 0.598256 0.43084785
000130 a0 cd 3b 3f 69 f4 29 3f 01 35 8f 3f 54 06 0f 3f
       0.73360634 0.66388565 1.118805 0.5586903
000140 0a 50 ad 3e 22 6e 52 3f 2c 99 2d 3f 39 78 6d 3e
       0.33850127 0.821993 0.67811847 0.23190393
000150 58 05 a7 3f df ad 73 3f 69 b0 b7 3f 8c 6b 48 3d
       1.3048506 0.9518718 1.4350711 0.04893069
000160 41 be fa 3e 18 6e 51 3f 3f 4c 53 3f 6c 00 26 3f
       0.48973277 0.81808615 0.8253822 0.64844394
000170 c1 9b a7 3e 5d d7 0b 3d df a2 a3 3f 3f 2e 88 3f
       0.32736018 0.034140933 1.2784079 1.0639113
000180 42 7f 42 3f 58 cf 55 3f 08 d8 80 3f b2 34 3f 3f
       0.7597543 0.83519506 1.0065928 0.7468978
000190 f8 dd 8f 3e 25 91 bd 3d fa 41 9f be 82 61 a8 3f
       0.28099036 0.092562 -0.31105024 1.3154757
0001a0 15 e6 42 3f bc 4a 95 3f 34 04 e1 3e b2 7f 5c 3f
       0.7613233 1.1663432 0.4394852 0.8613235
0001b0 c7 ad 7d 3f 54 00 3b 3e 68 0b 2a 3f a4 5c 87 be
       0.9909329 0.18261844 0.66423655 -0.26437867
0001c0 da 8c 66 3f 09 62 7b 3f 73 eb c5 be a2 59 1b 3f
       0.9005867 0.98196465 -0.38656196 0.60683644
0001d0 dc f6 a4 3c b8 1a 7e 3f 5a 1d c7 3e ba dc 83 3f
       0.020137243 0.9925952 0.3888958 1.0301735
0001e0 9a 89 82 3f 7e cd c6 3e 83 52 7e 3f aa 4c 81 3f
       1.0198243 0.38828653 0.9934465 1.0101521
0001f0 52 e3 f4 3e a1 47 40 3d de 27 40 3f 22 0f 4f 3f
       0.47829682 0.04694331 0.7506083 0.80882466

input_layer.weight_v f4 [128, 2]
000000 37 bc c7 3d 47 ac 1b bf 93 0d 2e bc 62 cb 23 3f
       0.09752696 -0.6080975 -0.0106233535 0.6398221
000010 ca 1f 0f be d0 c5 32 bf da ba 91 3e cf b9 fb be
       -0.1397697 -0.6983309 0.2846287 -0.49165198
000020 cb fb 77 3e 99 3d 16 bf 21 0a 10 3f c7 6d 24 bf
       0.24217145 -0.5868774 0.56265455 -0.64230007
000030 69 f9 05 bd 58 02 0e 3f f4 f7 c6 3e c4 37 e0 be
       -0.03270856 0.55472326 0.38861048 -0.43792546
000040 33 3e 21 3e d2 30 ea be 1f 30 48 3d f8 92 43 3f
       0.15746383 -0.45740372 0.048874017 0.7639613
000050 d9 b3 09 3d 7f 2b 0c 3f 92 b4 cc 3d 07 47 56 bf
       0.03361878 0.5475387 0.099953786 -0.8370213
000060 17 fa fc be 7b b9 13 bf 7c df 2a be ca 1a 09 3f
       -0.49409553 -0.57704896 -0.16686815 0.535565
000070 7e d2 c1 ba 98 27 26 3f f5 dd 1e bf bb 73 01 bf
       -0.0014787463 0.64904165 -0.6205743 -0.50567216
000080 1f b3 07 be a2 a3 25 3f 03 69 e7 bd b0 d5 2d 3f
       -0.13251923 0.6470281 -0.11299326 0.67904186
000090 10 f0 55 3f 09 80 dc 3d 10 b7 61 bd 65 34 0b 3f
       0.8356943 0.10766608 -0.055106223 0.5437682
0000a0 3e bd 8e 3d 44 ec fa 3e f1 1b 56 3c f7 8f 09 bf
       0.06969689 0.4900838 0.013068185 -0.537353
0000b0 8f 13 cf 3e a9 b9 16 bf 98 29 a5 3d 8d 54 15 bf
       0.4044461 -0.58877045 0.08064574 -0.5833214
0000c0 2d 30 cf bd 8c a8 1f 3f 90 99 de bd a6 06 ff 3e
       -0.10116611 0.6236656 -0.108691335 0.4980976
0000d0 0f 9c b1 3e d8 2b 10 3f 8b 8f 49 bd fd 59 30 3f
       0.34689376 0.563169 -0.04920916 0.6888731
0000e0 02 a1 93 3d 7e 76 cc be c5 82 2a bf 8c 78 19 be
       0.07208444 -0.39934152 -0.6660579 -0.14987391
0000f0 3a 8d e9 3d 78 4b 10 bf 93 49 c0 3e c9 32 62 be
       0.1140389 -0.56365156 0.37556133 -0.22089685
000100 16 95 e3 3d 1e 3f 40 bf 71 15 dc bd 65 b1 27 bf
       0.1111242 -0.7509631 -0.10746277 -0.6550506
000110 22 1f ec 3b 66 9e 57 bf 84 a6 a1 3e b6 ac 39 3f
       0.0072058598 -0.8422607 0.31572354 0.7252916
000120 12 de 36 3e 59 6d 96 bd 07 2f 66 3d 23 c1 2e bf
       0.1785815 -0.07345075 0.056197193 -0.68263453
000130 a1 a8 e0 3d 55 55 17 3f ec 36 d7 bd 51 7d 3e bf
       0.109696634 0.5911458 -0.105085224 -0.7440997
000140 4f 40 a6 3e 7a fb 73 be 19 42 70 3d 98 b1 11 bf
       0.3247094 -0.238264 0.058656786 -0.5691161
000150 b5 63 d7 bd 9a 3f 3c 3f 7d 13 41 bb 18 72 46 3f
       -0.105170645 0.7353455 -0.0029461079 0.77517843
000160 7d 8b 1e 3e 4d ed 10 bf c7 25 b7 bc b3 59 e1 be
       0.15482898 -0.5661209 -0.02235688 -0.44013748
000170 72 bd d7 be 51 8c 33 bf 59 86 ad 3e a5 fd d3 3e
       -0.42136723 -0.7013598 0.33891562 0.41404453
000180 88 f5 9a 3d 65 c7 b2 3e 79 4a d1 be 34 d2 af be
       0.075663626 0.3491775 -0.4087713 -0.3434006
000190 6a c9 69 3d 1a e2 fb be a0 5e 53 bc 9f f7 3a bf
       0.05707685 -0.4919594 -0.012900978 -0.7303409
0001a0 d4 79 72 3e a5 e4 38 bf c6 d9 0e 3e e0 9b 51 bf
       0.23679286 -0.72223884 0.13950261 -0.8187847
0001b0 bd 78 33 3f 1b 83 4c be 5c 97 e2 3e 7a 87 86 be
       0.70106107 -0.19971888 0.44256103 -0.26275235
0001c0 96 1a f1 3d 5d 3f 1d bf f1 b4 05 3f a0 04 dd be
       0.11772649 -0.6142481 0.5222922 -0.4316759
0001d0 f7 d0 1f 3e e2 a5 1c bf 26 81 47 3d cd ac 24 3f
       0.15607058 -0.6119062 0.04870715 0.64326173
0001e0 3f 4b af 3f 95 82 e4 bb 28 13 7f be 1c 78 bf 3e
       1.3694838 -0.0069735744 -0.24909651 0.37396324
0001f0 7d f3 5f 3e 70 a4 05 bf 9a ec a5 be bf 0a 83 3e
       0.21870227 -0.52204037 -0.32407075 0.25594136
000200 9f 1a 84 3f cf 15 c6 3d 98 f8 3f 3c 64 79 2e 3f
       1.0320624 0.096721284 0.011716984 0.6815398
000210 1d 91 44 bc 50 fd 12 bf 55 27 49 bd a2 27 40 3f
       -0.011997488 -0.57417774 -0.049109776 0.75060475
000220 bf b3 c6 be 63 bb 23 bf 50 6c 11 be b6 19 2c bf
       -0.3880901 -0.63957804 -0.14201474 -0.6722673
000230 43 cb 66 bc ed cb 2d bf f3 20 c6 ba 55 d6 de 3e
       -0.014086547 -0.6788929 -0.0015116021 0.43522897
000240 0b e9 06 bd b2 d0 fb be 27 62 5c 3d 46 72 53 bf
       -0.03293709 -0.4918266 0.053804543 -0.8259624
000250 fe cb b5 3d a9 fb 5a 3f 53 69 c0 ba 29 90 1e bf
       0.08876799 0.8554025 -0.0014679827 -0.6193872
000260 54 11 88 3e b2 93 44 bf 9f f8 95 bd 50 8e 17 bf
       0.2657572 -0.76787865 -0.07322811 -0.59201527
000270 41 18 9d 3e a7 be 2d bf ee a3 cd b9 54 57 2b bf
       0.30682567 -0.6786904 -0.00039222784 -0.6693013
000280 44 9c bc 3c 4f 86 f9 be 44 0c c0 bd 9a 96 45 3f
       0.023023732 -0.48735282 -0.093773395 0.77182925
000290 52 7b 49 3d 61 26 15 bf 97 53 c0 bc 13 f6 a6 be
       0.049189873 -0.58261687 -0.023477359 -0.32609615
0002a0 bf 0d 07 3f 52 51 26 3f 2e e2 33 be 7e 3e b8 3e
       0.5275535 0.64967835 -0.1756675 0.35985178
0002b0 44 60 4c bf aa 81 aa be 30 bc 45 be 25 86 26 3e
       -0.7983439 -0.3330205 -0.19310069 0.1626211
0002c0 e0 63 a3 3e fa 89 37 bf 09 e6 05 bd 6b a3 50 3f
       0.31912136 -0.7169491 -0.03269008 0.81499356
0002d0 8f fc 2b be 39 51 43 bf 0f ec 49 b9 eb ae 4a bf
       -0.16795562 -0.7629581 -0.00019256792 -0.79173154
0002e0 e5 70 20 3b fc f0 de be 19 82 aa 3c ee 6b c0 3e
       0.0024481353 -0.4354323 0.020813989 0.37582344
0002f0 30 c2 63 3f 77 12 2f be 23 f2 5d be 35 b3 2f bf
       0.8896818 -0.17096888 -0.21674399 -0.68632823
000300 32 77 f6 3d a6 35 28 bf ec 78 15 3e b4 9c 25 3f
       0.120344535 -0.6570686 0.1459691 0.64692235
000310 83 1b 75 bd 2c 07 26 bf d2 bc 1e 3e 47 d8 21 bf
       -0.05984069 -0.64854693 0.15501717 -0.6322064
000320 3d 81 64 3e e9 63 06 bf 99 34 54 3e ce c2 90 3e
       0.22314925 -0.524962 0.2072319 0.28273624
000330 f6 da 9d bd 7d f6 08 bf d9 24 fa be d5 f3 ea 3e
       -0.07707779 -0.5350111 -0.48856238 0.45889154
000340 8d b0 e3 3d 32 d5 26 bf 33 4f 9b 3d 53 f4 1e bf
       0.11117659 -0.6516906 0.075834654 -0.6209156
000350 b9 25 18 3e fb 01 0a bf cb 41 82 bd 67 bd 1e 3f
       0.1485814 -0.5390927 -0.06360205 0.62007755
000360 6d dd 3d 3d b7 8f 5f 3f a2 dc 33 3c 4f b6 22 3f
       0.046353746 0.87328666 0.010977896 0.6355943
000370 7a 3a 04 3e fb 32 dc be 1a 31 dc 3c e9 23 f7 be
       0.12912932 -0.43007645 0.026878882 -0.48269585
000380 f9 df 08 be 97 b3 24 bf 26 e2 0f 3e 49 3d 28 3f
       -0.13366689 -0.6433653 0.14051113 0.65718514
000390 73 0d 69 bc ca 4b b3 3e 14 5c 3d be d2 2f bf 3e
       -0.014224398 0.3501876 -0.18492156 0.37341172
0003a0 26 e9 9c 3e 31 0e ce 3e 68 38 b1 be 7f 50 e5 3e
       0.30646628 0.40245202 -0.34613347 0.44787976
0003b0 1d eb 12 3e a8 87 1d bf af 06 ff be f9 3c 16 bf
       0.14347501 -0.6153512 -0.49809787 -0.58686787
0003c0 9e f6 d0 3e 7d 5d 0e 3f 97 34 07 3e bc 16 fd be
       0.40813154 0.556114 0.13203655 -0.49431407
0003d0 bf 8d a3 3d d7 d8 0b 3f e3 af 21 3e ba 57 2b 3f
       0.0798602 0.54627746 0.15789752 0.66930735
0003e0 cc 4c fa bc 64 04 db 3e 30 c9 1d 3d d1 bf af 3e
       -0.030554198 0.42776787 0.038521945 0.34326032
0003f0 fd fe 8e 3c 49 ef 26 bf 89 b1 7f 3d 86 fd 4e 3f
       0.017455572 -0.6520887 0.06242517 0.80855596

hidden_layers.0.layer.bias f4 [128]
000000 02 67 f2 bd 15 84 00 bd ef f8 89 bd ea b1 49 be
       -0.118360534 -0.031375963 -0.067369334 -0.19696775
000010 7f bf 23 be fa d8 5b be 95 1a 93 3d d2 e1 08 be
       -0.15991019 -0.21469489 0.071828045 -0.13367394
000020 37 77 a6 3c df 30 45 3d 0a 79 22 3e 83 e9 13 3d
       0.020320518 0.04814231 0.15866485 0.036111366
000030 2c 85 a0 3c 17 dc 0d 3e 2c f6 48 be 7c 67 32 3e
       0.019594751 0.13853489 -0.19625157 0.17422289
000040 9c eb b8 3d 90 1c 97 bd e4 56 80 3e ad 3a 1a be
       0.09029314 -0.07378495 0.25066292 -0.15061446
000050 a9 2b 1b 3b 7a d3 f9 3d 09 4d 18 bd 93 58 0c 3d
       0.0023677147 0.12198539 -0.03718284 0.03426416
000060 60 6c d8 bd d2 0e 01 be 7f ef af 3c df 8e 57 3d
       -0.10567546 -0.1260331 0.021476505 0.052626487
000070 cf 12 84 3e 03 0f c6 3b 0b 04 ed bc 78 5f 17 be
       0.257956 0.00604427 -0.028932592 -0.14782512
000080 b8 3c 40 bd 55 8d af 3d 97 7c 92 3c 22 bf 95 bd
       -0.046932906 0.08571879 0.017881675 -0.07311846
000090 11 50 9a bd 4b 66 16 be 2a 81 37 3e f4 7e e5 3d
       -0.07534803 -0.14687459 0.17920366 0.11205855
0000a0 47 94 23 3e 9b de bd 3d cb 92 88 3d d2 3d 9c bd
       0.15974532 0.09270974 0.066686235 -0.07628979
0000b0 69 dc 27 3e bc 3a 81 3e 04 7e bd 3a 23 e5 bb bc
       0.16392674 0.25240123 0.0014457111 -0.02293641
0000c0 73 e1 25 3c 28 4c 29 bc b4 bf 17 be cd cd 04 3e
       0.010124552 -0.0103330985 -0.14819223 0.12969132
0000d0 50 74 02 be 1e e6 c3 bd cb c4 58 3d 72 9b f2 3d
       -0.12739682 -0.09565376 0.05292205 0.11846055
0000e0 06 2c 38 3e 07 f6 97 3d ad dc 8a 3e 50 67 8e 3c
       0.17985544 0.07419973 0.27121487 0.017383248
0000f0 f1 0e 69 bc a6 5b 1f be 33 2e ca 3c 14 cc 94 bd
       -0.014224754 -0.15562305 0.024680233 -0.07265487
000100 9d f3 99 bb 8e 1f af 3d 32 e1 97 3d 01 55 ef 3d
       -0.0046982304 0.085509405 0.074159995 0.11686135
000110 03 86 7a bc 8e 55 4c 3c b8 65 2d 3e a0 65 6b 3e
       -0.01529074 0.01247157 0.16933334 0.22987986
000120 d8 1c df bc 69 67 42 be ff cd 6f 3d 67 49 08 3a
       -0.027235433 -0.1898476 0.058546063 0.0005198926
000130 04 42 65 3e 69 82 06 be d1 ba 91 bd 1e 83 bc bd
       0.22388464 -0.13135685 -0.071157105 -0.09204696
000140 51 7b 26 bb 66 72 c0 3d 8c ca 72 bd bc 57 df bd
       -0.0025403092 0.0939682 -0.059275195 -0.10905406
000150 8e d1 c9 bd b8 99 35 3d a2 ad ab bd 98 29 88 3e
       -0.098544225 0.04433605 -0.08382727 0.26594234
000160 3b d0 fa 3d 3c 2a bb 3d 62 ef 6b 3d 47 a4 82 3c
       0.12246748 0.09138915 0.05760134 0.015947474
000170 48 9c 14 3e 05 36 7a 3d b4 ef 04 3e e5 c5 9d bd
       0.14512742 0.061086673 0.12982064 -0.07703761
000180 6c 86 2f be 40 79 2a 3d 93 fe ef bd 31 f2 46 be
       -0.17141122 0.04161954 -0.11718478 -0.19428326
000190 53 5b ee bd fa d0 e0 bd ce 44 42 be 31 86 9f 3c
       -0.116385125 -0.10977359 -0.1897156 0.019473167
0001a0 3f 9d 12 be 36 c9 2c bd 64 bb 41 3e ec d0 47 3e
       -0.14317797 -0.042184077 0.1891914 0.19513291
0001b0 af 3c 4e bd 19 eb d3 3c bf 4e 1a bd 36 81 86 bd
       -0.05035084 0.02586894 -0.037672754 -0.06567614
0001c0 6e 36 ee bd 32 58 fc 3c 4d 00 d6 3c 91 b7 c7 3c
       -0.116314754 0.030803774 0.02612319 0.024379523
0001d0 51 80 7c bc 09 66 af 3d f4 2b f4 3d c0 d7 ae 3d
       -0.015411452 0.085643835 0.11922446 0.08537245
0001e0 de 73 22 3e 49 53 f0 bd 0a 20 0e be 48 bb 09 3e
       0.15864512 -0.117346354 -0.1387941 0.13450348
0001f0 83 0e 3c be cc 20 95 3a 1b 27 49 bd b9 7d 15 be
       -0.18364911 0.0011377572 -0.04910956 -0.1459874

hidden_layers.0.layer.weight_g f4 [128, 1]
000000 c1 9b 5d 3e 42 ac 84 3e e7 b9 09 3f 9e 44 0e 40
       0.21641447 0.25912672 0.5379929 2.222938
000010 64 65 3c 3f da 90 97 3f 40 ed 9b 3f e4 85 39 40
       0.7359221 1.184108 1.2181778 2.898797
000020 04 ec 14 3f 71 4e 94 3e ef 35 46 40 81 84 29 be
       0.5817263 0.28966096 3.0970418 -0.16554452
000030 e2 cf 50 3f 6b 8b d0 3f 7f 5e 39 40 72 4c e8 3f
       0.81567204 1.6292547 2.8963926 1.8148329
000040 dc 06 9f 3f ae dc b1 3f 05 17 46 40 2a d9 f1 3f
       1.2423968 1.3895471 3.095155 1.8894398
000050 32 f8 c6 3e b4 9d 80 3f 3b c3 8e 3e 97 10 21 3f
       0.38861233 1.0048127 0.27883324 0.6291594
000060 68 de 03 40 62 22 9c 3f 2f 94 8a 3e 72 4a da 3e
       2.0604496 1.2197993 0.2706618 0.42634922
000070 28 1f 13 40 9a 99 a5 3d 9a 42 d2 3f 63 4c dc 3f
       2.2987766 0.08085938 1.6426575 1.7210811
000080 33 cd c4 3d 27 8c 45 3f ff 6c 1e 3e be b4 58 3f
       0.09609451 0.7716698 0.15471266 0.8465079
000090 48 cd 81 3f 1d 43 59 40 9e 73 92 3f 85 b5 76 3f
       1.0140772 3.3947213 1.1441534 0.96370727
0000a0 65 8d 85 3e 88 9e 71 be aa ee de bc a8 8b d9 3d
       0.26084438 -0.23595631 -0.027213413 0.106223404
0000b0 d8 bd 87 3f 81 ef 13 40 27 8e 93 3e 4c 17 15 3f
       1.0604811 2.3114932 0.2881939 0.58238673
0000c0 10 0f 14 3d d8 69 07 3e f7 2c 80 3f 3c 06 cb 3e
       0.036147177 0.1322397 1.0013722 0.39653194
0000d0 6c ad b5 3f 71 57 ae 3e 3b 64 d1 3c 52 43 3c 40
       1.4193549 0.34051087 0.025560489 2.941609
0000e0 50 d7 3f 3f 1e 51 fe 3e 44 bd 30 40 f0 8a 83 3d
       0.74937916 0.49671263 2.7615519 0.064229846
0000f0 14 a1 09 3f 94 c4 14 40 30 3d 95 3e 33 7c a4 3e
       0.5376141 2.3244982 0.29148245 0.32126006
000100 9f f6 07 bd 89 d6 36 be 85 c9 35 3f 16 20 d7 3f
       -0.03319418 -0.17855276 0.7101062 1.6806667
000110 3c 76 b7 3b e1 10 08 3e a1 98 8c 3f 9a ad dc 3f
       0.0055988114 0.13287689 1.0984079 1.7240479
000120 f9 bb 17 3f 80 3b 75 3f 03 2d ee 3f ab e5 89 3e
       0.592712 0.95793915 1.8607486 0.26933035
000130 20 17 1c 40 85 9a 82 3e d6 8d 31 3f b8 20 56 3f
       2.4389114 0.25508514 0.6935705 0.83643675
000140 1f b6 81 3e 4e e7 82 3f 02 c7 79 3e a8 80 12 3f
       0.2533426 1.0226839 0.24392322 0.57227564
000150 82 2f da 3f 0f 28 63 3e e9 84 85 3f e8 48 88 3f
       1.7045748 0.2218325 1.0431186 1.0647249
000160 75 16 3e 3e 57 75 7c 3f a9 e6 e1 3e fe 44 24 3d
       0.18563254 0.98616546 0.44121292 0.04010486
000170 95 ee 79 3f e2 66 53 3f 74 f4 0a 3f fb 7f b6 3e
       0.9762967 0.8257886 0.54279256 0.35644516
000180 18 5d 85 3f 8d 95 7a 3e 13 04 1b 40 ca 05 a1 3e
       1.0419035 0.24471112 2.4221237 0.3144973
000190 63 ca 6a 3e d6 30 44 3f 7d 28 3e 40 aa ad b1 3d
       0.22928767 0.7663702 2.9712212 0.08675702
0001a0 3b f8 10 40 1a 3d 4d 3e 07 b7 f3 3f 03 8a 53 40
       2.2651508 0.2004284 1.904023 3.3052986
0001b0 ea 17 19 3f 3e e7 7f 3e 67 8f 73 3e 47 f7 0e 3f
       0.59802115 0.24990556 0.23785172 0.55846065
0001c0 2b f6 95 3f 66 9d 19 3f f9 8a 91 3e c4 c3 57 bc
       1.171575 0.60005796 0.2842634 -0.013169233
0001d0 ef a3 21 3e 9f cd 34 3f b9 c1 7e 3f 65 33 2c 3f
       0.15785192 0.7062625 0.9951435 0.6726592
0001e0 00 66 68 3e 14 d1 0b 40 3a b1 58 3f 18 f4 85 3f
       0.2269516 2.184636 0.84645426 1.0465117
0001f0 9d aa 1e 40 51 c5 9c 3c 3e 33 34 3f b1 d3 52 40
       2.4791634 0.019137057 0.7039069 3.2941706

hidden_layers.0.layer.weight_v f4 [128, 128]
000000 de 08 2d bd 7f a6 c7 bd 1a 4a ba bd 6a 99 a1 bb
       -0.042244785 -0.097485535 -0.09096165 -0.0049316185
000010 b5 72 dd bb ce 0c b3 3c 86 a9 f0 3d bf 41 88 3c
       -0.006758059 0.021856692 0.11751084 0.016632913
000020 b5 cb d1 bd 9c 89 95 3c aa cc b8 bd a9 bb 9c 3d
       -0.10243932 0.018254094 -0.090234116 0.07652981
000030 31 6c 41 be a0 6a 81 3c 3a f2 a8 3d f5 93 00 be
       -0.18888928 0.015797913 0.08249326 -0.12556441
000040 8e d5 26 3e 61 38 27 3e 18 f1 d3 3d 02 c8 e6 bc
       0.16292402 0.163301 0.10348719 -0.028171543
000050 a9 c3 9e bd d3 ed 6e 3d bc 6b f1 3c 98 76 82 3d
       -0.07752163 0.058332276 0.029470317 0.06370276
000060 e4 d4 28 3e 70 9b d6 3d 8d 26 11 3e 20 c9 ae 3d
       0.16487461 0.10478866 0.14174862 0.08534455
000070 fd 42 29 3d ee 00 84 3d f0 7c 54 bd 12 da 53 3c
       0.04132365 0.0644549 -0.051876962 0.01293041
000080 ad 10 19 be 6e 39 4a bd 88 33 7e be 85 93 87 3e
       -0.14947768 -0.049371175 -0.24824345 0.26479736
000090 b7 fb 0e be 20 df bc 3d f3 15 8d bc e0 ed ae 3d
       -0.13963209 0.09222245 -0.01722238 0.08541465
0000a0 d6 a8 fc 3d 3d 52 3d be 6d ac 25 bc 5b 66 d0 3e
       0.123368904 -0.18488403 -0.01011191 0.4070309
0000b0 03 d9 5c 3d 7c fb 9c be cf 9b 66 be c2 e2 25 bd
       0.053917896 -0.30660617 -0.22520374 -0.040499456
0000c0 3d 80 05 3e 53 47 e5 3c 5e b8 d9 bd f3 7e ac be
       0.130372 0.027988112 -0.106308684 -0.33690605
0000d0 22 50 86 bd ec 01 63 be fd 95 1b 3e 2c 5a 9f 3d
       -0.06558253 -0.22168702 0.15193935 0.07780871
0000e0 d6 f4 87 bd 0e 1b 2d 3d c5 88 1b be 1c 00 fa bc
       -0.066384956 0.04226213 -0.15188892 -0.03051763
0000f0 68 15 04 3e 66 5f ab 3d 77 37 b7 bd 75 b4 73 3c
       0.12898791 0.08367805 -0.08946126 0.014874567
000100 8c 8b de 3c 5e 2b e7 3b da 4b 22 be 03 63 01 3e
       0.02716615 0.0070547303 -0.15849248 0.12635426
000110 a9 32 d9 3b f8 85 2f 3d 7f 9d 8a bd 86 a5 3b 3d
       0.0066283536 0.042852372 -0.06768321 0.045812152
000120 0a 0f 66 bd 7f c9 16 bd a1 c6 30 bb 6f e1 1b 3d
       -0.056166686 -0.036813255 -0.002697386 0.038056787
000130 4f 11 0f be bf 43 04 be 66 86 0a be 2c f6 bb bd
       -0.13971446 -0.12916468 -0.13527831 -0.09177813
000140 19 85 ef bd 46 20 86 3d 58 8d 1a be 82 4f 25 be
       -0.11695308 0.065491244 -0.15092981 -0.16143611
000150 76 86 06 3e d0 2f 57 bd 9c 0b 3f be 25 4d 2f bd
       0.1313723 -0.052535832 -0.18656772 -0.04279818
000160 58 c7 92 3d 31 2d ca bd b2 8d 94 bd 8e aa a3 3c
       0.07166928 -0.09871901 -0.07253589 0.019978788
000170 c0 a9 d2 bd 31 77 99 bd d6 04 3b 3e fc 06 10 bd
       -0.102862835 -0.07493437 0.18263564 -0.03516291
000180 53 b3 da bd 75 8a 46 3d 2a 57 b3 3d 95 7d bb 3d
       -0.10678735 0.048471887 0.087568596 0.09154812
000190 6a 9e 5f be 7a c4 bd bd 33 86 ed bd 63 7f e8 3c
       -0.21837774 -0.092659906 -0.11597862 0.028381055
0001a0 19 34 48 bd 38 f7 14 3e a7 8d 9b bd 6a 1e 66 bd
       -0.04887781 0.14547431 -0.075953774 -0.05618135
0001b0 b3 8b 6e 3e 74 f2 cf bd 0f 80 82 3d c2 9a ba 3c
       0.23295479 -0.10153666 0.063720815 0.022778872
0001c0 4b 92 fd bc b5 0f d1 ba 5f 56 0f 3c bd 30 1d bd
       -0.030953547 -0.0015950116 0.00874862 -0.03837656
0001d0 90 fe ba 3d 6a c3 aa bc 04 b3 c7 3c 03 78 d5 bd
       0.09130585 -0.020845134 0.024377353 -0.10423281
0001e0 1e 9f b0 3d 12 77 78 be 4e 9a be 3e bb 1f 80 3d
       0.08624099 -0.24264172 0.372271 0.06256052
0001f0 2c 20 9f 3d e1 14 79 3e 75 b5 e0 bc 60 d1 8e 3d
       0.07769808 0.24324371 -0.027430275 0.06973529
000200 b1 e5 08 bd 90 94 4e 3d 0e 04 1d be 38 33 00 bc
       -0.033422176 0.05043465 -0.15333578 -0.0078247115
000210 ad 74 eb 3d 2a ca 4d 3d c3 09 2b 3c 01 c8 d5 3d
       0.114968635 0.050241627 0.010439339 0.10438538
000220 1e 3f 9e 3d 42 fc 3a 3e 3a 2e 58 3d 23 15 cb 3c
       0.077268824 0.18260291 0.05277846 0.024790352
000230 ad 1c b9 bc 84 05 a0 3d 14 af 2c 3d 0d c2 7c be
       -0.022596681 0.07813552 0.042159155 -0.246834
000240 c2 61 13 3e e1 7a 35 3e b7 1d 2a 3e 61 f2 8c bd
       0.1439276 0.17722656 0.16612898 -0.068821676
000250 2a f3 1d 3e 93 07 17 3e d3 88 c2 3d ff 72 a3 bd
       0.15424791 0.14748983 0.094987534 -0.07980918
000260 ba 41 8f 3d a4 c1 76 3c a2 0d 1e 3e bc 24 94 3d
       0.06994958 0.015060816 0.15434888 0.07233569
000270 20 38 d6 bd 34 22 2e be 67 85 e4 3d 1e e0 d8 3c
       -0.10459924 -0.17005235 0.11158257 0.026474055
000280 fc 9c bb 3d 0b 80 ef bd 7e 65 3d be fa ce 1b 3e
       0.09160802 -0.11694344 -0.18495747 0.15215674
000290 5e ee fd 3d 45 ae 39 3c 57 ee 38 3e fb e6 0b 3e
       0.123989806 0.011333053 0.1805967 0.13662331
0002a0 c7 a7 f0 3c e3 d8 d4 bd 72 c4 b3 bd 20 61 c2 3c
       0.029376877 -0.1039293 -0.08777703 0.023727953
0002b0 6f 9c 00 3e 7f 69 81 be 41 67 dc bd 24 16 8b 3e
       0.12559675 -0.252758 -0.107618816 0.2716533
0002c0 a9 c3 dd 3b a9 6c 1c be fe 02 04 3d c4 f3 84 bd
       0.0067677093 -0.15275826 0.032229416 -0.06491807
0002d0 d0 7d 59 3d 0a 6d 99 3d dd 6f 48 3e 68 01 b4 bd
       0.0530985 0.07491501 0.19573922 -0.08789331
0002e0 af b6 a4 bd c6 20 82 3e b6 c7 04 be ff bf 67 bd
       -0.08042657 0.2541563 -0.12966809 -0.056579586
0002f0 a5 1d fa 3d ce b0 e0 bd 2f fa c7 3d 57 38 93 bd
       0.122126855 -0.10971223 0.097645156 -0.0718848
000300 54 1f 9f 3c 62 d9 49 3d b2 63 14 be 3e eb cd 3d
       0.019424118 0.049279578 -0.14491156 0.100546345
000310 a6 24 2f be 74 92 89 3d 9c 67 00 be ef b6 92 3d
       -0.17103824 0.06717387 -0.12539524 0.07163798
000320 93 21 eb bc 96 05 2c be 8f bf c1 bc 17 1d 34 3e
       -0.028702533 -0.16799006 -0.023650913 0.17589222
000330 d5 c9 20 bd f9 14 30 3d 65 d6 7b 3d 74 b5 27 bb
       -0.039254982 0.04298875 0.06148376 -0.0025590332
000340 65 64 80 bd b5 9d 82 bd ba 6f a6 bc 0b 31 76 bc
       -0.06269149 -0.063777365 -0.020316947 -0.015026341
000350 3e d3 b7 bc 33 23 fd bd 76 26 9a be 55 d5 76 bc
       -0.022439595 -0.12360229 -0.30107468 -0.015065511
000360 f0 37 8d bd d8 fd a3 bd 1f 9f d7 3d 24 dd 91 be
       -0.06895435 -0.08007401 0.10528397 -0.2848903
000370 86 57 1e 3e 0f 1b c4 bc c2 18 94 3e cb 30 2e be
       0.15463075 -0.023938684 0.2892514 -0.170108
000380 81 17 59 bd 62 bf 8e 3e 5e cf 00 bc b5 a9 ae 3d
       -0.05300093 0.27880388 -0.00786194 0.08528463
000390 5b 6d 73 3c 94 0a 85 3d 7d 4b 5b be a9 80 8c bd
       0.014857615 0.06496158 -0.21415515 -0.068604775
0003a0 51 c0 59 bd 53 74 0e 3e cf 38 d9 3d 71 16 47 bd
       -0.053161923 0.13911562 0.106065385 -0.048605386
0003b0 1d 09 f9 3c 2b 52 26 3b 9f d5 7d bd 11 98 5e bd
       0.030399853 0.0025378566 -0.061971303 -0.05434424
0003c0 f8 1d 00 bd 7f 15 66 bd 71 9a 22 bd 59 de 16 be
       -0.03127858 -0.056172844 -0.039698068 -0.14733256
0003d0 ae 87 96 3d 63 df b8 bd a1 0d 03 3e 7f 2f 1c bd
       0.073500976 -0.09026983 0.12798168 -0.038131233
0003e0 ab 60 23 3e f6 07 a9 bb bd 1d 73 3e b5 0c 1d 3d
       0.15954845 -0.0051584197 0.23741813 0.038342196
0003f0 ee 94 93 3d 45 9d 5e 3e 37 e8 82 be e2 37 25 3e
       0.072061405 0.21739681 -0.2556779 0.16134599

hidden_layers.1.layer.bias f4 [128]
000000 16 8a 49 bd 93 65 88 bc 83 ea 85 bd 5e 47 13 3d
       -0.049203955 -0.016649997 -0.0653887 0.035956733
000010 7f 48 88 bd 24 6e b4 bc 13 75 bc 3c ec f2 6f ba
       -0.066544525 -0.022025175 0.023005044 -0.00091533246
000020 f9 73 a4 3d ef 8c 34 bd d6 cf 19 bd ee 12 35 bc
       0.080299325 -0.044079717 -0.037551723 -0.0110518765
000030 a3 a1 8e bd 28 f5 3b 3d aa fe 35 be 12 b4 8a bb
       -0.069644235 0.045888096 -0.17772928 -0.004232892
000040 e6 7c da bc fc 83 37 3d f7 bc d0 3c 18 78 59 3c
       -0.026670884 0.044803604 0.02548073 0.0132732615
000050 a7 c2 6a bc fc 37 21 3c 6b 49 9a bc 1d ad 10 3b
       -0.014328635 0.009840008 -0.018833837 0.002207584
000060 87 89 7a bd 3a 50 e7 3c 62 cb ef 3c e1 c6 15 bd
       -0.061166313 0.028236497 0.029271785 -0.03656662
000070 e3 13 06 ba bf 03 5d 3c c4 3f 2b bd 0a 93 08 be
       -0.00051146577 0.013489663 -0.04180886 -0.13337341
000080 e2 73 e6 3c 40 ea 6c 3d 53 43 e5 bd 81 44 ad 3b
       0.02813143 0.057840586 -0.11194482 0.0052877073
000090 59 97 95 bd 97 4f a4 bb 33 0d e7 3d 94 97 9d bb
       -0.07304258 -0.0050143707 0.112818144 -0.0048093293
0000a0 dc 41 a2 bc 67 c7 c3 bc e1 dd 9c bd 9d 27 3a bd
       -0.019806795 -0.023898793 -0.076595075 -0.045447934
0000b0 85 7a a4 bd 97 01 55 bd 11 7b 0c bd 64 29 c6 3b
       -0.08031181 -0.05200347 -0.034297053 0.0060474146
0000c0 ff f3 7f bd 99 2d 13 3e 17 3b 2c 3c 65 12 88 3c
       -0.062488552 0.14372863 0.010512135 0.016610334
0000d0 91 31 a5 3c 34 1b 70 3d e7 80 fb bc 43 20 f1 bc
       0.020165237 0.058619693 -0.030701114 -0.029434329
0000e0 c1 47 78 bc 64 39 50 3d 04 77 b3 bc d3 0b 7b bd
       -0.015153826 0.050835982 -0.021907337 -0.061290573
0000f0 6e b3 3e 3d 76 a8 78 3d 72 dc 09 3b a1 d7 ac 3d
       0.046557836 0.060707532 0.0021035937 0.084395654
000100 53 69 80 bd 7a ab 28 3c 8a 91 8c bb bf a8 24 3d
       -0.06270089 0.010294789 -0.0042898105 0.04019999
000110 dc 7c 4e 3d 5f 6d c3 3c 89 ce d8 3c 1e 29 13 bd
       0.050412044 0.023855863 0.026465671 -0.035927884
000120 ee 62 87 3c 1a 13 a3 bb 6b 38 4e 3d e9 7d 82 3c
       0.016526666 -0.0049766423 0.050346773 0.01592918
000130 cc 52 09 bd ba 20 5c 3c 1b a5 c6 bc ef a7 be bd
       -0.033526227 0.013435537 -0.02424865 -0.093093745
000140 25 42 88 3d 5e 40 77 3d d3 cb 9f bd 38 98 70 bc
       0.06653241 0.06036412 -0.07802548 -0.014684729
000150 03 8c 80 3d 63 38 fb bc 16 b0 eb bd e4 6f 0b 3d
       0.06276705 -0.030666536 -0.11508195 0.034042254
000160 d2 17 cf bc 53 84 15 3c 0f 68 2d be c9 f1 ee bc
       -0.025279913 0.009125787 -0.16934226 -0.029168027
000170 18 79 37 3d 0a 13 23 bd 47 0a d4 bd c1 e8 16 3b
       0.04479322 -0.03981308 -0.10353523 0.0023026916
000180 7b a0 9c bc ee 3b 62 3d 48 d1 b8 bd 83 9a 12 3c
       -0.019119492 0.055232935 -0.09024292 0.008947971
000190 27 f9 43 3d 0d 95 ab bc fe 58 ff bc 4e 8d 71 3d
       0.047845032 -0.020945096 -0.031170364 0.05897265
0001a0 20 e3 09 3d 74 62 a4 bd a7 67 27 bc 06 6e e5 3b
       0.03366387 -0.08026591 -0.010217584 0.007001641
0001b0 85 4d a8 3b 31 ff 2e 3d ce f2 98 bd a4 83 dc bc
       0.005136194 0.04272384 -0.07468186 -0.02691824
0001c0 86 b8 f6 bb cd e6 be 3c 82 33 c5 3c f6 bd cc bd
       -0.007529321 0.023303414 0.024072412 -0.0999717
0001d0 ea f4 24 bd 57 49 36 bb 3b 8d 7c bc 91 88 15 3d
       -0.04027263 -0.002781471 -0.015414531 0.036507193
0001e0 93 d1 a1 3a ec 1b 5c 3d 86 0e 20 3b 6a 75 75 3d
       0.0012345783 0.053737566 0.002442272 0.059926428
0001f0 cf 78 79 bc 58 2a 6f bc 43 2d 1c bc 56 50 73 bd
       -0.015226557 -0.014597498 -0.009532276 -0.059402786

hidden_layers.1.layer.weight_g f4 [128, 1]
000000 f5 14 e6 3d ff cd 67 3f a9 94 49 3f 66 80 fc 3e
       0.11234466 0.905487 0.7874246 0.4931671
000010 67 70 3f 3e c8 04 67 3e 97 c3 0f 3e 57 04 da 3e
       0.18695222 0.22560418 0.14039455 0.42581436
000020 a6 f3 af 3e ee 15 1e 3e 1e 33 34 3e 90 d2 79 3e
       0.34365577 0.15438053 0.17597625 0.2439673
000030 0d 35 61 3e 74 a7 ab 3e 0b c2 eb 3f ab e2 b5 3e
       0.21992894 0.33526194 1.8418592 0.35524496
000040 c7 fd d5 3d ba 08 a1 3e 1d 43 50 3e 6c b1 e5 3e
       0.10448795 0.3145197 0.20338102 0.44861925
000050 7f 94 cb 3e fc 72 b1 3e 52 a8 c5 3e a3 54 c3 3d
       0.3976173 0.3465804 0.3860498 0.095376275
000060 60 06 35 3f 40 c7 ed 3d 14 55 6e 3e b2 6b 59 3f
       0.7071285 0.116102695 0.23274642 0.84929955
000070 91 46 c6 3e 97 97 df 3d df 0c 7f 3e 24 34 70 3e
       0.38725713 0.10917585 0.24907254 0.2345739
000080 54 56 f5 3f 81 82 c1 3e cc 5b f5 3e 17 26 9f 3e
       1.916697 0.3779488 0.47921598 0.31083748
000090 e7 97 48 3f 98 ef a6 3e 46 d5 47 3e 20 cc 20 3e
       0.78356785 0.3260467 0.19514951 0.15702868
0000a0 b5 23 6b 3f 47 56 ab 3e f8 1e b7 3e fc 1f 86 3d
       0.9185136 0.33464262 0.35765815 0.06549069
0000b0 d8 15 5e 3e 55 3e 0a 3e e0 22 a9 3e be 91 a7 3e
       0.2168802 0.1350034 0.3303442 0.3272838
0000c0 6e f1 08 bb 3b 40 6d 3e 6a ac da 3e 59 74 76 3e
       -0.0020895856 0.23169033 0.42709666 0.2406782
0000d0 5a c9 72 3e c9 97 c4 3e 5a 3f 30 3e f9 2d 1e bd
       0.23709622 0.38397053 0.17211667 -0.03861806
0000e0 06 36 fc 3d d6 f1 4f 3f 9d df 8a 3e 51 10 df 3d
       0.12314992 0.8122839 0.27123728 0.10891784
0000f0 74 c2 8c 3e eb 7a 8b 3d 78 7a b6 3e 29 f4 23 3e
       0.27492106 0.06810554 0.3564031 0.16011108
000100 06 46 c9 3e 4f a3 7f 3e 3e 66 95 3e 35 8a 48 3e
       0.39311236 0.24964641 0.29179567 0.19583972
000110 8a d2 aa 3e f3 55 f9 3d 6c d2 d2 3e 33 24 d9 3e
       0.33363754 0.12174597 0.41176164 0.4241043
000120 d7 0e 55 3e c5 e6 54 3e b4 59 e7 3e af 9e 53 bd
       0.20806442 0.20791157 0.45185626 -0.051665004
000130 e2 d5 db 3e 2e 39 f4 3d 6e c3 dc 3e 69 d4 7a 3e
       0.42936617 0.11924969 0.4311785 0.2449509
000140 4e 58 b7 3d f0 9c ca 3e 74 0c ee 3d 99 38 b4 3e
       0.0895239 0.3957286 0.11623469 0.3519943
000150 b3 01 4d 3e a4 f0 4c 3e 66 d2 ac 3e 73 8d 15 3e
       0.2002018 0.20013672 0.3375427 0.1460474
000160 11 d2 cb 3e 9b 89 91 3e 84 3d b2 3f ad cc ab 3e
       0.39808705 0.28425297 1.3925023 0.33554593
000170 48 ec 36 3e 4e 6c ac 3e 68 f0 c0 3e 25 92 9e 3e
       0.17863572 0.3367638 0.37683415 0.30970874
000180 29 27 a3 3e e3 5b 7d bc 0e 61 85 3e 87 37 4d 3f
       0.31865814 -0.015463802 0.2605061 0.80162853
000190 25 0c 67 3e 88 6c 37 3f 67 69 7c 3e 6e 95 34 3e
       0.22563227 0.7164998 0.24649583 0.17635128
0001a0 b0 72 ac 3e 85 12 3a 3e 87 ef 33 3f b0 71 50 3d
       0.3368125 0.18171127 0.70287365 0.05088967
0001b0 19 b0 8d 3e 31 83 cf 3e 63 fa 99 3e ce c5 3a 3f
       0.27673414 0.4052978 0.30073842 0.72958076
0001c0 b4 bc 31 3e 41 ac d9 3e e1 38 d5 3e 8d 12 d6 3e
       0.17357141 0.42514232 0.41644958 0.41811028
0001d0 8b ef a5 3f ff c7 81 3e e2 96 3d bd 04 be 9a 3e
       1.2963728 0.25347897 -0.04628647 0.30223095
0001e0 0f c4 dc 3d 20 82 c6 3d b6 cf 63 3c 6c 35 95 3e
       0.10779583 0.09692788 0.013904503 0.2914232
0001f0 9c 4a b9 3e b3 7f 6f 3f 39 fc ac 3e 82 0e ee 3e
       0.36189735 0.9355423 0.3378618 0.46495444

hidden_layers.1.layer.weight_v f4 [128, 128]
000000 8c b7 d4 3d 38 9b f4 3d 8f f1 45 3d b4 e2 0e bd
       0.10386571 0.11943668 0.04832607 -0.03488417
000010 d4 f8 9f 3d bb 74 a2 bd 4a 27 d0 3d 9e 2d 8d bd
       0.07811132 -0.07932421 0.10163744 -0.068934664
000020 1b 15 35 bd a2 ab 83 bc 91 c4 80 3c 61 c5 75 3e
       -0.04420958 -0.016073052 0.01571873 0.24001075
000030 b6 c3 e0 3d 25 26 57 bc c6 3a 70 3d c3 f4 8a bd
       0.10974829 -0.013131653 0.0586498 -0.06784966
000040 98 73 ab bc 94 9e cc 3d ae 8e 18 3d 50 5b 91 bb
       -0.020929143 0.09991184 0.037245445 -0.004435934
000050 1b b2 0d bd 6b d1 8f bc 7b 7a 1a bd 00 16 b1 bd
       -0.034593683 -0.017555913 -0.037714463 -0.08646774
000060 1d d2 7a 3c 04 fb a5 bc 98 61 ed 3d 8b be 07 be
       0.015308884 -0.020261295 0.1159088 -0.1325628
000070 3f c5 92 bc 4e 25 be 3d f5 39 49 bd 17 35 37 3d
       -0.01791632 0.09284459 -0.049127538 0.044728365
000080 2b e1 df 3d 5d 76 68 3d a3 06 93 3d bc 2b 52 3d
       0.10931619 0.056753505 0.07179 0.05131124
000090 95 c5 38 3d a4 36 7e 3d d3 8a b1 bb 4f ab 6f 3b
       0.045110304 0.062063828 -0.0054181605 0.0036570614
0000a0 c5 d8 c8 bd 0c 13 76 bd bd fb f6 bd 29 62 74 bc
       -0.098069705 -0.06007676 -0.12059734 -0.014915981
0000b0 23 8e a4 bc 13 d4 b4 3d e7 bb 12 bd a2 ca 18 3d
       -0.020087307 0.088295124 -0.03582373 0.03730262
0000c0 90 b0 90 3d b2 b2 a4 bd e5 ae df bc 19 0c 8d bc
       0.070649266 -0.08041896 -0.027305076 -0.017217683
0000d0 83 ed 19 bd e2 d1 37 3e 6d 73 5a 3e f7 ae d5 3d
       -0.037580024 0.17951158 0.21333094 0.104337625
0000e0 df 9b a5 bc 8b f0 83 bc 2b e8 4f bd 52 38 98 bd
       -0.020215927 -0.01610591 -0.050758522 -0.07432617
0000f0 e1 60 6b bd 2f 06 f0 bd 7c 91 18 be 07 0a f9 3c
       -0.057465438 -0.117199294 -0.14899248 0.03040029
000100 12 aa ca 3d 07 1d e8 3c 88 5b 97 bd 47 af 95 bc
       0.098957196 0.028334154 -0.07390505 -0.018272055
000110 f7 31 b4 bc 11 b5 9f bd db 0c 18 3e 10 2a 7d bd
       -0.021996481 -0.077982076 0.14848654 -0.061807692
000120 94 a0 29 bd 43 7f fe 3b e7 cd 1a 3d 75 07 ae 3d
       -0.041412905 0.0077666356 0.03779402 0.08497516
000130 61 fd be bc d9 55 9b 3d c5 e9 c7 3b 03 c2 28 3d
       -0.02331418 0.075847335 0.0061008655 0.04120065
000140 8f de 29 3e 8a 8b 76 3d 8e a7 6e 3c b7 b7 89 bb
       0.16588806 0.06019167 0.014566315 -0.0042028087
000150 f3 8a b9 3d 75 26 f9 3d 3d 3a 94 bb b2 c8 4f bd
       0.090597056 0.12165538 -0.004523544 -0.050728507
000160 83 96 6f be 92 0f 04 3d 64 12 07 bd 68 88 d5 bc
       -0.2339726 0.03224141 -0.032976523 -0.02606602
000170 e7 3d 75 3d 71 5c ae 3c 70 b4 2e bc a4 ec 91 3d
       0.059873488 0.021284314 -0.010663137 0.07125214
000180 99 6d f7 bd c3 84 88 bc 36 cb b1 bc d6 1f 85 3d
       -0.12081451 -0.016664868 -0.021703344 0.06500213
000190 07 fc 57 3d c5 a0 dd 3d 56 02 53 3c b1 47 87 bd
       0.052730586 0.1082168 0.012878975 -0.06605471
0001a0 4c 87 09 3c 13 39 87 bd 91 bc 39 bd c8 b9 ef bc
       0.008394074 -0.06602683 -0.045345847 -0.029263392
0001b0 82 28 c4 3d d2 5f bb 3d 1f eb fe bd 47 1f 8b 3c
       0.09578039 0.09149136 -0.124471895 0.016982688
0001c0 45 31 be bd c0 26 9c 3d 0e e1 e2 bd 88 d6 fb 3d
       -0.09286741 0.076245785 -0.11078082 0.12296778
0001d0 97 3b 2e 3d 26 0d 07 3b 69 d7 7e 3b ad 00 b5 3b
       0.042537298 0.0020607202 0.0038885719 0.005523762
0001e0 17 d6 80 bb 0d 71 9e bc 86 b0 3e 3e e2 30 dd bd
       -0.0039317715 -0.019341016 0.18622026 -0.10800339
0001f0 72 0e c8 bd bb 2d bb 3c 33 30 b4 bc d0 09 cb bd
       -0.0976838 0.022848954 -0.02199564 -0.09913981
000200 e0 b8 96 3c 77 2a 7d bc 06 e9 3d 3e a8 07 63 3e
       0.018398702 -0.015452019 0.18545923 0.2217089
000210 65 0e 2b 3d d3 f1 d7 3d 2c 89 30 be 82 51 a8 3e
       0.041761775 0.10544171 -0.17239827 0.32874686
000220 69 85 3a be ed 74 28 3c 01 2d a6 be b8 b0 82 3c
       -0.18214954 0.0102817835 -0.3245621 0.015953407
000230 a1 df b4 bd d3 4c 89 be 82 35 a0 3e cb cb 3c be
       -0.08831716 -0.26816425 0.31290823 -0.18437116
000240 fd 87 72 be c6 b9 99 3d a8 7d b7 be 81 1b 45 3e
       -0.23684688 0.075061366 -0.35838056 0.19248773
000250 24 94 7f bc 2d fb 4f be 69 c5 49 3d 12 f5 c8 bd
       -0.015599284 -0.2031066 0.04926053 -0.098123685
000260 50 43 84 3e b1 cf 3d 3e f7 f7 b6 3c 0a e3 a5 bd
       0.25832605 0.18536259 0.022335036 -0.08099945
000270 8c 71 92 be 4f 68 55 3c b7 85 d5 3d 26 ef 7e 3e
       -0.28602254 0.013025357 0.10425895 0.24895915
000280 73 19 96 3d 02 49 56 be e6 92 66 bc fa c1 29 3e
       0.07329073 -0.20926288 -0.014073109 0.16577902
000290 4a 43 1f 3e be a8 b9 3e 3a c9 62 be 3f 27 76 be
       0.15553012 0.36261553 -0.22147074 -0.24038409
0002a0 9e bc 5a 3c 61 c2 b6 3a 15 e7 14 bd b7 5a 8e 3d
       0.013350634 0.0013943427 -0.03635319 0.06950896
0002b0 e5 09 f4 bd da e4 81 be 4d 00 c4 3c 78 bd a1 3d
       -0.1191595 -0.25369912 0.023925925 0.078974664
0002c0 1e 80 b4 bc 4f 0d 73 bc 66 3c 13 3e ad 43 8d bd
       -0.022033747 -0.014834716 0.14378509 -0.06897674
0002d0 e7 98 4b 3e ab a5 85 3d e8 5a db 3a 99 3b ad be
       0.19882546 0.06525739 0.0016735466 -0.33834532
0002e0 53 3e 18 be d9 e8 43 be 77 ee 9c be 95 50 00 bd
       -0.14867525 -0.19131793 -0.30650684 -0.03132685
0002f0 33 78 d8 3d 09 02 aa 3e 0b fd 89 bd d5 1c d2 3d
       0.10569801 0.33204678 -0.06737717 0.102594055
000300 21 20 3a ba de 92 03 3d 69 33 b3 3d 9d 8e 56 be
       -0.00071001245 0.032122485 0.0875004 -0.2095284
000310 dd 4f 35 3c ae 3a 19 bd a1 82 24 be 6e d7 4a be
       0.011066404 -0.037409477 -0.16065456 -0.19808742
000320 26 51 05 3e a9 66 92 bd 27 40 5d be af 12 b1 bd
       0.13019237 -0.07148487 -0.21606503 -0.08646142
000330 c1 c5 f1 be 3c 57 81 3d 7d 03 d4 3d ec 1a 21 3e
       -0.47221187 0.06315467 0.10352228 0.15732926
000340 ca 9b 84 3d 47 7c 01 be cb 73 61 3d ae 9f 2b 3e
       0.06475027 -0.12645064 0.05504207 0.16760132
000350 6b 4a d1 3d 9f bd 65 3b af 8c 3a 3e fa cb da bd
       0.10219272 0.003505565 0.18217729 -0.10683437
000360 21 45 78 bd ed 26 fd bd fe 45 75 bb 13 4d 75 bc
       -0.0606128 -0.1236094 -0.0037425752 -0.014971989
000370 06 ec 17 be 5f 2f 33 be 86 28 1b be c6 58 ea 3c
       -0.1483613 -0.1749854 -0.15152177 0.028606784
000380 8d 30 2e 3e af 24 01 bd 22 93 97 3e 0f b1 23 3d
       0.17010708 -0.031529125 0.2960444 0.039963778
000390 b0 62 60 3d 30 3a 88 bd 03 5b b7 3e 86 b5 35 bd
       0.054781616 -0.066517234 0.35811624 -0.044362567
0003a0 61 4c 81 3e 85 26 31 3c b4 04 22 be 6a ec d0 be
       0.25253585 0.010812406 -0.15822107 -0.4080537
0003b0 f7 f1 fb 3d ae 07 97 bd 96 bd 86 bd 52 9f e3 3d
       0.123020105 -0.07374512 -0.065791294 0.11114372
0003c0 17 63 e4 3d 1f cf 5d be ac 32 8a bc 46 d5 13 3b
       0.111517124 -0.21661042 -0.016869865 0.002255754
0003d0 eb 3a 9b bc 10 69 c4 bd 4f 86 5a be 5a 20 8f 3e
       -0.018948993 -0.095903516 -0.21340297 0.2795437
0003e0 82 dc 9b bd 82 8e 84 3e 34 4d 3e 3e e6 a3 99 3d
       -0.07610418 0.25889975 0.18584138 0.07501964
0003f0 c9 47 c0 3e fc 0d f3 ba e5 94 b4 3d 5e bf ae 3e
       0.37554768 -0.0018543596 0.08817462 0.34130377

hidden_layers.2.layer.bias f4 [128]
000000 e9 1c 58 bd 21 f5 05 3d 48 51 ea bc c7 0e 62 bc
       -0.052761946 0.032704476 -0.028603211 -0.0137974685
000010 d9 18 af bc 50 7c cb 3b c0 c1 3d bd 3e b1 f5 3b
       -0.021374153 0.0062098876 -0.046327353 0.0074979356
000020 a3 6a 1a 3d 54 cf a9 bb 17 84 10 3b 25 f2 2d bc
       0.037699353 -0.005182186 0.0022051388 -0.010616814
000030 a7 73 d9 bc e1 8c b2 bc e2 e9 ca 3c dc bb 0f 3b
       -0.026544405 -0.021795692 0.024769727 0.0021932041
000040 dc 3f 09 3d 3c d8 89 bc e0 50 34 bc 0c 5f 8f 3c
       0.033508167 -0.016826741 -0.01100561 0.017501377
000050 50 e1 4c bc a2 36 fe 3b ea 9a c2 3c 46 7a 71 3c
       -0.012504891 0.0077579776 0.02375551 0.014738625
000060 6c 67 9a 3c d9 f9 1f bd 58 79 4b 3b b2 9a df 3c
       0.018848144 -0.039056633 0.0031047668 0.027295444
000070 a2 9a 76 3d ee 79 fb 3c 7e a5 e7 3a ab d4 53 bb
       0.060206063 0.030697789 0.0017673222 -0.0032322805
000080 23 6d ab 3c b0 6f e8 3b f3 03 a5 bc 84 d1 f7 bc
       0.020926064 0.0070933923 -0.020143485 -0.030251272
000090 10 f0 92 3c 4e 58 fa bc 17 58 0a bd 7e 62 10 3d
       0.017936736 -0.030559685 -0.033775415 0.03525018
0000a0 e6 47 a4 bc cc 7d 37 3d 6a cd 97 bc c3 ae 9b 3c
       -0.020053815 0.044797704 -0.018530566 0.019004231
0000b0 07 9d 7f 3c 4a cf 70 3a bc 6c 9e 3b 1b a6 34 3d
       0.015601403 0.0009186162 0.0048347395 0.044103723
0000c0 e5 1e 5d 3c 9a 06 15 bb 12 76 19 bd 5f cd ac bb
       0.013496135 -0.002273953 -0.037466116 -0.0052735056
0000d0 0f a2 98 3c 92 be 04 3c 05 27 d1 bb 53 89 43 bd
       0.018631963 0.008102076 -0.0063828253 -0.047738384
0000e0 1b 1a 3d 3b 53 38 32 bb 1e 80 04 bb f4 d8 21 3c
       0.0028854671 -0.0027194216 -0.0020217965 0.009878386
0000f0 70 b7 18 3d 24 5f 40 3d 56 bb 9d 3b 5e c5 a5 3b
       0.037284315 0.046965733 0.004813592 0.0050589284
000100 a7 67 2e bc 43 1b 0a bd ba 83 80 bc 03 30 bb 3c
       -0.01064483 -0.033717405 -0.015687812 0.022850042
000110 fb 2c de 3c 1a 5e e5 bb 12 9f be bc 05 fe db bc
       0.027121058 -0.006999743 -0.02326921 -0.026854524
000120 3d ee 89 3c fb ed d3 bc 2b ee b6 bc 9e ad 2d 3d
       0.016837234 -0.025870314 -0.022330364 0.042401902
000130 53 8b 7d 3c 92 3b ed 3c cc 57 18 3d ea 07 96 bc
       0.015475112 0.02895907 0.037193105 -0.01831432
000140 1a 4b bb bb 22 98 a1 bb ad ea 53 bd 1d 8f 9c 3c
       -0.00571574 -0.0049314657 -0.051737476 0.01911121
000150 bb e2 c1 3c 29 04 28 3c f4 b6 4b bd bf 33 96 bb
       0.023667684 0.010254898 -0.049735025 -0.0045838053
000160 02 5b 6b bc 72 09 f2 3c 80 55 ae 3c b6 6d 1c 3d
       -0.01436496 0.02954552 0.021281004 0.038190566
000170 3e 8b c9 3c 2c e0 ab 3b f7 c4 0b bd f6 89 7e 3c
       0.024602529 0.005245229 -0.034123387 0.015535822
000180 93 07 4e 3c 8d 30 73 bd 32 05 15 3c 96 b3 c3 3c
       0.012575048 -0.059372474 0.009095477 0.023889344
000190 08 0d 9e 3c c4 24 af bb 38 a4 06 3c f9 02 5c bb
       0.019293323 -0.005344959 0.008217864 -0.0033571108
0001a0 57 d8 9b bc 39 0f 34 bd 77 44 83 3c 64 70 ed bb
       -0.019024057 -0.04395983 0.016023858 -0.007246064
0001b0 f7 d1 19 bd 7e 7c 79 bc da 48 dc 3c 98 9b 14 3d
       -0.037553754 -0.015227435 0.026890207 0.0362812
0001c0 03 73 66 3d c7 bd a4 3c 1f 69 d5 bc 43 c1 90 bc
       0.056262027 0.020110024 -0.026051102 -0.01767028
0001d0 15 17 de bc d3 94 3a bd b1 6e c1 bb 28 2e 55 3b
       -0.027110616 -0.045552086 -0.005903088 0.0032528732
0001e0 e1 f4 47 bd 43 86 61 3d 89 09 81 bc d7 b8 f5 3b
       -0.04881752 0.055059683 -0.015751617 0.0074988413
0001f0 73 be 19 bd 95 af 01 3d 7f 6a 26 3d b3 25 68 bd
       -0.037535142 0.03166159 0.040628906 -0.056676578

hidden_layers.2.layer.weight_g f4 [128, 1]
000000 9b e0 ee bd aa d8 c4 3d d2 15 f7 3e 22 43 30 3e
       -0.11663934 0.09611638 0.48258835 0.17213109
000010 ee 55 6f 3e 2c c0 dd 3d 24 62 50 3e 27 76 5b 3e
       0.23372623 0.108276695 0.20349938 0.2143179
000020 9d ec fe 3e 13 49 08 3d 5d 5b 0f 3e df e8 8f 3e
       0.49789897 0.033272814 0.13999696 0.28107354
000030 2f ca 11 be 43 e7 00 3f 18 49 6a 3e 39 4f 5d 3e
       -0.14237283 0.5035288 0.22879446 0.21612252
000040 6b 33 b2 3e 72 5b 84 3d 81 0d 38 3e 22 17 27 bb
       0.34804854 0.06462754 0.17973901 -0.0025495966
000050 0f 96 0e 3d 49 9b a2 3e 1f 44 d7 3e 15 b8 76 3e
       0.034811076 0.31759098 0.4204416 0.24093659
000060 f5 d6 d9 3d d9 53 24 3e 7b 56 bd 3e c2 db 00 bc
       0.10636703 0.1604761 0.36980042 -0.007864894
000070 e5 a4 85 3f 6f 65 a0 3e db 95 3f 3e 4e 2e e6 3e
       1.0440947 0.31327388 0.18709509 0.44957203
000080 a6 29 79 3e 47 e5 80 3e f6 4e b5 3e 87 57 8c 3e
       0.24332294 0.25174925 0.35411805 0.27410528
000090 73 43 be 3e 08 be 6f 3e a5 c5 8c 3f cb 01 a9 3e
       0.37160835 0.23412335 1.0997816 0.3300918
0000a0 79 fa fd 3d cb ab b3 3e f8 ae 98 3e 97 6f ae 3e
       0.124012895 0.35092005 0.2982099 0.3406951
0000b0 e3 2c d5 3e 1d 4d 23 3e 46 ca 3a 3e 6f 00 12 3f
       0.41635808 0.15947385 0.18241224 0.5703191
0000c0 fa b4 99 3d ae 3d d9 3e 9e 11 7a 3e 9e 35 b0 3e
       0.07505222 0.4242987 0.24420783 0.34415907
0000d0 46 5e b1 3d f2 cc 48 3e 14 2b 71 3e 50 4d 07 3e
       0.08660559 0.1960943 0.23551589 0.13213086
0000e0 3d 35 36 3e 83 61 7a 3e 0f 05 32 3e 20 a5 b1 3e
       0.17793746 0.2445126 0.17384742 0.34696293
0000f0 96 cf 41 3d b6 f1 8d 3e 8e d0 3e 3e b9 23 9b 3d
       0.04731711 0.27723473 0.18634245 0.07575173
000100 c4 f7 31 3e b7 5e a2 3e 68 29 6e 3e 3a 58 81 3e
       0.17379671 0.31712887 0.23257983 0.25262624
000110 de 74 5c 3e d1 4c 8e 3e a9 0f a6 3e 48 35 22 3e
       0.21528956 0.2779298 0.32433823 0.15840638
000120 53 5a 8b ba f8 5c af 3e b9 d1 f6 3e dc 66 03 3e
       -0.0010631777 0.34250617 0.4820688 0.12832206
000130 46 ea 36 3d cb cc 88 3e 16 5a aa 3e 28 3d 81 3e
       0.044657014 0.26718745 0.33271855 0.2524197
000140 15 67 7f 3e 31 a4 9f 3e 90 c4 5f 3e 69 c6 03 3f
       0.24941666 0.31179956 0.21852326 0.51474625
000150 f8 68 0b bd 34 a2 5f 3e 91 5f a9 3e 25 9e 67 3e
       -0.034035653 0.2183922 0.33080724 0.22618921
000160 18 60 65 bb 66 10 8c 3e 0d ce b4 3e 95 2c 7b 3d
       -0.0034999903 0.2735626 0.35313454 0.061321814
000170 37 13 89 bd 7c 3a a7 3e a3 43 9f 3d 32 d5 17 bd
       -0.06693118 0.32661808 0.077765726 -0.037068553
000180 ab 0d 8a 3e 33 0e 8c 3e 30 e9 2b 3d a6 ca cc 3e
       0.26963553 0.27354583 0.04197043 0.39998358
000190 4a 18 65 3d b9 c8 f2 3d 5f 49 ee 3e b7 4c 1b be
       0.055931367 0.11854691 0.46540353 -0.15165983
0001a0 be 40 25 3e 93 00 58 3e b9 c4 f8 3e b3 48 ed 3e
       0.16137978 0.21093969 0.48587587 0.46344528
0001b0 fe a3 9f 3e fe d8 04 3e 7a d3 74 3b f2 94 7a 3e
       0.31179804 0.12973401 0.0037357495 0.2447088
0001c0 e3 0f e2 3e 42 9f c0 3d ae 9f 96 3e ea 7d be 3e
       0.44152746 0.09405376 0.294187 0.3720544
0001d0 64 cc c8 3e f1 57 92 3e 92 57 86 3e 62 7e 93 3d
       0.39218438 0.2858272 0.26238686 0.0720184
0001e0 97 65 d4 bb 4b 12 c6 3e 17 a0 30 3e 69 51 a1 3e
       -0.006481837 0.3868583 0.1724857 0.31507424
0001f0 ef 42 5a 3d e0 34 3d 3e 58 81 8d 3e 15 ad 86 3e
       0.05328649 0.18477201 0.27637744 0.26303926
