hj_1d.pth (torch, 206600 bytes, 13 tensors)

input_layer.bias f4 [128]
000000 9e 7d c9 bf 7b 57 d5 bf 47 c6 96 3f 2b e3 01 40
       -1.574146 -1.6667322 1.177926 2.0294902
000010 19 32 03 c0 2f 38 53 3e a4 18 d4 3f 1c 53 0e bf
       -2.0499327 0.20626901 1.657002 -0.55595565
000020 8f da c0 3f 9b 1f e9 3f 38 40 12 40 15 dc 1c c0
       1.5066699 1.821277 2.2851696 -2.4509327
000030 e7 64 91 3f 8c dc 12 c0 32 f6 c9 3f 1b df 12 c0
       1.1358918 -2.294711 1.5778258 -2.2948673
000040 a6 f9 1e 40 32 06 ce bf 45 7b 04 40 0d cd a4 bf
       2.4839873 -1.6095641 2.0700238 -1.2875077
000050 9b 21 f3 bf 8c 26 1c 40 d4 22 c2 3f 68 84 09 40
       -1.899463 2.4398527 1.5166879 2.1487064
000060 75 bc fc 3f b5 21 1e 40 47 1f 1e 40 c5 02 16 c0
       1.9745013 2.4708073 2.470659 -2.343919
000070 58 93 04 c0 8c e2 9f 3f f8 8c 2e c0 e2 7e eb 3f
       -2.0714931 1.2491012 -2.727354 1.8398097
000080 fa ba 00 40 6a d2 66 3f d6 00 ab 3f 54 0e eb bf
       2.0114121 0.90164816 1.335963 -1.8363748
000090 21 96 14 40 ae c1 bc bf ea 71 1d c0 f4 09 bf 3f
       2.3216631 -1.4746606 -2.4600778 1.4924912
0000a0 01 3c 80 bf 16 18 f2 bf 39 47 d2 bf 1a 9d 80 3e
       -1.0018312 -1.89136 -1.6427985 0.2511986
0000b0 a1 48 f7 bf 90 c1 09 c0 5b bf d0 3f 39 12 2a 40
       -1.931904 -2.152439 1.6308397 2.6573622
0000c0 db a3 0a 40 cf 3d 9e 3f d6 24 a9 3d d4 25 2d c0
       2.166251 1.2362612 0.08258979 -2.7054338
0000d0 11 32 15 40 74 68 03 c0 a5 45 0d 40 02 48 20 40
       2.3311808 -2.0532503 2.2073758 2.504395
0000e0 37 d0 2f c0 87 dc f6 3f ec 75 e5 3f b9 76 d8 3f
       -2.7470834 1.928605 1.7926612 1.6911231
0000f0 55 df 1a 40 11 33 dd 3f 75 f7 b8 bf 57 99 09 c0
       2.419881 1.7281209 -1.4450518 -2.1499841
000100 89 cb e0 3f 32 9b 05 40 28 85 07 40 87 39 c7 bf
       1.7562114 2.0875974 2.1175022 -1.5564431
000110 20 ab fd 3f 90 92 db 3f a1 89 aa bf 67 24 24 40
       1.9817848 1.7154102 -1.3323251 2.5647218
000120 de 99 1c c0 80 6f 11 40 2b 43 d6 3f d4 0d 6d bf
       -2.4468913 2.2724304 1.6739248 -0.92599225
000130 e2 02 2d 40 a7 a7 9b bf 8d 9b ff 3f c5 bb 0b 40
       2.703301 -1.2160538 1.9969345 2.1833355
000140 c1 98 33 bf 09 fc bd bf 68 eb 1b c0 7c f5 bd 3f
       -0.7015496 -1.484254 -2.436243 1.4840541
000150 aa 99 eb bf 06 c1 87 bf 73 92 18 40 7a 7f cc bf
       -1.840627 -1.0605781 2.3839386 -1.5976403
000160 d4 37 12 be 38 65 99 bf 23 01 1c c0 9d 88 16 40
       -0.14279109 -1.1984015 -2.4375694 2.3520882
000170 6d e1 c4 3f 5a ce a5 bf 2e b4 05 c0 ee aa 8b bf
       1.5381294 -1.2953598 -2.0891223 -1.0911539
000180 45 fd 0b 40 03 32 e2 3f 4f 0f 1b 40 6c f1 0d 40
       2.1873333 1.7671512 2.4228094 2.2178602
000190 a8 d7 93 3f cd 1b 22 c0 ee c0 01 c0 c6 a8 00 c0
       1.1550188 -2.5329468 -2.0274005 -2.010301
0001a0 d8 d9 e4 bf 1f 1b b1 bf bf 0c 16 c0 b7 97 e9 3d
       -1.7878981 -1.3836402 -2.344528 0.114058904
0001b0 3a 70 2d c0 ff d5 83 bf cf 79 a1 be 04 8c 14 c0
       -2.7099748 -1.0299681 -0.31538245 -2.3210459
0001c0 84 ec fb bf 75 36 95 bf c1 b2 8e 3f e7 a3 13 c0
       -1.9681554 -1.1657244 1.1148301 -2.3068788
0001d0 82 cc b8 3e 84 c2 a7 bf 3b 12 b5 bf a2 36 a1 bf
       0.36093527 -1.3106236 -1.4146188 -1.2594798
0001e0 85 99 a1 3f 7c a9 04 c0 3c d9 12 40 f4 b9 0c c0
       1.2624975 -2.0728445 2.294509 -2.1988497
0001f0 75 ed 30 c0 98 e9 bb bf 79 88 0a 40 ee 51 f8 3f
       -2.7644932 -1.4680662 2.1645796 1.9400003

input_layer.weight_g f4 [128, 1]
000000 b1 a6 52 bf 3c 73 5a bf e5 c1 6f bf d7 f2 9a bf
       -0.822856 -0.85332084 -0.93655235 -1.2105359
000010 4e 4d 76 bf fc 66 0e c0 ac f4 8c bf d4 f3 37 bf
       -0.9621171 -2.2250357 -1.1012168 -0.7185643
000020 2d 91 a0 be 16 70 57 bf f2 c6 21 bf e6 52 2e bf
       -0.3136076 -0.84155405 -0.6319419 -0.6809524
000030 2a e7 0e 40 0d 0a 0f 40 53 6b 06 c0 dd 8f 19 3e
       2.2328591 2.2349885 -2.1003006 0.14996286
000040 b0 2d 71 bf ad 97 28 bd 9c c3 20 40 c4 a6 c9 be
       -0.9421034 -0.041160274 2.511939 -0.39385045
000050 46 17 f7 be 14 b0 0c bf 0f 87 9e bf 0d 9a 22 bf
       -0.48259944 -0.54956174 -1.2384967 -0.6351631
000060 89 fe a2 bf 6a 9d 6b bf 8c c0 74 bf 44 41 6c bf
       -1.2733928 -0.9203707 -0.95606303 -0.9228709
000070 4a 1e e6 be 90 25 da bf 26 94 7f bf 95 02 be bf
       -0.44944984 -1.7042713 -0.9983543 -1.4844538
000080 bf 23 9f be 7f 11 4b bf f1 df 24 bf 5f aa 12 bf
       -0.3108196 -0.7932357 -0.6440421 -0.57291216
000090 ea 79 63 bf 55 ba af bf 52 93 b0 3f d5 68 24 bf
       -0.888579 -1.3728739 1.3794959 -0.6422246
0000a0 fe 92 3b bf 8c 95 9e bf ee 76 3b be 5c 72 7a be
       -0.7327117 -1.2389388 -0.18307087 -0.24457687
0000b0 86 50 f3 be a5 44 09 bf d4 c2 12 bf 00 d9 84 bf
       -0.47522372 -0.5362037 -0.57328534 -1.0378723
0000c0 9d 5a 14 3f 73 43 91 bf b6 44 09 bf 6b ff 2a 40
       0.57950765 -1.1348709 -0.5362047 2.6718395
0000d0 a9 22 85 bf 8e 5b 80 bf a8 55 6e bf 9b 8b 87 bf
       -1.0401202 -1.002794 -0.9309945 -1.0589479
0000e0 e1 72 f0 be 4f c8 03 bf 0c 34 59 bf 03 e2 a2 be
       -0.46962646 -0.5147752 -0.8484504 -0.31813058
0000f0 03 e3 06 40 8d 80 8e bf f7 05 cd bf ef 2c 3b bf
       2.1076057 -1.113298 -1.6017445 -0.7311544
000100 31 63 9c bf 59 2c c5 3e 9a 05 66 bf d5 82 39 bf
       -1.2217771 0.38510397 -0.898523 -0.7246526
000110 b2 2b aa bf 94 f9 4d 40 34 40 5b bf e0 9e a5 bf
       -1.3294585 3.218358 -0.8564484 -1.293911
000120 c5 32 9b bf 38 9d 8a bf 82 b4 4f bf c6 16 c9 bf
       -1.2124869 -1.0829229 -0.8113481 -1.5710075
000130 20 a6 46 bf 76 80 11 bf 16 7c 33 40 52 6c 90 bf
       -0.77597237 -0.5683664 2.8044486 -1.1283057
000140 ac b5 c4 bf e8 4b 5d be 89 0a 9a bf 9c a2 f8 bf
       -1.5367942 -0.21610987 -1.2034465 -1.9424624
000150 c9 10 40 bf 64 79 cc be 4c df 5e bf 5d 9e d4 bf
       -0.7502561 -0.39936364 -0.87059474 -1.6610829
000160 a5 02 47 bf ef 0b ad be 4f e0 66 bf 20 d4 97 bf
       -0.7773841 -0.33798167 -0.9018602 -1.186161
000170 db ab 06 be c6 ad 96 be de 3f ba bf 14 ad c8 bf
       -0.13151495 -0.29429454 -1.4550741 -1.5677819
000180 37 5a ba bf 95 41 bc bf d7 25 86 bf 29 31 8e bf
       -1.4558781 -1.4707514 -1.0480298 -1.1108752
000190 f5 a6 30 40 07 c4 30 bf 56 02 70 bf b2 7a e5 bf
       2.7601902 -0.69049114 -0.93753564 -1.7928069
0001a0 cb b0 21 bf 14 86 b2 bf c1 c0 80 bd 54 93 4e bf
       -0.6316039 -1.3947167 -0.06286765 -0.80693555
0001b0 31 d8 45 bf 8e 77 94 3e 51 0d 9c 3e be c5 8d bf
       -0.77283007 0.28997463 0.3047891 -1.1075971
0001c0 f2 74 00 bf 62 ba 4e bf 59 90 6f bf 23 bd dd be
       -0.50178444 -0.8075315 -0.9357963 -0.43308362
0001d0 71 06 89 bf a3 2c 30 bf 45 3c 76 bf 1c cd 3f bf
       -1.0705091 -0.6881811 -0.96185714 -0.7492235
0001e0 da 0e 2d bf 3c c6 32 bf a3 3a de 3f 0c 74 af 3f
       -0.67600787 -0.6983373 1.7361645 1.370729
0001f0 56 4d c2 bf 81 d7 f5 be 93 18 ba 3f 3e 48 38 bf
       -1.5179851 -0.4801598 1.453875 -0.7198523

input_layer.weight_v f4 [128, 2]
000000 0b 9c b3 3f 3b 8d 81 3f 04 4a e7 bf 2b 81 4f bf
       1.4031996 1.0121225 -1.8069463 -0.8105647
000010 b8 1b 18 40 86 f2 5e bf 73 ca f8 bf 0c 75 a4 3f
       2.3766918 -0.8708881 -1.9436783 1.284822
000020 62 c4 05 40 24 d3 b1 3f 4c 75 c1 3f e7 9b f0 3e
       2.0901113 1.389256 1.5113921 0.46993944
000030 5d 5e 15 c0 0f 0e ac bf c4 c4 0a c0 94 fa 8d bf
       -2.3338845 -1.344179 -2.1682596 -1.1092095
000040 35 3a c7 3f 55 a1 00 bf 60 c4 ad bf 72 3a 46 bf
       1.5564638 -0.50246173 -1.3575554 -0.7743293
000050 e2 87 09 40 e5 18 7f bf 98 28 0e c0 fe 5e ea bf
       2.1489186 -0.9964736 -2.2212276 -1.8310239
000060 51 55 42 c0 22 07 e3 3e 0a b0 57 c0 08 50 28 bf
       -3.0364573 0.4434138 -3.3701196 -0.6574712
000070 c4 f5 f4 3f c1 db 0c c0 f9 da 3f bf d5 fa 61 bf
       1.9137502 -2.2009127 -0.749435 -0.88273364
000080 05 66 12 c0 cf 21 98 3f 6b 9d 80 bf 63 18 2d bf
       -2.2874768 1.1885318 -1.004804 -0.67615336
000090 f7 40 69 3f 65 c0 17 3f 77 85 f5 bf 31 63 64 bf
       0.91114753 0.59277946 -1.9181355 -0.89213854
0000a0 75 02 e3 bf ad ab 47 3f e3 61 14 40 b6 7c 82 bf
       -1.7735125 0.7799633 2.3184745 -1.0194309
0000b0 67 7a fd bf ae 14 8b 3f 40 36 08 40 c1 c7 98 3f
       -1.9802979 1.0865686 2.1283112 1.193596
0000c0 b8 19 00 40 19 0f ba bf 76 8e 04 c0 35 57 87 3f
       2.0015697 -1.4535857 -2.0711951 1.0573488
0000d0 e6 ee d8 3f 44 00 36 c0 e3 6d fa bf b3 a5 81 bf
       1.6947906 -2.8437662 -1.9564785 -1.0128692
0000e0 db 31 f7 bf 2d 60 43 3f 37 94 16 c0 54 18 ed bf
       -1.931209 0.7631863 -2.3527963 -1.8523049
0000f0 11 b5 ea bf e6 9f 32 40 10 2d 78 3f e5 85 93 40
       -1.8336507 2.7910094 0.9694376 4.6100945
000100 2f c8 0e 40 16 2a ab 3f 0b 59 ee bf 58 f5 92 3f
       2.2309682 1.3372219 -1.8620924 1.1481123
000110 e4 5e ba 3f dd 67 36 bf 9e c8 e4 bf 76 cc 5a 3f
       1.4560208 -0.7125223 -1.7873724 0.8546823
000120 36 fc c6 bf 59 cb 16 3f 12 4d 05 40 08 77 ae 3f
       -1.5545719 0.58904034 2.082829 1.3630075
000130 f2 32 d4 bf 9e 81 24 3f cf 9a ad 3f 00 77 35 bf
       -1.6578047 0.6426028 1.3562869 -0.70884705
000140 4f fc 14 c0 4a 70 77 bf 24 43 e7 bf c1 8c b5 be
       -2.3278997 -0.96655715 -1.8067365 -0.3545895
000150 2c ad 1e c0 d5 cf d2 bf c0 69 f6 3f 37 a2 2f bf
       -2.4793196 -1.6469675 1.9251022 -0.68606895
000160 a3 03 03 c0 0c 16 4e bf e7 18 c8 bf 76 e1 4e 3f
       -2.047097 -0.8050239 -1.56326 0.80812776
000170 45 17 07 40 84 71 55 bf 58 1e 92 bf 77 35 0e bf
       2.1107953 -0.83376336 -1.141551 -0.5555033
000180 b6 0a 1e 40 83 a6 c4 3f d6 df 08 c0 32 a8 73 3f
       2.4694037 1.5363315 -2.1386619 0.9517852
000190 f4 ed 2b c0 d9 99 cc bf ae 64 3f c0 55 29 32 be
       -2.6863985 -1.598445 -2.99052 -0.1739858
0001a0 35 1b 08 c0 c7 87 ad 3f 8c 5c 11 40 c5 9a c0 bf
       -2.1266606 1.3557061 2.2712736 -1.5047232
0001b0 76 89 0c 40 10 93 99 bf 2f c6 23 40 41 b4 bb bf
       2.19589 -1.1998005 2.5589712 -1.4664384
0001c0 21 da 12 c0 85 e7 d0 bf f5 5e e7 3f 12 04 43 bf
       -2.2945635 -1.6320654 1.8075854 -0.76178086
0001d0 7a cd ca 3f cc cd 4c bf 2b 22 d4 3f 4a 2c 1d bf
       1.5843956 -0.8000152 1.6572927 -0.61395705
0001e0 b3 31 0c 40 6a 4e 12 3f 00 f7 01 40 31 39 9a bf
       2.1905334 0.571509 2.0307007 -1.2048703
0001f0 5d 4f 1d 40 d6 6b 41 bf 7a 18 ff bf a0 d9 90 bf
       2.457969 -0.7555517 -1.9929345 -1.1316414
000200 ad 62 04 40 e3 69 a8 bf 55 8b f4 3f 81 50 b3 3f
       2.0685227 -1.3157314 1.9105021 1.4008943
000210 26 50 01 40 93 a3 0d c0 36 72 04 c0 34 e0 68 3f
       2.0205169 -2.2131088 -2.069471 0.90967107
000220 d1 85 e6 bf 5a 24 1d 3f 58 6b 87 3f 7d b0 49 3f
       -1.8009588 0.61383593 1.0579634 0.78784925
000230 6f ce ea bf 63 8c 40 bf eb 5d 8a bf 29 b9 d7 be
       -1.8344249 -0.75214213 -1.0809911 -0.42133453
000240 74 22 1a 40 ba 3b bf 3f b5 06 06 40 ea ea 92 3f
       2.4083529 1.4940102 2.0941594 1.147794
000250 31 70 1c 40 d8 b3 96 bf 3d f8 0d c0 46 b3 e1 bf
       2.4443476 -1.1773634 -2.2182763 -1.7632835
000260 12 43 1f bf e8 f4 40 bd d2 7e f6 bf 4b b1 38 bf
       -0.62211716 -0.04710856 -1.9257452 -0.7214553
000270 34 e0 9f 3f 4b ec aa be a6 42 08 40 3d d5 9c bf
       1.2490296 -0.33383402 2.129068 -1.2252575
000280 ff 1b 06 40 02 93 d5 bf 04 93 f1 bf 04 c1 94 3f
       2.0954587 -1.6685488 -1.8872991 1.1621404
000290 29 bc 13 40 24 b4 5c bf ea bc ff 3f af 25 36 c0
       2.3083594 -0.8621237 1.9979527 -2.84605
0002a0 9b 9c c4 3f 7a e2 38 bf 6a 9d df 3f eb 6c 1d 3f
       1.5360292 -0.72220576 1.7469914 0.6149432
0002b0 be 13 15 40 13 ff 90 bf a3 01 e1 bf d2 a1 47 3f
       2.32933 -1.1327842 -1.7578624 0.77981293
0002c0 28 e1 16 c0 a3 42 8a bf 25 4e d8 bf 3e f4 10 bf
       -2.3574924 -1.0801586 -1.6898848 -0.56622684
0002d0 03 81 ed bf 65 58 7e bf 58 d3 ea bf 02 bc a5 bf
       -1.8554996 -0.9935363 -1.8345747 -1.2948
0002e0 78 7a 1d 40 e1 38 d0 3f be f2 f1 bf 36 f5 24 bf
       2.4606 1.6267358 -1.8902204 -0.6443666
0002f0 b7 6e 0e 40 c1 44 71 40 ea 79 05 40 1a d0 b0 3f
       2.2255075 3.7698214 2.085566 1.3813508
000300 2a 4b 0b 40 c1 7c d5 bf 9a 57 b8 bf 7b 0e c7 bf
       2.1764627 -1.6678697 -1.4401734 -1.5551294
000310 7d d6 8e bf e8 a9 39 bf 91 ed 02 c0 2f 43 96 3f
       -1.1159207 -0.7252488 -2.04575 1.1739253
000320 ef 09 b8 40 d2 ac 8c 3f 77 5c c3 bf b4 d3 a6 3f
       5.7512126 1.099024 -1.5262593 1.3033357
000330 0e 4f 09 c0 50 b3 97 3f 3a a8 e6 bf 03 3c 1a 3e
       -2.14545 1.1851597 -1.8020089 0.15061955
000340 2f 35 e4 bf 3d 8b 4b 3f 50 d3 ce 3f 67 9c 0b bf
       -1.782873 0.79509336 1.6158237 -0.54535526
000350 5f 9a e1 bf 03 da 69 3f cf f4 1b 40 05 81 b3 3f
       -1.7625235 0.91348284 2.436817 1.4023749
000360 b6 fc 18 c0 b2 d0 d1 bf 19 1e ff bf af aa c8 3f
       -2.3904243 -1.6391814 -1.993106 1.5677088
000370 e8 cd 07 c1 a9 e7 e6 3e 9f 9e 03 40 66 7c 9f bf
       -8.48777 0.45098618 2.0565565 -1.2459838
000380 5b 04 71 3f fe c2 73 be ad 40 0d 40 34 9b 9a bf
       0.9414727 -0.23804852 2.2070725 -1.2078614
000390 62 90 1e 40 b6 5e a1 3f 8a 13 07 c0 df d8 a2 bf
       2.4775624 1.2607028 -2.1105676 -1.2722434
0003a0 57 2c e4 bf d2 28 8c bf 17 52 e3 bf bf c3 83 bf
       -1.7826031 -1.0949957 -1.7759427 -1.0294112
0003b0 16 34 f7 bf 93 2f 97 3f ab 6b f9 bf ce 58 87 3f
       -1.931277 1.1811393 -1.9485983 1.0573976
0003c0 cd 30 20 40 63 1f bc 3f 21 7b 86 3f 96 b5 d6 be
       2.5029786 1.4697078 1.0506326 -0.41935414
0003d0 de bd 28 40 cc 72 c7 3f 81 61 c5 bf 40 ac af bf
       2.6365886 1.5581908 -1.5420381 -1.3724442
0003e0 78 e6 3d 3f 47 39 30 3d eb f3 06 c0 5e f1 4b bf
       0.7417979 0.043023374 -2.1086376 -0.7966517
0003f0 fe c6 2e 40 5c b5 a2 3f 7b 82 c7 3f 39 2f 3b 3f
       2.7308955 1.2711596 1.5586694 0.7311893

hidden_layers.0.layer.bias f4 [128]
000000 1f 9b 01 c0 e3 fe 94 bf 9b 48 d1 3f b1 08 de bf
       -2.0250928 -1.1640285 1.6350282 -1.7346402
000010 e5 2a e8 bf ad e4 df bf db 88 05 c0 84 22 e6 bf
       -1.813809 -1.7491661 -2.086478 -1.7979283
000020 cb e4 e6 bf 18 2f a2 3f 5c 54 c2 3f 6e 2a dc 3f
       -1.8038572 1.2670622 1.5181994 1.7200449
000030 ad d0 9c bf 47 6a 1b 40 90 84 0e 3f 11 03 9b 3f
       -1.2251183 2.4283617 0.55671024 1.2110311
000040 64 44 a2 be b1 f3 8e 3f 48 05 82 3f 3a da 80 bf
       -0.31692803 1.1168119 1.0157862 -1.0066597
000050 7b 37 09 40 5f a7 d7 3f 14 12 15 3f ff 69 26 bf
       2.1440113 1.6847953 0.5823071 -0.6500549
000060 49 78 0e c0 80 bb 04 40 32 4b eb 3f 0c 50 d4 3f
       -2.2260916 2.073944 1.8382323 1.6586928
000070 b6 f2 c7 bf 80 8b d0 3f bc 4c 91 3f e3 86 41 40
       -1.5620944 1.6292572 1.1351542 3.0238578
000080 45 49 de bf a9 69 05 c0 c3 ba 91 bf 17 1b bd 3f
       -1.736611 -2.084574 -1.138512 1.4773892
000090 cd a6 6c bf 48 8b bc 3f 56 52 db bf f7 22 d6 bf
       -0.9244202 1.4730005 -1.7134502 -1.672942
0000a0 81 41 d8 bf d5 83 df 3f d8 26 cc bf 04 ec 99 3f
       -1.689499 1.7462107 -1.5949354 1.2025151
0000b0 fb 0b d4 bf 5d fb c6 bf c2 30 02 c0 24 e3 03 c0
       -1.6566156 -1.554546 -2.034226 -2.0607386
0000c0 d6 e3 a7 3f a6 61 af bf ab 48 dd 3e f6 19 dd bf
       1.3116405 -1.3701675 0.43219504 -1.7273548
0000d0 02 62 6e bf 93 49 97 bf f0 74 d2 bf c5 80 d4 bf
       -0.931183 -1.1819328 -1.6441936 -1.6601797
0000e0 a3 95 f1 bf 13 af b3 bf b2 d8 0f c0 3b 3b f2 bf
       -1.887379 -1.4037803 -2.247601 -1.8924326
0000f0 58 08 d5 bf 06 d4 09 c0 14 3f e0 3f 18 a6 d9 3f
       -1.6643171 -2.153566 1.751925 1.7003813
000100 65 e5 e1 3f 8c d4 cc 3f e1 ed f1 bf fc 6d dd bf
       1.7648131 1.6002364 -1.890072 -1.729919
000110 0d a9 11 40 98 e7 24 40 11 17 81 3f b7 94 04 c0
       2.275943 2.5766354 1.0085164 -2.0715768
000120 33 a8 e4 bf 7c 7a cf 3f 25 56 0e 40 ec 0f 04 c0
       -1.786383 1.6209254 2.2240078 -2.0634718
000130 78 8e 0b bf 94 02 fa 3f 05 b3 f0 3f d0 13 8b 3f
       -0.54514265 1.9532037 1.8804632 1.0865421
000140 e0 25 19 3f e4 df 16 40 7f 41 b9 3f 5b 68 8b be
       0.5982342 2.3574152 1.4473113 -0.27228054
000150 36 ea 97 be cb e7 05 40 26 0f 91 bf 80 be 17 40
       -0.29670876 2.0922725 -1.1332748 2.3710022
000160 bf de f5 bf f6 fd ca bf 54 3c 49 be e5 c4 da 3f
       -1.9208602 -1.5858753 -0.1965192 1.7091337
000170 9d dd be bf b5 b8 c0 bf f1 54 02 c0 c7 75 3a c0
       -1.4911381 -1.5056368 -2.0364344 -2.9134386
000180 16 be b1 3f 3d 17 ce bf 45 2a e7 bf c3 aa db bf
       1.3886135 -1.6100842 -1.8059775 -1.7161487
000190 e0 3b 00 c0 ad 0e 09 c0 ee 43 55 bf 1e 57 aa bf
       -2.0036545 -2.1415207 -0.8330678 -1.3307836
0001a0 eb 68 9b 3f b3 b4 f0 3f 2e 5d be bf bf e5 fc 3f
       1.2141393 1.8805145 -1.4872186 1.9757613
0001b0 3b 73 b5 bf c2 cd ec 3f 57 1d 1d c0 fb 1e 1e 40
       -1.417579 1.8500292 -2.4549158 2.470641
0001c0 4e ad fb bf 90 4a e9 3f 24 1f 82 bf f0 fe 1e 40
       -1.9662263 1.822588 -1.0165753 2.4843102
0001d0 04 d1 d3 3f 49 f9 a8 bf d0 b8 2e 40 3d f6 85 bf
       1.6548162 -1.3201076 2.73003 -1.0465771
0001e0 2e f1 bc 3f 7a 69 4c 3f 2f 9e e0 3f 6b 25 8f 3f
       1.4761102 0.79848444 1.7548274 1.1183294
0001f0 87 2f d2 3f b9 de dd bf 66 1b 17 3f 62 d3 2c 40
       1.6420754 -1.7333595 0.5902618 2.7004018

hidden_layers.0.layer.weight_g f4 [128, 1]
000000 24 b4 4a 3d c5 ca ee bd ce 6c 34 be 93 23 8d 3c
       0.0494882 -0.11659769 -0.1761963 0.017228877
000010 31 fc c7 bd 07 aa a5 3f 7b d4 a7 bf 71 82 a3 be
       -0.097648986 1.2942513 -1.3111719 -0.31935456
000020 a6 69 6d bd ee 56 47 3f 1f b1 3e be d7 44 89 3d
       -0.057962082 0.7786702 -0.18622254 0.06702583
000030 31 09 0d c0 ab 5e 48 be 37 7a 63 3e be 60 52 bf
       -2.203686 -0.19567363 0.2221459 -0.82178867
000040 1e 87 1c 3f 4b c4 9f 3f 91 b0 4c be 48 7c 85 bd
       0.6114367 1.2481779 -0.1998923 -0.065178454
000050 c6 c2 68 3c 39 fd f9 3e 79 28 46 bf fe c9 46 3e
       0.014206594 0.48826006 -0.77405506 0.19412991
000060 c4 50 8f be a1 2c b4 bf 5e d5 44 be 4f f5 2a 40
       -0.27991307 -1.407612 -0.19222018 2.6712224
000070 87 52 a7 3f a1 8b 62 3e ff 0d b6 be 01 6d 01 bf
       1.307206 0.22123577 -0.35557553 -0.5055695
000080 c9 86 4f be 37 56 31 40 3b 37 c6 bd aa 24 b0 be
       -0.2026626 2.7708871 -0.09678503 -0.34402972
000090 8b 3b eb bf 68 06 28 be 19 ea ad bc 5d ff 0a 40
       -1.8377546 -0.16408694 -0.02122979 2.1718361
0000a0 27 5c 4d 3d 39 7a 08 3d 4e d0 f2 3f 27 1c aa 3e
       0.05013671 0.033319686 1.896982 0.33224604
0000b0 67 8b bd 3e 49 89 41 bf 07 4e 30 be e1 96 c6 bd
       0.37020418 -0.75600106 -0.17217265 -0.096967466
0000c0 4a 9a 09 bc 37 e5 92 bf 9b a1 39 3f c3 e4 7a be
       -0.008398602 -1.1476201 0.72512215 -0.24501328
0000d0 cd c5 5e be 6f 8c 32 bc b2 8e 62 3e 10 f9 47 be
       -0.21755143 -0.01089774 0.22124746 -0.19528604
0000e0 0e 4d 35 3e e4 73 30 40 7d 90 24 3f bf bf a5 bf
       0.17705175 2.7570734 0.6428297 -1.2949141
0000f0 05 fe ef 3f ea be c0 be b3 90 ac be d0 4c 48 bf
       1.8749396 -0.37645656 -0.33704147 -0.78242207
000100 3e 34 a6 be b3 f2 9f bf 74 f5 6e 3e 13 77 c3 be
       -0.32461733 -1.2495941 0.2333582 -0.38176784
000110 2a f2 98 3e 76 58 6a bd 9a 7a 1c 3f c6 e3 f3 bf
       0.29872257 -0.05721327 0.61124575 -1.9053886
000120 0c 5f 80 3e d2 1f a9 3f 86 e3 ac bc 2b a8 57 be
       0.25072515 1.3212836 -0.021104585 -0.21060245
000130 4e 59 53 bf 5e 7c 2c bf 69 78 68 3f 43 64 25 bf
       -0.82558143 -0.6737727 0.9080873 -0.6460611
000140 2a 8f 66 3f da 64 d4 3f 69 fe 92 3f 0c e9 c5 bf
       0.900622 1.6593277 1.148389 -1.5461745
000150 82 a9 aa be 13 cc b7 bf 5e 3c 2c bf 97 3d 50 bd
       -0.3333245 -1.4359154 -0.67279613 -0.050839987
000160 6d e5 c7 3f 79 f5 3a bc fb 36 21 be 12 44 10 40
       1.561689 -0.011411064 -0.1574363 2.2541547
000170 d6 d2 27 bf 4c 02 94 3d d3 f6 f3 bd 71 dc 2b bf
       -0.65556085 0.072270006 -0.11912312 -0.6713324
000180 dd da 35 be ee 66 01 be 05 3c 15 40 74 c9 18 3e
       -0.17759271 -0.12636921 2.3317883 0.14920598
000190 b3 8b ea bf de 1b 13 be 4e 69 01 c0 ec 4f b4 3c
       -1.8323883 -0.14366099 -2.0220523 0.022010766
0001a0 9d 0e 7c 3e 65 9e 97 bf 21 55 93 bd 79 a5 f7 bf
       0.2461495 -1.1845213 -0.071939714 -1.9347373
0001b0 97 8c 01 3f 75 84 c0 bf 51 6d a0 bf be 8b 6e 3e
       0.5060515 -1.5040423 -1.2533361 0.23295495
0001c0 cc b8 47 bf 23 51 4e 3f a5 d1 00 bf 69 8e b9 bf
       -0.7801635 0.80592555 -0.5031989 -1.4496585
0001d0 d4 85 b6 3f 44 f1 51 be e3 55 ee bd 53 03 36 3f
       1.4259591 -0.20502192 -0.11637475 0.7109882
0001e0 b9 0a d8 3d 3e 43 13 c0 28 e8 03 bd ff af ba bf
       0.1054892 -2.3009791 -0.032203823 -1.458496
0001f0 3a 9e 0c bf b6 90 55 bf 5a 0a 8b bf f6 dc 7f bf
       -0.54928935 -0.83423936 -1.0862534 -0.99946535

hidden_layers.0.layer.weight_v f4 [128, 128]
000000 d7 d7 98 3e 43 94 62 3e 45 f4 27 3e 37 23 3b bf
       0.29852173 0.2212687 0.16401775 -0.7310061
000010 00 07 ad 3f 96 db e8 3e 4b 25 f8 3b 62 f6 8e 3e
       1.3517761 0.4548003 0.007572805 0.2792235
000020 01 b9 e0 3d c1 e2 48 bf 06 fd 7e be 37 05 e2 3f
       0.10972787 -0.78471 -0.24901208 1.7657841
000030 13 8d e6 bf 45 55 ed 3f 5c 4b fa 3b 47 7e b2 3f
       -1.8011802 1.8541647 0.007638378 1.3944787
000040 a9 07 b3 be 59 ab 3f be 3c 38 04 c0 74 db 2e 3f
       -0.34966782 -0.18717708 -2.0659323 0.6830361
000050 a8 16 c3 3e 29 df 3b bf 8c c7 35 bf 9e d0 8e bf
       0.38103223 -0.7338739 -0.7100761 -1.1157415
000060 9d c9 38 bf d4 14 0d bf c1 7d 7e bf f1 9f ba 3f
       -0.7218264 -0.55109906 -0.99410635 1.458006
000070 ab 36 87 be 85 de 09 be 85 c3 dd 3f 8c 72 17 bf
       -0.26408896 -0.1346379 1.7325293 -0.5915916
000080 2e dc 88 bf 88 a2 bc 3d 8c 7f 1e be 9c ba 47 3f
       -1.0692194 0.09210688 -0.15478343 0.7801912
000090 98 10 cb be 8b 6d c6 3d bf e2 67 3f b3 cf 50 3e
       -0.39661098 0.096888624 0.9058036 0.20391731
0000a0 93 00 d7 bc 1b 03 39 3f 20 03 84 3f c0 1f e9 3e
       -0.026245391 0.72270364 1.0313454 0.45532036
0000b0 1c 74 77 3f 0d 2f 8f 3f 8d 22 b6 3e c1 70 4b bf
       0.96661544 1.1186234 0.35573235 -0.79468924
0000c0 bf 43 dd bf 6a e7 16 be 0a e5 6d 3e 9b fa f0 3f
       -1.72863 -0.14736715 0.23231903 1.8826479
0000d0 ee ae ad bf 87 30 88 3f df be 19 bd 1c ec 71 be
       -1.3569009 1.0639809 -0.037535544 -0.23625225
0000e0 0e 09 d1 3f 4f 4d af be fa 3c da 3e 2c 31 8f be
       1.6330888 -0.3423867 0.42624646 -0.27967203
0000f0 9f 02 82 bf ab 27 96 bd fb 47 d6 3d a1 91 ad 3f
       -1.015705 -0.07331785 0.10462948 1.3560067
000100 de d0 40 be bd bb ca bf 85 89 de be e6 7a 86 bd
       -0.18829677 -1.5838543 -0.43464294 -0.0656641
000110 c2 e8 21 bf c0 83 c7 bf 0a fc 14 3f 6e 17 3d bf
       -0.63245785 -1.5587082 0.5819708 -0.73863876
000120 0d c8 51 3e 34 01 50 bf 3a f6 b1 3e b5 c4 64 3f
       0.2048647 -0.81251836 0.34758168 0.8936265
000130 a8 b2 d5 bf c1 ae 3e 3f 54 cc e9 bf c5 64 07 bd
       -1.6695147 0.74485403 -1.8265481 -0.033055086
000140 7c 5b ec 3e dd b9 d0 bc e8 cf dd 3e e3 78 1e be
       0.46163547 -0.025479252 0.43322682 -0.15475802
000150 9e 91 3c 3e 58 20 bb 3c 5b b7 3f 3e 07 59 63 3f
       0.18414924 0.022842571 0.18722288 0.8880772
000160 75 b9 b3 3e ca c4 fa 3e ef 46 b4 3f 04 73 7e bf
       0.3510243 0.48978263 1.4084147 -0.9939425
000170 a2 5f 8a be 3a 16 72 3e 0a 3d 2b 3f 1f 5c ce be
       -0.27026087 0.23641291 0.66890013 -0.40304658
000180 da 39 26 be 66 f0 3f bf 97 78 e0 bf 96 18 4a bf
       -0.16233006 -0.74976194 -1.7536801 -0.78943765
000190 60 69 e4 bf b9 31 dd 3f 6f ea a0 be 51 b2 fe 3f
       -1.7844658 1.7280799 -0.3142886 1.9898168
0001a0 0b 2a 15 3e ce f9 37 3f 30 b2 bb 3f 3c 5b bc be
       0.1456682 0.71865547 1.4663754 -0.36788356
0001b0 93 87 96 3f ef 70 84 bf 5b 73 85 3e c0 30 8e 3f
       1.1760124 -1.0346965 0.26064572 1.1108627
0001c0 6e c5 dc 3e 26 0a 05 be 72 af eb be b4 ea cc 3f
       0.43119377 -0.12992153 -0.46032292 1.6009126
0001d0 aa 06 cb 3e ed 95 54 3f 2f f9 67 be 9c 80 c4 bd
       0.39653522 0.8304127 -0.2265365 -0.09594843
0001e0 94 c1 54 bf f9 55 8f 3f 18 66 e6 bf 2b 21 e4 3f
       -0.83107877 1.1198112 -1.7999907 1.7822622
0001f0 0c 96 ee 3f 1a 86 b6 3e ba 9b da bf ec 43 66 bf
       1.8639541 0.35649186 -1.7078774 -0.8994739
000200 de d9 29 bf ab c7 2c 3f 09 b9 35 3f ed d3 3a bf
       -0.66348064 0.6749217 0.70985466 -0.72979623
000210 7e a5 d2 3f e6 dc 58 bf 59 05 06 3f 93 39 54 3f
       1.6456754 -0.84712064 0.5235191 0.8290035
000220 a4 9d 0b 3f 5f 5d 9d 3e a0 f9 fd 3e 37 19 b6 3f
       0.54537416 0.307353 0.4960451 1.4226445
000230 cb f4 13 bf 90 ba 8d 3f e5 e0 10 3f 7d e4 ca 3f
       -0.577954 1.1072559 0.5659316 1.5850979
000240 ba 89 32 bf c6 de 55 3f 80 8a 81 bf d6 0e 48 3f
       -0.69741404 0.8354305 -1.0120392 0.7814764
000250 61 0e e7 be af 0b 2c 3f 26 aa 3b bf db 9b 6d bf
       -0.45128158 0.6720533 -0.733065 -0.9281594
000260 72 10 13 be 4e d5 2d bf cb 89 c4 bf d1 91 7d 3f
       -0.14361742 -0.679036 -1.5354551 0.99050623
000270 37 f6 3a bf 15 bc 40 3f 3b 6a be 3f 2e 99 28 3f
       -0.73031944 0.7528699 1.4876169 0.65858734
000280 3d c3 70 bf 0b 65 3c bf 3f 0b 1f 3f 08 4b 6a be
       -0.9404791 -0.7359168 0.62126535 -0.22880185
000290 f7 fc 24 bf 89 98 31 bf 31 c5 c3 3f 4c fb 00 3f
       -0.64448494 -0.69373375 1.5294553 0.5038345
0002a0 a2 34 35 3f 06 70 46 3f 2f 47 53 3f c7 ed 2d 3f
       0.70783436 0.77514684 0.8253049 0.67940944
0002b0 23 d2 60 3f 91 3d 98 be 4a ae 1f 3f 0e 2c 11 3f
       0.87820643 -0.2973447 0.6237532 0.5670785
0002c0 32 61 9c bf 32 49 30 bf a4 7e 01 3f a7 ed 93 3f
       -1.2217162 -0.6886169 0.50583863 1.1556901
0002d0 b1 b8 6a bf 51 e7 47 3f c5 ad 2e 3f 9d f1 e5 3e
       -0.91688067 0.78087336 0.682339 0.449109
0002e0 a3 bb 79 3f 1a fb 18 3f 8b 0d 11 3f b6 8c be 3e
       0.97551936 0.5975815 0.5666129 0.3721673
0002f0 a8 46 a9 bf a6 c8 19 3f 92 85 21 3f bd 44 79 3f
       -1.3224688 0.6007179 0.6309444 0.9737051
000300 d7 c1 4d 3e f6 2e 78 bf aa cf 20 bf 06 3d 22 bf
       0.20093475 -0.96946657 -0.6281687 -0.63374364
000310 50 ea 33 bf 3d 42 ee be eb 50 55 3f e7 0d c9 bf
       -0.7027941 -0.4653491 0.83326596 -1.5707368
000320 d8 9d 07 bf 1e 10 44 bf f4 f9 33 3f 35 cb 5a 3f
       -0.52975225 -0.7658709 0.70303273 0.8546632
000330 4a e4 d6 bd 8b e3 36 3f 42 57 89 bf 86 e3 ea 3e
       -0.104927614 0.71440953 -1.0729754 0.45876712
000340 d1 83 3d 3f 23 ac 4d bf a2 33 5a 3f a9 df 24 3f
       0.7402926 -0.80340785 0.85235035 0.6440378
000350 8b 97 49 3f e1 c9 41 bf 4f 75 2e 3f 5b eb 45 bd
       0.7874686 -0.7569867 0.6814775 -0.048320156
000360 03 61 22 3f 4e 9d 3d 3f 26 78 6c 3f 20 1d ea bf
       0.6342928 0.7406815 0.9237083 -1.8290138
000370 d5 86 41 bf d4 f6 20 3f a9 2a 4c 3f b1 f8 3e bf
       -0.7559636 0.6287663 0.79752594 -0.7459822
000380 22 23 44 3f 70 e5 c0 bf 3a 1c a5 bf 93 28 4e bf
       0.7661611 -1.5070019 -1.2899239 -0.8053066
000390 ce b1 b2 bf 42 65 ce 3f 49 b5 32 bf 16 15 93 3f
       -1.3960512 1.6124651 -0.6980787 1.149081
0003a0 be 88 03 bf 6d dc 28 3f 47 12 10 3f 62 4e 48 bf
       -0.51380527 0.65961343 0.5627789 -0.782446
0003b0 ed fb 65 3f fc 75 08 bf f8 e4 25 3f a4 3e 54 3f
       0.89837533 -0.5330503 0.64802504 0.8290808
0003c0 c9 ed 0f 3f ed c6 d4 3e 07 6d 26 bf 18 a7 7c 3f
       0.56222206 0.41558018 -0.6501011 0.98692465
0003d0 01 7f 17 3f 98 0d 45 3f e8 93 dd be fd db 1a bf
       0.5917817 0.7697387 -0.43276906 -0.60491925
0003e0 16 4d 3b bf 9f bd 5d 3f 5f 3d a1 bf fa ed 6f 3f
       -0.731645 0.86617464 -1.2596854 0.937225
0003f0 00 ec bb be ca 83 41 3f 92 48 83 bf 45 90 3c bf
       -0.3670349 0.7559172 -1.0256522 -0.7365764

hidden_layers.1.layer.bias f4 [128]
000000 1c 89 95 bf 51 40 c7 bf 55 b7 8c bf 78 b1 d4 3e
       -1.1682467 -1.5566503 -1.0993448 0.41541648
000010 b3 0d 0d c0 cd 53 be 3f e1 91 a5 bf 12 f5 1e be
       -2.2039611 1.4869324 -1.2935144 -0.15523174
000020 9c c8 a3 bf 31 59 92 3f dc f4 51 bf fa 05 76 bf
       -1.2795596 1.1433469 -0.8201425 -0.9610287
000030 cd 30 85 3f 17 c2 e4 bf fd 7b 49 3f 4a 35 40 bf
       1.0405518 -1.7871732 0.78704816 -0.7508131
000040 2f e2 8b bf 8c 78 c5 3f e5 ad 06 40 43 6d 86 3f
       -1.0928401 1.5427413 2.1043637 1.0502094
000050 dc ac e0 3f 8e 75 88 be 58 31 47 bf d8 1b 93 bf
       1.7552752 -0.26652187 -0.7780967 -1.1492872
000060 2b 6a 88 3f b3 25 13 c0 11 db 7d bf b1 ec e3 be
       1.06574 -2.299176 -0.99162394 -0.4451652
000070 f3 d5 bd bf 05 85 99 bf 6f 4f 04 c0 eb 7e 93 3f
       -1.4830917 -1.1993719 -2.0673482 1.1523107
000080 24 2d 33 bf 0c 23 30 3f eb 6f 88 3f c2 33 9b bf
       -0.69990754 0.6880348 1.0659155 -1.212517
000090 ec 39 73 bf ec 00 cb 3f 94 2b bf 3f 2c 52 be 3e
       -0.95010257 1.5859656 1.4935174 0.37172067
0000a0 05 31 cb be 8e 47 d6 3f 24 ba 0c 3f 8d fb 13 40
       -0.39685836 1.6740587 0.5497153 2.3122284
0000b0 2e 21 8c bf 25 d4 f3 3f 4a 3e 97 3f d8 8b 89 3f
       -1.0947626 1.9049116 1.1815884 1.0745802
0000c0 c8 5e 9e bf 60 bc 00 c0 64 e8 1a 3f c3 ee 9d 3f
       -1.2372675 -2.0114975 0.6051085 1.2338489
0000d0 19 dd c0 bf a5 ab f5 3f 97 2c 92 bf 37 0b 3e bf
       -1.5067474 1.9193007 -1.1419858 -0.7423586
0000e0 32 82 02 bf 37 ab 7c bf 97 04 df bf 99 d4 c1 bf
       -0.5097991 -0.98698753 -1.7423276 -1.5143005
0000f0 73 30 95 bf c4 f0 1a c0 b6 75 e6 bf 0d e4 82 bf
       -1.165541 -2.4209452 -1.8004673 -1.0225846
000100 4f e0 1e 3f 29 ed 0b 40 af 62 c7 3f b6 67 e8 bf
       0.6206102 2.18635 1.5576991 -1.815665
000110 ab 65 6d bf b6 9e f2 bf dc 50 01 3f 2b b0 9d bf
       -0.9273326 -1.8954685 0.50514007 -1.2319387
000120 54 20 2e bf e2 21 da 3f 30 7d 0d c0 20 53 92 3f
       -0.6801808 1.704159 -2.2107658 1.1431618
000130 23 57 a0 3f c7 04 06 c0 2e a0 c5 3f 3c 5f 8e bf
       1.2526592 -2.0940416 1.5439508 -1.1122813
000140 a6 85 eb bd 56 d2 05 40 81 eb c2 bf 43 1b ef 3f
       -0.11500101 2.090963 -1.522812 1.8680195
000150 1e 50 c0 bf f9 66 d1 3f 31 19 ff bf 7b 23 0a 40
       -1.502445 1.635955 -1.9929563 2.1584156
000160 90 9e 8b 3f 14 10 ca 3f 78 9d b1 bf 99 c0 5c bf
       1.0907764 1.5786157 -1.3876181 -0.8623138
000170 d7 38 b4 bf ad 7e 90 3f b2 71 fe 3f 37 c3 af 3f
       -1.4079846 1.1288658 1.9878447 1.373145
000180 db 0a c3 3f f4 e0 88 bf 1e e8 8a bf 35 6a 9c 3f
       1.5237688 -1.069365 -1.0852087 1.2219912
000190 bb f0 c8 3f 96 ec a1 3f de 2a ad bf bb c0 b4 bf
       1.5698465 1.2650325 -1.3528707 -1.4121317
0001a0 7e ed e1 bf 91 50 ab 3f 58 44 c6 3f fb b7 c3 3f
       -1.7650602 1.3383962 1.5489607 1.5290521
0001b0 48 38 f8 3f aa f8 ca bf e9 ca b7 bf 57 f5 b4 bf
       1.9392176 -1.5857136 -1.4358798 -1.4137372
0001c0 a4 e6 d4 3f 13 aa b1 3f 11 a5 f3 bf 48 91 84 bf
       1.6632886 1.3880028 -1.9034749 -1.0356836
0001d0 31 92 ff 3e 39 89 91 bf 6b 22 f7 bf 8c 9a d2 bf
       0.49916223 -1.1370002 -1.9307379 -1.6453414
0001e0 20 08 7b 3f a5 2f 8e 3e e6 20 8e 3f 20 7c a0 bf
       0.9805927 0.27770725 1.110379 -1.253788
0001f0 c0 72 a3 3f b2 91 37 bf bc 05 95 bf 88 4b bb 3f
       1.2769394 -0.7170669 -1.1642375 1.4632425

hidden_layers.1.layer.weight_g f4 [128, 1]
000000 dc 8c f5 bd 4f d7 bb be f8 35 65 bf 8b f9 cd be
       -0.119897574 -0.36687705 -0.89535475 -0.4022945
000010 9d 24 2d bf 45 eb 5d 3f ad f2 52 3f e8 53 8b bf
       -0.6763399 0.8668712 0.82401544 -1.0884981
000020 43 92 be bd f9 79 b8 be 99 be 02 3e b9 3a 10 3f
       -0.09305241 -0.36030558 0.1276802 0.56339604
000030 aa 5e bb be b6 55 79 be 3f 4e 88 bf 36 56 a2 bf
       -0.3659566 -0.24349102 -1.0648879 -1.268256
000040 17 86 0a c0 06 90 14 bf cc ff 36 3f 4b 6b dc bd
       -2.1644342 -0.5803226 0.71484065 -0.10762652
000050 06 ba 26 bf 60 95 f7 3e a4 4f a2 be 0c 73 24 3f
       -0.651276 0.48356152 -0.31701386 0.6423805
000060 6b 13 62 bf 8d 7e ab be dd 0f 82 be c7 71 cf be
       -0.8831088 -0.33494988 -0.25402728 -0.40516493
000070 12 fd 09 bf 87 5a bc bd 81 88 84 3e a2 30 b8 3e
       -0.5390178 -0.09196954 0.25885394 0.35974604
000080 14 62 bc be b5 5b ac be 8b e0 68 3f c8 c8 83 bf
       -0.36793578 -0.33663717 0.90967625 -1.0295649
000090 7b 6a c2 be 0d a6 ec bd 0c 34 1d be 13 0a f2 3d
       -0.37971863 -0.11555109 -0.15351886 0.11818328
0000a0 bb 90 af be ad ae 23 be a6 6a 08 3e 46 6a 2c be
       -0.34290108 -0.15984602 0.13321933 -0.16837415
0000b0 e8 bb 2b 3e 6e 68 b3 be c4 7d 74 be 86 10 b9 be
       0.167709 -0.3504061 -0.23876101 -0.3614542
0000c0 83 6d 97 3e 23 3d 41 bf 6e a3 04 bf e9 48 c6 be
       0.29575738 -0.7548391 -0.51811874 -0.387275
0000d0 ef e4 14 bf 96 9a 1e bf 37 f4 aa be db 1d 72 bf
       -0.58161825 -0.6195463 -0.33389446 -0.94576806
0000e0 bd 1f 8e be f7 fe 23 bf 4a cb cd 3e c0 93 3a bf
       -0.2775859 -0.6406092 0.4019416 -0.728817
0000f0 c6 2d 91 3f cc 91 f3 3e b8 6e e9 bd 26 f0 9c be
       1.1342094 0.47572172 -0.11398071 -0.3065197
000100 b2 bf a0 be e6 ed 8a 3e 38 9d 9e 3f f2 b6 67 bf
       -0.31396252 0.27134627 1.2391729 -0.9051353
000110 88 9d 2c be 4a a7 be bf 8e 06 a1 be 09 7e 9c be
       -0.16856968 -1.4894803 -0.31450313 -0.30564907
000120 2a 86 ee 3d 4d 3d 97 bf 3e 0f 8f 3f b0 90 c6 be
       0.116466835 -1.1815583 1.1176527 -0.38782263
000130 c3 48 b2 bc b9 5b 0f bf 2c 47 37 bf 33 8e 58 3d
       -0.021763211 -0.5599933 -0.71592975 0.052869987
000140 62 36 c5 bf 76 6b 51 bf 8f 69 df bf a7 55 4d bf
       -1.5407221 -0.818046 -1.7454089 -0.8020882
000150 93 5a a0 3e aa 18 85 be 3c 65 43 be ca 50 ea be
       0.31319103 -0.2599538 -0.19081587 -0.45764762
000160 61 f2 e0 3d 22 22 43 be a7 90 9d bf 57 c4 79 3f
       0.1098373 -0.1905599 -1.2309769 0.97565216
000170 91 49 7c be 67 32 8b 3e b7 e6 e6 be c8 59 c1 be
       -0.24637438 0.2718689 -0.45097896 -0.3776381
000180 92 ff 29 be 34 a9 17 be cf 24 54 be 00 36 a9 bd
       -0.16601399 -0.1481064 -0.20717166 -0.08262253
000190 b4 bb 72 bd 18 a1 61 bd 85 5e ff 3f 97 c8 15 3d
       -0.05926104 -0.05508527 1.995072 0.03656825
0001a0 2a c3 17 be 12 1e fd 3d 25 b9 bf be ee f0 f6 bc
       -0.14820543 0.12359251 -0.37445942 -0.030144181
0001b0 79 d3 2d bf 8d c0 ad be e0 a3 7e 3e 31 01 cd 3d
       -0.67900807 -0.33935967 0.24867201 0.10009993
0001c0 21 05 25 bf 7a d1 bb 3d 16 bc 7a be 0a 91 2d 3f
       -0.6446095 0.09170814 -0.24485812 0.6779944
0001d0 b6 21 79 be ab fc f6 3d 83 c9 80 be b5 d8 8b 3d
       -0.24329266 0.12059911 -0.2515374 0.06828443
0001e0 0c 02 85 be 59 dd d7 bf f3 b3 a7 be d0 91 81 bf
       -0.25978124 -1.6864425 -0.32754478 -1.0122623
0001f0 a2 8f 5f be 40 88 ec bf 29 bc ba be ea f2 27 bf
       -0.21832135 -1.847908 -0.3647168 -0.6560503

hidden_layers.1.layer.weight_v f4 [128, 128]
000000 76 fd 19 bf 60 f0 18 bf 67 6c 30 3f fa 17 0c bf
       -0.60152376 -0.59741783 0.6891541 -0.54724085
000010 66 dd e0 be fe e5 86 3e ff 8a 3a bf f7 f4 20 bf
       -0.43918914 0.26347345 -0.7286834 -0.62873787
000020 b9 58 31 3f 43 98 6c bf b6 fb 3f 3f ad 18 40 3f
       0.69276005 -0.9241983 0.74993455 0.7503765
000030 8b 1c 01 3f 2f 5e 52 3f 37 2e 2c 3f d3 8e 4b 3f
       0.5043418 0.8217496 0.6725802 0.7951481
000040 a4 21 44 bf ee e2 72 bf ca 25 24 bf 95 b5 1b 3f
       -0.7661383 -0.9487752 -0.6412016 0.6082395
000050 47 4f 01 3f 89 c3 1e 3f 88 34 a0 be 40 f3 5a 3f
       0.5051159 0.6201711 -0.31290078 0.8552742
000060 a2 90 81 3f c4 a0 43 3f 81 d2 24 3f 5c 9d 87 bf
       1.0122263 0.76417184 0.64383703 -1.0594897
000070 59 e4 df 3e 4c 72 c2 3e 83 d5 47 bf 0f cc 39 3f
       0.43728903 0.37977827 -0.7806017 0.72576994
000080 36 83 5a bf da e1 85 3f 65 8c 08 bf 7d 72 27 bf
       -0.8535646 1.045955 -0.53339225 -0.6540907
000090 53 70 27 bf 13 47 2e 3f bf 59 24 bf 61 f9 3e be
       -0.6540577 0.680772 -0.6419944 -0.18649818
0000a0 d6 68 2a bf d2 e3 3f 3f f8 13 41 be d4 a4 0a bf
       -0.66566217 0.74957 -0.18855274 -0.5415776
0000b0 b3 ef 14 bf 30 3f 3c bf 04 18 0c bf 9a 0c 0a bf
       -0.5817825 -0.73533916 -0.54724145 -0.5392548
0000c0 0c 9f 25 bf 7f 93 3a bf 85 65 f8 3e 0c 01 28 bf
       -0.6469581 -0.7288131 0.48514953 -0.656266
0000d0 36 16 95 3e e7 87 64 3f 50 f6 b9 be a8 99 18 bf
       0.29118508 0.8926987 -0.36320734 -0.5960946
0000e0 97 bd 4a bf 9a f5 89 3f 0b 60 2d bf 55 dd 24 bf
       -0.7919554 1.0778077 -0.67724675 -0.64400226
0000f0 6c be 44 3f 3b be 2e bf 08 2e 26 3f 8f ce 2b 3f
       0.7685306 -0.6825902 0.6491399 0.6711206
000100 f2 c9 f7 be 1d c0 34 3f 5c 0d 52 bf af 05 3f bf
       -0.4839626 0.7060564 -0.82051635 -0.7461805
000110 bd 63 77 bf db 87 3a bf 88 35 42 bf 1b e4 0d bf
       -0.96636564 -0.7286355 -0.7586293 -0.55426186
000120 50 2c d0 be 06 52 eb 3e ce 0c 3a 3f d5 e8 14 bf
       -0.40658808 0.45961016 0.7267579 -0.58167773
000130 fa f4 38 3e 16 20 3c 3f 49 11 22 3f c3 62 bb be
       0.18062201 0.7348646 0.63307625 -0.36598787
000140 ab 24 6a bf ff f4 5e bf 6a b9 4f bf 07 af 35 3f
       -0.914622 -0.87092584 -0.81142294 0.70970196
000150 f6 7d 28 bf db 59 5f bf 56 2b 0d 3f 2c b6 73 bf
       -0.658172 -0.87246484 0.5514425 -0.9519985
000160 62 63 14 bf 9a e9 1b bf 02 94 95 be f1 83 6f bf
       -0.57964146 -0.6090332 -0.29214483 -0.935607
000170 21 85 06 bf d5 a8 41 bf e9 3d 26 bf ec b9 57 bf
       -0.5254689 -0.7564824 -0.6493822 -0.8426807
000180 59 3f 4c bf 3c 08 50 bf 16 e4 5e 3f 4b 15 13 bf
       -0.7978416 -0.81262565 0.8706678 -0.57454365
000190 07 03 61 3f 68 38 4d bf 00 be 32 be 99 9d c3 be
       0.87895244 -0.80164194 -0.17455292 -0.38206175
0001a0 fe e1 2a bf 25 85 4a 3f a4 90 37 3f 14 64 10 3f
       -0.66751087 0.7910941 0.7170508 0.5640271
0001b0 bf 65 25 bf 1e 77 ab 3d 3b b1 5e 3f 05 13 2c 3f
       -0.6460838 0.08372329 0.8698918 0.6721652
0001c0 1f 5f 0d bf c4 b2 65 bf 97 34 5f 3f 9b 16 1d 3f
       -0.5522327 -0.897259 0.8718962 0.6136262
0001d0 fa 2c 92 bf cd 88 19 bf 34 ab 29 3f 81 06 2b 3f
       -1.1419976 -0.59974366 0.6627686 0.668068
0001e0 d3 90 b5 be 0b bd 33 bf 44 ba 36 3f b8 b5 53 3f
       -0.35462055 -0.7021033 0.7137797 0.82699156
0001f0 4e 5a 45 3f c1 83 4e bf e0 46 5c bf ad 36 49 3f
       0.7709092 -0.8066979 -0.86045647 0.78599054
000200 f9 d6 8c 3f c2 13 62 3f d4 f2 75 bf 14 b8 95 3f
       1.1003104 0.883114 -0.9607365 1.1696801
000210 3f 1a 86 3f 58 77 85 3f eb aa 56 3f 19 e4 82 3f
       1.047676 1.0427046 0.8385455 1.022586
000220 ab 10 b3 3f 47 f9 e6 be 57 ef 30 bf 9e e7 83 bf
       1.3989462 -0.4511206 -0.69115204 -1.0305059
000230 ac 70 25 3f 8b a1 91 bf cd f2 c6 3c cf d6 55 bf
       0.6462505 -1.1377424 0.024285698 -0.83530897
000240 b2 48 dd 3e 36 e4 bd bf ac b1 2d be 31 d7 0a 3b
       0.43219525 -1.483527 -0.16962308 0.0021185393
000250 2b 51 8e bf a4 6d 93 bf 64 fe c2 be d5 73 ad 3e
       -1.111852 -1.1517835 -0.3808471 0.33877435
000260 ab e3 6e bf ad 28 90 bf 2a ce 8f bf c8 5e 93 bf
       -0.93316144 -1.1262413 -1.1234791 -1.15133
000270 a1 bd 43 3f da 30 1c bf b7 2c 68 3e 23 29 67 bf
       0.76461226 -0.6101204 0.22673307 -0.90297145
000280 4b 3f 88 3f 91 96 b8 3f 9a c3 8a 3f 2a 98 b5 bf
       1.0644315 1.4420949 1.0840943 -1.4187062
000290 26 0a 87 3f b5 e9 6c bf a9 d7 9e 3f 2d d3 b6 3f
       1.0549972 -0.9254411 1.2409564 1.4283196
0002a0 19 3b 8f 3f 84 8b 7b bf dd 27 b1 3f 6d 77 a2 bf
       1.118991 -0.9825976 1.384029 -1.2692696
0002b0 11 fa 8a 3f a9 2a 9e 3f df c8 6e 3f 5f e1 82 3f
       1.0857564 1.2356769 0.93275255 1.0225028
0002c0 b1 c1 30 bf bf 69 6e 3f 65 83 6e be 55 9e 72 3f
       -0.6904555 0.93130106 -0.2329231 0.94772846
0002d0 5d 3e 87 be 68 5e 95 3e fe 0b ae 3f 02 f1 82 3f
       -0.26414767 0.2917359 1.359741 1.02298
0002e0 02 49 80 3f 76 e7 9f 3f e7 fa a2 3f d7 9e 84 3f
       1.002228 1.2492511 1.2732819 1.0360974
0002f0 6e d6 a0 3f 2b 18 ad 3f 75 0a 8c bf 42 9b 97 bf
       1.2565439 1.3523 -1.0940691 -1.1844256
000300 8b e3 a1 3f 61 89 7c bf 76 50 6e 3f 45 32 88 3f
       1.2647566 -0.98647124 0.93091524 1.0640341
000310 c6 62 6c bf 65 11 54 3f d6 41 88 3e cc 58 b0 3f
       -0.92338216 0.8283904 0.2661273 1.3777099
000320 9c f8 ae 3f ac 05 9d bf 8e 21 90 bf c5 8c 67 3f
       1.366962 -1.2267356 -1.126024 0.9044917
000330 a2 a8 db 3e ce 93 98 bf 84 8f 92 bf 4c 52 0d be
       0.42902094 -1.1920106 -1.1450047 -0.13800925
000340 db 21 be bb 55 b2 0c be 0f b9 99 bf 24 61 8e bf
       -0.0058023757 -0.13739903 -1.20096 -1.1123395
000350 2c 9a e0 3e 1e 71 83 3f 99 a8 a2 bc 48 9a 2b 3f
       0.43867624 1.0268896 -0.019855784 0.6703229
000360 d3 fa 8e 3f fe 2c 94 3f 32 b7 8c bd dd f5 b9 bf
       1.1170295 1.157623 -0.06870879 -1.4528157
000370 9d 44 3f bf 96 ea 8e 3f 96 ef 83 3f 50 96 72 3f
       -0.7471407 1.116534 1.0307491 0.9476061
000380 e9 33 52 3e 7b f0 92 3f f7 c2 cb 3f a3 02 a7 3f
       0.20527615 1.1479639 1.5918874 1.304768
000390 dc 1b 54 bf 4a 75 7f 3f fd aa 16 3f 81 3e a9 3f
       -0.8285501 0.99788344 0.5885466 1.32222
0003a0 7d 25 90 3e 6b e1 95 bf c7 e5 56 be 65 4d 86 bf
       0.281536 -1.1709417 -0.2098609 -1.0492369
0003b0 6a fe d4 3e d5 d6 a6 bf 40 b3 4e bf 77 2c 85 bf
       0.41600353 -1.3034312 -0.80742264 -1.0404195
0003c0 7a 42 91 3f 28 ff f9 be aa c9 5c 3f 0d d1 9a bf
       1.1348412 -0.4882748 0.86245215 -1.2095047
0003d0 47 63 67 bf 59 b1 86 3f 63 01 81 bf 08 25 67 bd
       -0.9038586 1.0522872 -1.0078548 -0.0564318
0003e0 a6 b7 42 bf c2 2f aa 3f 28 20 94 bf df be aa bf
       -0.76061475 1.3295825 -1.1572313 -1.3339499
0003f0 d9 7a 9b bf b9 54 92 3f 60 4d 87 3f ad 3d 63 bf
       -1.2146865 1.1432105 1.0570488 -0.88765985

hidden_layers.2.layer.bias f4 [128]
000000 8a 34 81 3f df 56 8b 3d 7f aa 53 be 20 0e ee bf
       1.0094159 0.06803679 -0.20670508 -1.8598061
000010 72 ac 7d bf 39 b3 d9 bf 02 66 8a bf 98 91 bc 3f
       -0.99091256 -1.700782 -1.081238 1.4731932
000020 46 57 cb bf 44 ab f3 bf 82 a7 07 c0 51 03 9a bf
       -1.5886009 -1.9036641 -2.1195989 -1.2032262
000030 5b 2f f7 bf ae 03 ac bf 7b ae d8 bf 1e d6 b1 bf
       -1.9311327 -1.3438623 -1.6928247 -1.3893468
000040 b0 90 51 bd f9 de f6 bf 3c 32 8b 3f 7a f8 1d 3f
       -0.051163375 -1.9286796 1.0874705 0.6170727
000050 8e a8 c6 3f 81 bc 6a 3f ac 01 2f 3f 48 d6 bf be
       1.5520189 0.91693884 0.68361926 -0.3746817
000060 0a 12 d3 bf b8 8a b0 bf 86 dc 72 3f 63 05 a0 3f
       -1.648988 -1.3792334 0.9486774 1.2501644
000070 a7 d8 23 3f 30 93 f4 3f 67 48 ce 3f 67 93 76 bf
       0.6400246 1.9107418 1.6115845 -0.9631867
000080 32 1b 48 bf 25 c8 fe bf 8c d4 b4 bf ce 06 7c bf
       -0.78166497 -1.9904829 -1.4127364 -0.98447883
000090 e0 d9 e6 bf 9d 3f d5 bf f8 bb a6 3f 3e 66 7f 3e
       -1.803524 -1.6660038 1.3026114 0.24941346
0000a0 d8 ba ec 40 a6 dc 11 c0 46 6d a4 bf 7d ef 00 40
       7.397808 -2.2790923 -1.2845848 2.0146172
0000b0 94 c7 fa 3f c9 7f a1 3f 5e 8c d3 bf 3b 75 e8 bf
       1.9592156 1.2617122 -1.6527212 -1.8160776
0000c0 2d 8c 9f bf 9a 6b 26 40 a6 89 e3 bf ca df 0a bf
       -1.2464653 2.6003175 -1.7776382 -0.54247725
0000d0 32 4d 09 c0 3c 7b 98 bf 5d 68 15 40 84 b3 ce bf
       -2.1453366 -1.1912608 2.3344948 -1.6148534
0000e0 96 d5 af 3f ca cf ba bf 6d 7e 14 bf ed 95 0a c0
       1.3737056 -1.4594662 -0.5800541 -2.1654007
0000f0 b5 5a bb bf 04 d0 a9 bf bf a3 00 40 d1 24 bd bf
       -1.4637057 -1.3266606 2.0099943 -1.477686
000100 f5 88 d9 3f 9c d9 de 3f d1 cd b7 3f 9b cf 54 3f
       1.6994921 1.7410159 1.4359685 0.8312928
000110 eb f0 e9 3f cf 16 a8 3f 4d 83 b2 bf 14 69 03 c0
       1.8276647 1.3131961 -1.394632 -2.0532885
000120 03 b4 c1 3e d6 ab a7 3f 94 a4 21 40 b4 e2 fc bf
       0.3783265 1.3099315 2.52567 -1.9756684
000130 b4 2e 2c 3f 90 a4 9d bf 42 b4 c1 3f b9 a3 e4 3f
       0.67258763 -1.2315845 1.5133135 1.7862464
000140 b8 aa ec bf 39 54 84 3f a8 05 e5 3f 52 a1 d7 bf
       -1.8489599 1.0338203 1.7892351 -1.6846106
000150 7b be b1 c0 02 a0 c3 3f d2 d6 82 bf 1c 77 0b c0
       -5.554502 1.5283206 -1.0221808 -2.1791449
000160 86 5a 2f bf e5 47 26 c0 92 a4 8c 3f 76 81 ca bf
       -0.684975 -2.598138 1.0987723 -1.5820758
000170 a2 1d 14 40 1b ff bb 40 23 3d e5 bf 5d 80 44 bf
       2.3143086 5.874891 -1.7909282 -0.76758367
000180 34 06 b9 bf 75 2e b0 3f a7 8f 19 3f 4a d3 9a 3c
       -1.4455018 1.3764178 0.5998482 0.018899579
000190 ad 09 c0 bf 52 ec f8 be 0d 36 c2 bf 58 18 ba 3f
       -1.5002953 -0.48617798 -1.5172745 1.4538679
0001a0 0b 6c d4 bf 6e a7 05 c0 22 19 04 40 99 9c d2 bf
       -1.6595472 -2.088344 2.064034 -1.645404
0001b0 21 8e 16 c0 4c 04 8c 3f bd dd 2a c0 c3 18 ea 3f
       -2.3524249 1.0938811 -2.6697838 1.8288807
0001c0 de e0 4d bf bd 9c 79 be eb 80 d8 3f a2 66 57 c0
       -0.80421245 -0.24376197 1.6914343 -3.3656392
0001d0 22 a5 f4 bf 05 4e c6 bf 63 7d b8 3f d1 1b d6 bf
       -1.9112895 -1.549256 1.4413265 -1.6727239
0001e0 26 33 eb 3f 2a f6 d4 bf 88 de 19 40 c6 61 dc 3f
       1.8374984 -1.6637623 2.4042072 1.7217338
0001f0 e2 0b 44 c0 58 c6 00 c0 aa 45 22 3f 95 67 f1 bf
       -3.0632253 -2.012106 0.6338755 -1.8859736

hidden_layers.2.layer.weight_g f4 [128, 1]
000000 a3 78 46 bf 77 d0 a9 bf d6 fe 56 3e b3 b8 69 bf
       -0.7752783 -1.3266743 0.2099565 -0.91297454
000010 a8 e8 85 bf db 44 00 3d d7 e0 b3 bf ec 92 41 bf
       -1.0461626 0.031315666 -1.4052991 -0.7561481
000020 b1 01 06 bf 45 71 34 bf 85 37 35 bf 3a 03 54 bf
       -0.5234633 -0.70485336 -0.7078784 -0.82817423
000030 bb aa 2d bf 04 fe 63 bf c7 03 2c bf 57 b8 d3 be
       -0.6783864 -0.8905947 -0.67193264 -0.41351578
000040 33 34 87 bf de d4 0f 40 ff b4 1d bf dd 7a 77 bf
       -1.0562805 2.2473674 -0.61604303 -0.9667185
000050 33 71 b0 3d 26 c4 a0 bf ee 2b 93 bf fa 41 85 bf
       0.08615341 -1.255986 -1.1497781 -1.041076
000060 c7 eb 96 bf 8a 58 99 bf 92 bc 51 bf 96 c3 58 bf
       -1.1790704 -1.1980145 -0.8192836 -0.8467344
000070 b0 3b 96 bf a9 a2 d1 3c ad dd 8d bf 81 8a 94 bf
       -1.1736965 0.025590258 -1.1083275 -1.1604768
000080 a4 ca 26 be 95 e5 56 bf 88 d7 d6 bf 30 9a 9e bf
       -0.16288239 -0.83944064 -1.6784525 -1.2390804
000090 88 58 c4 bd 2e a6 e6 be f4 1f 6a bf 5c a7 9b bf
       -0.095871985 -0.4504866 -0.91455007 -1.2160449
0000a0 5a e5 7e bf 73 ac 56 bf 92 d4 97 bf 37 d8 c0 bf
       -0.9956871 -0.83856887 -1.1861746 -1.5065984
0000b0 69 41 1a 3e 0f 54 66 bf 28 0d d9 be 33 2f 3a 3f
       0.15064014 -0.89972013 -0.4239285 0.7272827
0000c0 ea 28 11 bf 5a 7b 89 3f 43 24 86 bd b6 92 0a 3e
       -0.56703055 1.0740769 -0.06549885 0.13532528
0000d0 29 ec c5 3e f7 dd 78 bf ab 96 85 bf 38 2d eb 3d
       0.38656738 -0.9721369 -1.0436605 0.11483234
0000e0 cf a9 a2 bf e6 e4 38 bf d1 a2 05 40 76 1e 47 bf
       -1.2708071 -0.7222427 2.0880625 -0.77780855
0000f0 b5 6c cd be fa 45 9b bf 15 71 80 bf 3a 06 b3 3d
       -0.40122 -1.213073 -1.003451 0.08741422
000100 3b d0 7c bf b2 ec 2b bf 40 e5 5f bf 16 39 95 bf
       -0.98755234 -0.67158043 -0.8745918 -1.1658046
000110 04 9b 68 bf 17 81 cc be 88 46 fc be 4a cb 92 bf
       -0.90861535 -0.39942238 -0.4927256 -1.1468289
000120 68 ae 96 bf 85 36 95 bf 55 68 89 bf c7 59 88 bf
       -1.1771975 -1.1657263 -1.0734965 -1.0652398
000130 46 a8 6f 3e 6a 14 8d bf 54 09 a0 bf 7a a8 74 bf
       0.23404035 -1.1021855 -1.2502847 -0.95569575
000140 6c 43 7b bf d6 08 94 bf 4a 1f 2b bf e9 f3 36 bf
       -0.9814975 -1.1565197 -0.6684462 -0.7146593
000150 6f d4 ea be c3 88 66 bf a6 71 99 bf 3f bb 0b bf
       -0.458652 -0.9005243 -1.1987808 -0.5458259
000160 8b 33 a9 3e 24 5c 81 bf 77 0a 23 bf 1e 17 09 bf
       0.33047137 -1.0106244 -0.63687843 -0.535509
000170 d3 c7 2f bf c2 19 cd 3f 29 0a 67 bf cf af 7c bf
       -0.6866428 1.6023486 -0.9024988 -0.9870576
000180 1f 44 0a bf f8 6f 8e bf cf 57 ed 3f 4a 85 93 bf
       -0.54010195 -1.112792 1.8542422 -1.1525052
000190 6f ae b0 3d f8 0f 38 bf ac 1a a9 bf 23 e2 a7 3d
       0.086270206 -0.71899366 -1.3211265 0.08197429
0001a0 89 37 fd 3d aa a4 4d 3d fe 36 a3 bf 31 1f 43 bf
       0.12364108 0.050205864 -1.2751157 -0.7621947
0001b0 72 d4 28 bd 04 fd 91 bf e8 e2 2e 3f a1 f3 04 40
       -0.04121823 -1.1405339 0.6831498 2.07737
0001c0 ad 9f 4d bf 9a 51 87 bf f1 94 35 bf 02 30 91 be
       -0.8032177 -1.0571778 -0.7093039 -0.2835694
0001d0 a0 23 c1 bf e2 55 a7 bf 6a 5c ea be ad 12 67 bf
       -1.5088997 -1.3073084 -0.4577363 -0.9026287
0001e0 89 de 55 bf d0 2b 9d bf 81 47 a0 bf 4d b8 95 bf
       -0.83542687 -1.2278996 -1.2521821 -1.1696869
0001f0 a0 da 8d be ba bd 6d bf 24 cb 1a bf 1b 74 91 3f
       -0.2770586 -0.92867625 -0.6046622 1.1363558
