HJPDE_1d.pth (torch, 207486 bytes, 13 tensors)

input_layer.bias f4 [128]
000000 ad 16 cd bf 2e a0 0f c0 b6 52 91 3f 7d f3 63 be
       -1.6022545 -2.2441516 1.1353366 -0.22260852
000010 b6 9c 0f 40 fe 48 40 c0 26 d7 15 3f 02 df bf 3f
       2.2439399 -3.004455 0.58531415 1.4989932
000020 68 d0 a3 3e 68 76 d8 bf 55 fe bc bf 97 7b 21 40
       0.3199494 -1.6911135 -1.4765116 2.5231683
000030 aa 46 be be 4a 65 ca bf da cb 08 c0 31 d8 f8 bf
       -0.37163287 -1.5812161 -2.137442 -1.9440976
000040 a5 49 e6 bf 74 08 a3 3f 5a 61 a3 bf 86 d3 0e 40
       -1.7991225 1.2736955 -1.2764084 2.2316604
000050 12 27 dc 3f aa 9e 80 bf a0 11 af bf c7 df ef bf
       1.7199423 -1.004842 -1.3677254 -1.8740166
000060 87 db 60 3f db 5c 40 40 4c c7 44 bf bf d5 0f c0
       0.8783497 3.0056674 -0.768666 -2.247421
000070 59 71 de 3f 1e 03 bd 3f b1 8b 24 3f 50 cf ef be
       1.7378341 1.4766576 0.6427565 -0.46837854
000080 cb 0a 66 bf e5 e4 52 bf 92 55 0c 3f 95 db a4 3f
       -0.8986022 -0.82380515 0.5481807 1.2879511
000090 da 15 f0 bf cb 31 9c bf 33 57 87 3f 3a 30 f5 3c
       -1.8756669 -1.2202696 1.0573486 0.029930223
0000a0 92 b3 7e be 90 37 10 bf b5 b9 f0 be 35 d8 fd bf
       -0.24873188 -0.5633478 -0.47016683 -1.9831606
0000b0 ec b1 9b 3f 07 9f 38 bf 53 60 44 3f 44 8e 0d c0
       1.2163672 -0.72117656 0.7670948 -2.2118082
0000c0 b6 82 cb 3e a0 43 86 3f 5f dd 03 c0 5a e0 98 3f
       0.39748162 1.0489388 -2.0603864 1.1943467
0000d0 d5 de ea be aa 73 42 3f 0b 05 87 3f cd 2f 08 bf
       -0.45873132 0.7595774 1.0548414 -0.5319794
0000e0 c2 e2 3a 40 e1 e9 b1 bf ed c5 13 40 50 6c 85 3f
       2.9200902 -1.3899499 2.3089554 1.0423679
0000f0 a6 b1 e5 3f 93 82 48 bf d3 4e aa 3f de b5 8d 3e
       1.7944839 -0.7832424 1.3305305 0.27677816
000100 30 d3 b1 bf 9d 7b e8 be 65 25 0f 3d 5d 65 ab bf
       -1.3892574 -0.4540681 0.03494777 -1.3390309
000110 82 2d ba bf 89 ec 02 40 61 cd da bf ab 86 ce be
       -1.4545138 2.045687 -1.7093927 -0.40337119
000120 aa 47 e1 3f 2b fe 4a c0 07 d7 f6 bf b1 d3 93 bf
       1.7599995 -3.1717632 -1.9284371 -1.1548978
000130 5b 68 2a 40 74 75 ae bf 88 3e 1b 40 99 9f 28 40
       2.6626194 -1.3629594 2.4256916 2.634741
000140 b5 f1 30 bf 6c 2a be 3f a8 45 c0 bf b6 4d 82 3f
       -0.69118816 1.4856696 -1.5021257 1.0179965
000150 49 a2 02 40 b2 c6 07 3f 17 84 97 3f cb ee fa bf
       2.041155 0.5303756 1.1837186 -1.9604124
000160 96 47 de bf 4b 72 fb bf 8c 76 fa 3f 09 b7 17 40
       -1.7365596 -1.9644254 1.9567428 2.3705466
000170 8f d1 48 3f 66 02 b3 be 95 f5 2a 40 41 93 8a be
       0.7844476 -0.34962767 2.6712391 -0.2706547
000180 aa 9f a2 3e 81 d8 2d 3f 78 1f 0a 40 4a c7 41 40
       0.3176244 0.67908484 2.1581707 3.0277886
000190 56 8d 95 3f f9 88 c0 3f bb 98 01 c0 af a6 30 3f
       1.1683757 1.5041801 -2.024947 0.6900434
0001a0 c7 e9 72 3f fb 66 d2 3f bd 66 81 bf a9 eb 0f 40
       0.94887966 1.6437677 -1.0109478 2.2487586
0001b0 e0 77 db bf 8f bc 70 bf 23 f4 e1 3f f9 33 13 40
       -1.7145958 -0.9403772 1.765263 2.3000472
0001c0 43 e4 d2 3e 0d 0a 19 40 6f 62 27 be a0 35 00 c0
       0.41189775 2.3912385 -0.16346143 -2.003273
0001d0 22 c2 04 3f 3f 74 0e 40 6f 0c d0 bf 65 14 03 c0
       0.51858723 2.225845 -1.6253794 -2.0481198
0001e0 67 68 6b 3d 02 2a d1 be 11 4f 9b 3f bf 2c c7 bf
       0.057472613 -0.40852362 1.2133504 -1.556053
0001f0 f4 05 8a 3f de b5 21 be 40 06 68 3f 87 84 9a bf
       1.0783067 -0.15792033 0.90634537 -1.2071694

input_layer.weight_g f4 [128, 1]
000000 4f ef 21 bd 43 3c 43 be b8 26 87 bf 28 db 94 bf
       -0.039534863 -0.19065957 -1.0558691 -1.1629381
000010 b8 ae 16 bf 3a 14 20 c0 5c 8d 2f 40 1d ca 26 40
       -0.5886035 -2.5012345 2.743003 2.606086
000020 e4 96 6c 3f 84 62 45 3f 32 a5 a1 bf 71 b6 1f c0
       0.9241774 0.7710345 -1.2628539 -2.4955103
000030 b2 16 3a bf b5 53 a3 bf dd 56 74 3f d2 1f 9d bf
       -0.7269088 -1.275992 0.9544504 -1.2275336
000040 e5 24 81 3f 3d d0 ea 3e ab 62 dc be 79 df e2 bf
       1.0089384 0.45861998 -0.43044028 -1.7724448
000050 4e e3 a6 bf 28 d4 14 40 ff bd fa bd 19 97 62 bf
       -1.3038118 2.325449 -0.1224327 -0.88511807
000060 5a 7d d1 bf c8 69 a3 bf 65 e2 20 40 be 3d f4 bf
       -1.6366379 -1.2766657 2.513818 -1.9081342
000070 90 f7 83 bf fa da 96 3f 67 3b 10 40 bd 4d 69 40
       -1.0309925 1.1785576 2.2536256 3.6453698
000080 ff 79 b7 bf 0d 44 ca 3e c7 2b c3 3f 76 67 6b be
       -1.4334105 0.39505044 1.5247735 -0.22988686
000090 44 90 d0 3e e4 34 30 bf a4 55 d2 be 41 46 8d 3f
       0.40735066 -0.68830705 -0.41080964 1.1037065
0000a0 b6 93 91 3e ea ac d6 c0 44 50 a8 bf 1f 40 9f bf
       0.28433007 -6.7086077 -1.3149495 -1.2441443
0000b0 b6 ac a7 3f 98 9f 30 bf 7d 16 cc bf f5 7f b6 bf
       1.3099582 -0.6899352 -1.5944363 -1.4257799
0000c0 20 89 5a 3f d7 89 9c bd e8 5f ec bf 00 0f 74 3f
       0.85365486 -0.07643478 -1.8466768 0.9533539
0000d0 cd f0 da 3f 97 03 71 3e cf 0e 14 40 b8 0e 00 bf
       1.7104737 0.23536526 2.3134038 -0.5002246
0000e0 a4 a7 80 3d 33 3f 79 bf 7b a0 a1 bf 7e 2c 35 bf
       0.06281975 -0.9736206 -1.26271 -0.70771015
0000f0 c2 ee b2 bf 1a 6a f4 3e 99 df ab 3d 33 b0 e5 bf
       -1.3979113 0.477372 0.08392257 -1.7944397
000100 00 fc ae bf 76 6c 56 3f 9a cc ac bf 95 91 b0 3f
       -1.3670654 0.8375925 -1.349994 1.3794428
000110 dd 8f 8e bf 2c 9b 14 bc 8b d4 fc bf b5 d4 1d 3f
       -1.1137654 -0.009070199 -1.9752363 0.6165269
000120 ff 77 74 bf a9 2d 33 c0 28 91 df 3f 49 e4 01 bf
       -0.954956 -2.7996619 1.7466173 -0.5073896
000130 22 1e f0 bf 05 d1 13 3f ab d9 fc bf e7 b6 0f c0
       -1.8759196 0.57740813 -1.9753927 -2.2455385
000140 a5 45 42 3f b0 e4 06 40 7f 14 e3 bf c5 44 a0 bf
       0.7588752 2.107708 -1.774063 -1.2520987
000150 09 5a 91 bf 1f 41 c0 3f d0 cd f8 bf c7 cb a7 3e
       -1.1355602 1.5019873 -1.9437809 0.32772657
000160 02 30 d0 bf ee e2 90 bf 1f 5b a6 bf 43 4b f0 bf
       -1.6264651 -1.1319253 -1.2996558 -1.8772968
000170 d1 26 fe bf d2 24 02 3f c4 53 0d c0 72 dc ae bf
       -1.9855596 0.50837433 -2.2082376 -1.3661025
000180 9f 71 86 3f dc 93 0b c0 cc 2d d8 bf 1d ba 2f bf
       1.0503424 -2.1808996 -1.6888976 -0.6864336
000190 5f d7 17 40 74 dc dd be 64 df 1b 40 74 09 92 bf
       2.3725202 -0.43332255 2.4355097 -1.1409135
0001a0 47 22 9d be d3 64 b8 bf 18 c9 c0 bf 0c a7 8e bf
       -0.30690214 -1.4405769 -1.5061369 -1.1144729
0001b0 89 15 62 3d 7e b6 a1 3f 5f d7 e4 bf 2c c9 07 c0
       0.05519632 1.2633817 -1.7878226 -2.1216536
0001c0 ff ab 21 c0 5c fc dc be 44 7f 5d c0 21 d9 0c c0
       -2.5261228 -0.43161285 -3.4608927 -2.2007525
0001d0 7c e5 f4 bf 70 10 99 bd 48 96 98 bf d9 ed c9 bf
       -1.9132533 -0.07473838 -1.1920862 -1.577571
0001e0 17 6b b8 3f 3d 22 ca 3f d0 73 b4 bf cb c9 08 40
       1.4407681 1.5791699 -1.4097843 2.1373165
0001f0 83 d8 f8 3e 4b 84 bb 3e c3 a3 58 bf 1a 76 09 bf
       0.48602685 0.3662437 -0.8462488 -0.53695834

input_layer.weight_v f4 [128, 2]
000000 c9 d7 15 c0 7a 3a 79 3f 8c 97 15 c0 7d 7f f1 bf
       -2.3412955 0.97354853 -2.3373747 -1.8867031
000010 d3 62 8a bd 87 cd 73 bf e6 00 63 bf f2 a8 03 c0
       -0.067571305 -0.95235485 -0.88673246 -2.0571866
000020 e6 13 e5 3f 57 6a 07 c0 1d 0c 10 40 45 3b e1 be
       1.7896698 -2.1158655 2.2507393 -0.43990532
000030 4b e6 a0 3f 37 8f d3 3f 84 0c 04 40 2e a1 94 c0
       1.257028 1.6528081 2.063264 -4.6446753
000040 f3 4a 4f 3f dc 5e 01 c0 fb a9 46 c0 52 c2 27 c0
       0.8097374 -2.0214148 -3.1041248 -2.6212354
000050 4e 48 8a be 4f 7e a8 3f 35 dd 8f 3e e9 84 1c c0
       -0.2700829 1.3163546 0.28098455 -2.4456122
000060 9f 45 e5 3e 80 27 6d bf b7 44 fe 3f 90 b0 d6 3e
       0.4477968 -0.926384 1.986472 0.41931581
000070 8f 7c 38 c0 82 e7 24 c0 79 73 73 3e 6c 8b ad 3f
       -2.8826025 -2.57663 0.23774518 1.3558173
000080 f8 9f 55 c0 5f 0b e9 bf 01 11 16 40 f1 da f7 3f
       -3.3378887 -1.8206595 2.3447878 1.9363691
000090 1e e1 9f be 22 e1 9f 3f 44 cf 40 3e e2 2c bd bf
       -0.31226438 1.249058 0.18829066 -1.4779322
0000a0 df e5 69 3f fe 9e 07 c0 3a 91 83 bf a7 f3 29 c0
       0.9136638 -2.119079 -1.0278695 -2.6554964
0000b0 e1 c2 dd bf 16 41 a7 bf 7a a9 b1 bf 91 0b 1f 40
       -1.7325097 -1.3066738 -1.3879845 2.485081
0000c0 83 b6 4d 3f 4d 88 a7 bf 65 b9 5c 3f d9 f6 5b c0
       0.80356616 -1.3088471 0.8622039 -3.4369414
0000d0 1b 89 75 bf 8f b5 c7 3f e8 65 89 3f 8e 62 1b c0
       -0.9591233 1.5602282 1.0734224 -2.4278903
0000e0 45 16 ff 3e 3d 3d b1 bf 76 a9 1e 40 36 ce 6c 40
       0.49821678 -1.3846813 2.479093 3.700086
0000f0 d3 0b c8 3f 03 6a 07 40 10 87 1c c0 2b 77 2e 40
       1.5628608 2.1158454 -2.4457436 2.7260234
000100 70 54 40 c0 37 24 2d c0 56 0b d5 bf 8e 40 9c bf
       -3.0051537 -2.7053354 -1.6644084 -1.22072
000110 82 2f af 3f 89 fd 15 c0 5e ef 80 3f cb f4 0c c0
       1.3686373 -2.3435996 1.0073049 -2.202441
000120 0a 26 20 c0 9f 84 65 40 89 07 83 3f b9 ef 04 bf
       -2.5023217 3.5862195 1.0236675 -0.5192829
000130 85 23 55 3f 6b e3 ba bf 09 b0 ef bf e8 ce d2 bf
       0.83257324 -1.4600652 -1.8725597 -1.6469393
000140 cf ff c7 bf c4 30 9a be 3c f2 26 40 56 de 8b 40
       -1.5624942 -0.3011533 2.6085348 4.3708906
000150 33 d5 73 3e 82 5f bc bf 13 fb 24 40 a5 2a 05 be
       0.23811798 -1.4716647 2.5778244 -0.13004549
000160 06 8c 1d 40 59 76 02 3f 6d 5a 71 3e 19 47 7d 40
       2.4616714 0.50961834 0.23569651 3.9574645
000170 3c 1a e8 be d1 28 e4 3f cb 02 4e 3f 8c cb 2b 3f
       -0.45332515 1.7824956 0.8047301 0.6710746
000180 6c f9 4e 40 a6 76 85 bf 9c 7c 18 40 ca 41 26 c0
       3.2339735 -1.0426834 2.3826056 -2.5977654
000190 53 d4 06 bd 35 b7 3e c0 be 07 13 40 dd 63 71 40
       -0.032917332 -2.979932 2.2973475 3.7717202
0001a0 7a 64 99 bf 9f 9f 08 40 e7 4b 73 3e 8c 09 41 bf
       -1.1983788 2.1347425 0.23759423 -0.7540519
0001b0 0c 9e 8b 3f f3 ca 12 40 2d f5 d6 be f0 98 ab 3f
       1.0907607 2.293637 -0.4198393 1.3406048
0001c0 68 21 00 40 c4 ff 3e c0 37 4f f2 3e 20 12 8d bf
       2.002039 -2.9843607 0.4732606 -1.1021156
0001d0 b1 ef 20 3f 90 5c e7 bf 74 97 f0 bf 06 f0 3a 3c
       0.6286574 -1.8075123 -1.879622 0.011409765
0001e0 19 9b cf bd 22 55 f1 3f e0 99 97 bf 2b ec fb 3f
       -0.101370044 1.8854105 -1.1843834 1.9681448
0001f0 a2 7e 08 40 69 a4 15 40 57 df 15 c0 d4 8d 7e bf
       2.132729 2.3381598 -2.3417566 -0.9943516
000200 57 11 23 bf 32 85 2e c0 47 85 b5 bf 2e 3c c2 bf
       -0.63698334 -2.7268796 -1.4181298 -1.5174615
000210 cf 6e 13 bf 12 a9 c2 3f ff 11 ee bf 7b 74 41 c0
       -0.57590955 1.5207846 -1.8599242 -3.0227344
000220 0e 24 b9 3d 00 06 af bf 25 e0 1d 40 42 56 98 3e
       0.0904008 -1.3673706 2.4668057 0.2975331
000230 95 01 1e be 4e f4 ff 3f b7 f4 bd bf 15 17 98 bf
       -0.15430291 1.9996431 -1.4840306 -1.1882044
000240 0d 22 ab bd 4e bf 73 bf fd 11 89 3f 2c f0 07 3e
       -0.08356104 -0.9521378 1.0708615 0.13275212
000250 60 f5 75 c0 16 1d 73 c0 ae 6f 41 3e 76 c1 35 3f
       -3.8431015 -3.7986503 0.18890259 0.7099832
000260 4e 51 0f be eb be ec bf bf 1b fc bf 44 9c f4 3f
       -0.13995859 -1.8495764 -1.9695967 1.9110188
000270 19 b2 18 bd 3d fe 49 40 3a 19 0f c0 28 40 18 3e
       -0.037279222 3.1561425 -2.2359147 0.14868224
000280 da 64 13 bf 12 92 e7 3f 61 76 c3 3f e9 29 25 40
       -0.5757576 1.8091452 1.5270501 2.580683
000290 9a c7 a1 bd b0 06 a7 3f 11 05 6c 3f dc e5 38 40
       -0.07899399 1.3048916 0.9219523 2.8890295
0002a0 9e b7 65 3f 80 d1 05 c0 22 a6 8c 3f 43 cc 06 c0
       0.897333 -2.0909119 1.09882 -2.1062171
0002b0 77 89 d1 3e 30 8d 82 c0 bc 5a 0b c0 11 75 3b 40
       0.4092519 -4.079735 -2.177413 2.9290202
0002c0 f9 a6 e5 3d 6a 8d b6 3f a4 33 c7 3f 8b ba 5b bf
       0.11213488 1.4261906 1.5562634 -0.85831517
0002d0 ad 84 bb 3e 35 fc e5 bf 99 6e 66 c0 9c 29 51 bc
       0.3662466 -1.7967592 -3.6005003 -0.012766268
0002e0 b1 87 fb 3f d4 ab 23 40 5f 65 86 bf 42 27 2e bf
       1.9650785 2.5573626 -1.0499686 -0.6802865
0002f0 07 98 ec be 71 42 20 c0 f0 1c bf bf 6f 88 10 3f
       -0.46209738 -2.5040553 -1.4930706 0.5645818
000300 cf 72 8f 3f 6c 79 1f c0 44 0b 02 40 23 00 31 40
       1.1206912 -2.491786 2.0319376 2.7656333
000310 d1 c9 5c be 65 86 cf bf c8 b8 f6 3f cb ad 33 c0
       -0.21561362 -1.6212889 1.9275141 -2.8074825
000320 4b a0 e1 3e 1d 96 cd bf 69 4e 52 3f df a9 dc bf
       0.44067606 -1.6061436 0.82150894 -1.723934
000330 d0 03 23 c0 56 d8 92 3e 22 f3 0a 3f 8e ed 53 c0
       -2.5471077 0.28680676 0.5427724 -3.3113742
000340 04 c2 2d bf c8 27 38 bf 30 e0 7f bd 3b 4f da 3f
       -0.6787417 -0.719357 -0.06246966 1.7055429
000350 80 5c eb bf 35 56 11 c0 cd d3 c4 3f 72 9c 0c c0
       -1.8387604 -2.2708867 1.5377136 -2.1970487
000360 a1 12 24 c0 4b fc 80 3c c5 14 19 c0 f5 00 25 c0
       -2.563637 0.015745303 -2.3918927 -2.5781834
000370 98 fe df bd f5 48 08 c0 bf 29 cc be 85 b5 ba bf
       -0.10937232 -2.129453 -0.398756 -1.4586645
000380 8a 96 5c c0 66 b0 b1 bf 04 b9 12 40 79 11 40 c0
       -3.4466882 -1.3881958 2.2925425 -3.0010664
000390 53 0d d8 bf ae 49 92 3f b6 79 a3 bf b2 69 22 40
       -1.6879066 1.1428735 -1.2771518 2.5377011
0003a0 35 7e 11 3f e7 c5 be bf bb 92 23 40 6b 89 16 c0
       0.568332 -1.4904145 2.5558307 -2.3521373
0003b0 d7 ac a3 3d 96 28 82 3f b5 34 8f 3f da 19 0d 3f
       0.07991951 1.0168636 1.118796 0.5511757
0003c0 1c 60 14 c0 33 8d da 3f 63 53 49 bf 14 d2 20 c0
       -2.318366 1.707434 -0.78642863 -2.5128222
0003d0 1b 31 bc 3f 4b 82 3c 40 3b 65 1c c0 87 ce 2f bd
       1.4702486 2.9454525 -2.4436786 -0.04292157
0003e0 67 e3 e3 3f 18 fa 26 c0 a9 60 6b 3f 4b 25 f2 3f
       1.7803773 -2.6090145 0.91944367 1.8917631
0003f0 23 cf be 3f 05 f7 09 40 da 90 9c 3f aa 4c 30 3e
       1.4906963 2.1557019 1.2231705 0.17216745

hidden_layers.0.layer.bias f4 [128]
000000 c1 e6 97 3e 39 de d4 be 13 e5 45 be 46 fd ed 3e
       0.2966824 -0.41575792 -0.19325666 0.46482295
000010 32 53 6b 3e 9c 62 76 bd fd 5c 83 3e 36 3b 27 3e
       0.22980955 -0.060152635 0.25656882 0.16331181
000020 b3 56 2f 3f f4 a5 e0 bc fc 5b af be 12 ce b3 3d
       0.6849167 -0.027422883 -0.34249866 0.08779539
000030 f4 3d 46 be f3 6c b0 be de 3a d2 3e 7d 68 85 bd
       -0.1935957 -0.34458122 0.41060537 -0.0651407
000040 67 67 09 bf 15 f9 6a 3e 7e af 62 3f 29 93 72 3d
       -0.53673404 0.2294658 0.8854903 0.059222374
000050 05 06 48 bf ee 2a 79 be 44 47 9b 3e 51 6a 87 3e
       -0.78134185 -0.24332783 0.3032781 0.264483
000060 cb 2d 06 3e 2b 1d c8 3e 72 bf fc be 60 d4 29 3f
       0.13103406 0.39084753 -0.4936481 0.66339684
000070 40 33 9c be ce 58 b8 3e 59 21 0b 3e 05 e9 b0 bd
       -0.3050785 0.36005253 0.1358694 -0.08638195
000080 c5 73 73 38 0d 41 21 3e b8 74 02 be 45 2a 93 3d
       5.8043533e-05 0.15747471 -0.12739837 0.07185797
000090 7a 2b 2c 3d 43 2d 84 bd cc 01 9a bd 50 b3 04 be
       0.04203365 -0.064539455 -0.07519874 -0.12959027
0000a0 20 3a ca be de e2 ae be d5 b9 c5 3b cf 6e 9a 3e
       -0.3949747 -0.3415746 0.006034116 0.30162665
0000b0 09 ec 38 bf 5b 08 82 be c8 69 2b be a9 b7 ca 3e
       -0.7223516 -0.25397 -0.16739571 0.39593247
0000c0 fd 2a df 3e 22 88 97 3d 49 92 85 3d b3 e9 fd 3e
       0.43587485 0.07399012 0.06522042 0.4959236
0000d0 ea 3e 92 be 4b cc 17 3e 44 95 ec 3d 72 30 19 3f
       -0.28563625 0.14824025 0.11551908 0.59839547
0000e0 4a f8 86 3e a5 84 8f be 6f 6a 90 bf 43 6f 18 3e
       0.26361305 -0.28030887 -1.1282481 0.14886193
0000f0 45 82 10 be 2b c5 25 3c 54 92 b3 bd 6d cb 3e bf
       -0.14112194 0.010117809 -0.08768144 -0.74529153
000100 b9 f6 85 be 99 e5 94 bd 24 e4 e2 3d 4a e6 8e bd
       -0.26164797 -0.07270355 0.110786706 -0.06977518
000110 d1 a1 01 be 90 ab f2 be 79 8a a7 3d 31 7f 90 3d
       -0.12659384 -0.47396517 0.081807084 0.0705551
000120 6e 50 ed be 38 05 5e 3e 28 fb ee bd fa ae d0 be
       -0.46350425 0.21681678 -0.11668998 -0.40758497
000130 62 34 6d 3d b1 78 b4 be 66 ec 9f 3e c3 8f 77 bd
       0.057911284 -0.3524833 0.31235045 -0.060439836
000140 7f 80 38 3e 1e 6c 84 bd 59 d5 b0 3e 4a 97 f6 3e
       0.18017767 -0.06465934 0.3453777 0.481623
000150 be a0 82 3f 67 21 aa be 18 91 a5 3e 01 22 a4 3e
       1.0205305 -0.3322861 0.3233726 0.32057193
000160 47 2c 0a bf e3 1d a3 be ef d7 ac bd b9 ee d8 3e
       -0.5397381 -0.3185874 -0.084396236 0.4236963
000170 fb 01 e2 3e ec eb 23 bf cf 91 05 bd de 06 84 be
       0.44142136 -0.64031863 -0.032609757 -0.2578649
000180 45 a2 d8 3e 3e 1a 3b be 88 2c 4c bf 2a 6b 14 3f
       0.42311302 -0.1827173 -0.7975545 0.5797602
000190 4f 8e 01 bf a0 e5 25 be e1 13 c0 3d 22 b8 69 3e
       -0.5060777 -0.16200876 0.093787916 0.22824147
0001a0 29 5f 5e bd da b8 0a 3e 3d ad 73 be 43 15 9a 3b
       -0.05428997 0.13547078 -0.23796554 0.0047022416
0001b0 81 a1 cb be 50 20 f2 bd 4a 38 33 bf 6f 8f d3 3e
       -0.39771655 -0.11822569 -0.70007765 0.4132037
0001c0 84 b1 ae be a8 85 80 3d d4 48 b7 3e ea 31 e1 3e
       -0.3411981 0.06275493 0.3579775 0.43983394
0001d0 fd 72 6d be 74 29 ad be 89 db 8c 3e 7d c3 66 be
       -0.23188396 -0.3382069 0.27511242 -0.2253551
0001e0 2b cc 8f be 9a 7c 5c 3e 0c 68 a4 3e fb 85 cd bd
       -0.28085455 0.21531907 0.3211063 -0.1003532
0001f0 3f fb 4a bf 47 4e be 3d 5c 03 a8 bd b5 05 ff 3d
       -0.7928962 0.09292274 -0.08203766 0.124522604

hidden_layers.0.layer.weight_g f4 [128, 1]
000000 0c d0 62 3e 86 d0 e5 be bf 21 d7 bf c0 b4 8f 3e
       0.22149676 -0.44885653 -1.6807173 0.2806759
000010 3e f9 97 be d6 03 40 bf f5 bd 33 bf 2a 0f 05 bf
       -0.29682344 -0.75005853 -0.70211726 -0.51976264
000020 87 ef 47 bc 3b 14 f3 be 7a 12 07 bf 5d f1 1a bf
       -0.012203104 -0.47476372 -0.5276257 -0.6052454
000030 0f b3 15 bf 45 08 e0 3e bc 6c 93 3e ad 57 e5 be
       -0.58476347 0.4375631 0.28793895 -0.44793454
000040 e1 90 47 3e ba 50 ca 3e 8f 6d b2 3e 78 f6 fd be
       0.1948886 0.39514714 0.34849212 -0.49602103
000050 92 82 56 bf 08 e6 ec be 52 2a a2 bf 80 98 65 be
       -0.83792984 -0.4626925 -1.2669165 -0.22421455
000060 54 d6 06 bf 77 6c 2d bf 80 77 e5 be c6 7e 51 3f
       -0.5267079 -0.6774363 -0.44817734 0.81834066
000070 3f 9a 4a bf ce 13 b0 bf 21 07 09 c0 e9 d2 11 bf
       -0.7914161 -1.3756044 -2.14106 -0.5696245
000080 40 0c 05 bf c1 53 8d bf 10 d8 7d bf c7 7a 0a bf
       -0.51971817 -1.1041185 -0.9915781 -0.54093593
000090 2c 1a 36 bf ce 38 ed bc 72 0d 2c bf 97 2f 64 bf
       -0.71133685 -0.02895775 -0.67208016 -0.89135116
0000a0 a4 56 15 be 89 1c f9 3e d0 b4 05 bf 4f 3c ac be
       -0.14583832 0.48654583 -0.5222902 -0.33639762
0000b0 f2 9f 37 c0 7d 71 29 bf bd b6 d1 be 97 e0 92 be
       -2.8691373 -0.66188794 -0.4095973 -0.28686973
0000c0 b5 2a 8d bc 2f f0 70 bf a3 8c 31 be df 87 5b bf
       -0.017232278 -0.9411649 -0.17338805 -0.857542
0000d0 a2 ad f6 bf 0b e0 d4 bf cf e2 4e bf f9 ec db bf
       -1.9271739 -1.6630872 -0.8081483 -1.7181693
0000e0 fc a9 f2 3d f9 b7 79 be 06 81 72 3f 26 3e 10 c0
       0.11848828 -0.24386586 0.94728124 -2.2537932
0000f0 cf 88 35 c0 3e 32 ad bf 84 9e 12 bf 82 c2 a9 bf
       -2.8364751 -1.3530958 -0.57273126 -1.3262484
000100 3c 9f 51 bd 97 7d 01 be 49 1b 28 bf 4e 75 99 bf
       -0.05117725 -0.12645565 -0.65666634 -1.1988924
000110 f1 10 05 bf 58 d3 c8 be 9c 1d 64 bf d8 95 82 bf
       -0.51978976 -0.39223742 -0.8910768 -1.0201979
000120 4f 24 e1 bf 4b fc 0c bf 17 d8 f7 3e 42 0e 26 bf
       -1.7589206 -0.5507247 0.4840705 -0.64865506
000130 6e 86 dd be 7b 17 ec be 55 81 dc 3d 3b ad 8e be
       -0.43266624 -0.46111664 0.107668556 -0.2786654
000140 ef e4 07 bf c7 8a 7c bf fc 46 ce 3c 08 90 cb 3e
       -0.530837 -0.9864926 0.025180332 0.39758325
000150 ed 09 3e bc 29 bd 1d bf 20 87 7e 3e b0 aa 04 bf
       -0.011599046 -0.6161676 0.24856234 -0.5182295
000160 25 32 05 c0 85 a6 04 bf 15 26 10 bf 5b 84 b7 be
       -2.0811856 -0.5181659 -0.5630811 -0.35843167
000170 3e dd d2 3d 07 2d af be c2 e5 ca be 4f 67 7c bf
       0.10296105 -0.3421404 -0.39628416 -0.98595136
000180 c4 b9 6d 3e ca b4 ae be f3 76 f3 3d 06 83 04 c0
       0.23215395 -0.34122306 0.11887922 -2.070497
000190 61 42 81 be e7 62 2d bf f5 f8 19 bf 01 4a bd 3e
       -0.25245956 -0.6772904 -0.60145503 0.36970523
0001a0 94 30 1b bf ed 0c ec bd b8 e7 14 be 1a 47 29 3f
       -0.60621 -0.11525903 -0.14541519 0.6612412
0001b0 2d 3b 3e bd 8e 2e a1 bf 46 f6 62 bf 6f ce fa be
       -0.046443153 -1.2592332 -0.88657033 -0.4898562
0001c0 bb e5 ae be 6d c4 c5 bf 3f ba 62 bf 93 0c d4 3e
       -0.34159645 -1.5450569 -0.8856544 0.41415843
0001d0 c0 35 d8 be ca 75 b2 3c 14 e0 9b 3c 41 cb 46 be
       -0.42228508 0.021784682 0.019027747 -0.19413473
0001e0 29 27 b3 be a1 fe 25 c0 dc bf a5 bf e5 d7 ca be
       -0.34990814 -2.5936663 -1.2949176 -0.3961784
0001f0 35 99 07 bc 3b 2e d5 be 7f 8d 36 bf 3f 7a b0 be
       -0.0082762735 -0.41636834 -0.71309656 -0.34468266

hidden_layers.0.layer.weight_v f4 [128, 128]
000000 7d 03 cb be cc c9 8e be c4 47 65 3f 25 56 fb be
       -0.396511 -0.27888334 0.8956263 -0.4908916
000010 d6 f0 64 3e 90 3c 3d be 4c 83 46 c0 51 c5 b7 3e
       0.22357497 -0.18480134 -3.1017637 0.35892728
000020 8f 77 c3 3e 13 41 c2 3f bf 03 2b be 7c 65 b0 3e
       0.38177153 1.5176109 -0.16700648 0.34452426
000030 21 f4 22 bf 7f d0 c4 be 1c 96 64 3f a1 b0 84 be
       -0.6365376 -0.3844032 0.8929155 -0.25916007
000040 7e be 2d 3e c4 77 42 3f 7b 84 f8 3e 2b a7 9f 3f
       0.16967198 0.75964 0.48538575 1.2472891
000050 db 7e 94 3e b3 5c 22 bf f8 91 65 be 64 36 4a bd
       0.29003033 -0.634227 -0.22418964 -0.049368277
000060 fe cb 3b 3f 78 71 1f bf 43 ee 7c bf 81 89 b1 bd
       0.7335814 -0.62282515 -0.9880106 -0.08668805
000070 bc 1b 4d 3f fb 50 29 3e 6e 9c 12 c0 28 23 cf be
       0.80120444 0.16534798 -2.2907977 -0.4045651
000080 24 97 37 bf b8 1a 78 be 6b b5 15 3e f6 5f 9d 3e
       -0.71715 -0.24228942 0.14619987 0.30737275
000090 21 27 41 be cc 6e 5b 3f c9 86 65 bf 9d 1b b4 3f
       -0.18862583 0.8571594 -0.8965879 1.4070927
0000a0 d8 d2 dd be 78 99 ea 3c d3 81 9d bf 9c d3 cd be
       -0.43324924 0.028637633 -1.2305244 -0.40200508
0000b0 1d 3d a5 bf cc 47 93 3f f8 99 0f 3f a0 17 08 bd
       -1.2909275 1.1506286 0.5609431 -0.033225656
0000c0 8b 10 0a be fb 69 30 3f e1 55 43 bf 6b 2a 22 3f
       -0.13482873 0.68911713 -0.76302916 0.63345975
0000d0 b8 ee b3 3f 02 73 0c bf bc 26 43 bf af 24 57 be
       1.4057226 -0.5486299 -0.7623098 -0.21010087
0000e0 06 e7 ed bf 56 07 9e bf f8 99 45 3f f2 e2 1a bf
       -1.8586128 -1.2345989 0.7718806 -0.6050254
0000f0 77 3d cc 3f e1 64 1d bf 90 d9 97 3e 25 f4 10 bf
       1.5956258 -0.61482054 0.29658175 -0.56622535
000100 5f 35 35 bf e8 a0 6c bf be da 39 bf 4e a5 23 bf
       -0.7078456 -0.92433023 -0.725994 -0.6392411
000110 c3 ed 8d 3e 52 d9 ab bc d7 57 19 bf 75 ea d3 3f
       0.2772046 -0.02097765 -0.5989966 1.6555926
000120 32 e2 46 3f 70 b2 33 bf f1 51 38 3e 6e 93 17 c0
       0.77688897 -0.7019415 0.18000008 -2.3683734
000130 c6 73 28 3f 20 51 c1 be ea c7 11 3e c6 ca dd 3b
       0.65801656 -0.37757206 0.14236417 0.0067685572
000140 9e 19 39 be d3 29 3a 3e fd e3 c4 be 8c eb f4 3e
       -0.18076178 0.18180017 -0.3845519 0.47835958
000150 df e8 ce 3e ab f1 06 3f 0f d0 40 bf a1 61 34 bf
       0.40412042 0.52712506 -0.7531747 -0.7046147
000160 62 6f b7 bf ba 34 22 be 04 ae b0 3e b1 da 63 3e
       -1.4330866 -0.15840426 0.34507763 0.22251393
000170 97 27 58 3d 5b 07 9a 3f b3 c4 67 be 9b a2 d0 bf
       0.05277213 1.2033495 -0.22633629 -1.6299623
000180 e2 e3 3e be 59 a6 38 3f 7e ea 25 bf b5 cd 28 3e
       -0.18641618 0.72128826 -0.6481093 0.16484721
000190 9e 67 ba 3e 91 06 bd bf 1d e2 0c 3f d3 e0 8c 3f
       0.3640718 -1.4767629 0.5503252 1.1006111
0001a0 8d 78 cc 3d a4 9e 3d 3f b9 5c 77 bf 33 db cf 3e
       0.09983931 0.7407019 -0.9662586 0.40596923
0001b0 41 88 eb be 92 b7 b5 be 63 a1 a1 3f b9 06 d1 3e
       -0.4600239 -0.35491616 1.2627376 0.4082544
0001c0 35 88 14 bd da aa 26 3f 31 3e 8b bf 50 d0 b8 be
       -0.03626271 0.6510445 -1.0878354 -0.3609643
0001d0 e4 d3 38 bf fb fc 28 3f 9a d6 f1 bf 63 c7 8f be
       -0.7219832 0.6601102 -1.8893616 -0.28081807
0001e0 cc 94 e8 bf c8 c7 8a be c4 92 81 3f 0f 23 ba 3e
       -1.8170409 -0.27105546 1.0122914 0.36354873
0001f0 7f ed 87 3e 75 12 82 bf 5b 69 4c 3f 76 00 07 c0
       0.26548383 -1.0161883 0.7984826 -2.1094031
000200 8c 55 30 bf be d8 28 3f d5 28 e7 be a8 19 17 3f
       -0.68880534 0.6595572 -0.4514834 0.59023523
000210 a1 e6 76 be e7 58 20 3f fe 38 5d bf 3c 7f 79 be
       -0.24111415 0.62635654 -0.8641509 -0.24364942
000220 38 c1 b7 be 06 9a d4 bf d4 c4 0d 3f 82 96 e5 be
       -0.35889602 -1.6609504 0.5537846 -0.4484139
000230 50 9c 72 3f fc b4 58 3e ce fe 71 bf 9a c1 bf bf
       0.94769764 0.2116279 -0.94529426 -1.4980958
000240 d4 51 a7 be 40 24 01 40 03 97 b7 be 06 50 22 bf
       -0.32679617 2.0178375 -0.358574 -0.63403356
000250 83 3a b3 be 85 2b 72 be 45 ba 0e 3f c8 3e 25 3f
       -0.35005578 -0.23649414 0.55752975 0.6454892
000260 c1 89 3a bf 52 a5 1c be 73 73 4d 3f d1 fe bd 3e
       -0.72866446 -0.1529744 0.80254287 0.37108472
000270 d1 6c 16 be 30 9d 14 bf 66 8b 44 40 77 db 9f 3e
       -0.14689948 -0.5805235 3.0710082 0.31222126
000280 4a b9 98 3e cb 1a 98 bf 12 b7 56 3d 5c fb bf 3f
       0.29828864 -1.1883177 0.052420683 1.4998584
000290 70 c8 58 bd 31 9a 72 3f 0c a8 c4 3f bb e6 62 bf
       -0.052925527 0.9476653 1.5363784 -0.88633317
0002a0 8a 95 59 bf 35 c2 1f bf c4 13 36 3b 23 83 dc 3d
       -0.84993804 -0.6240571 0.0027782777 0.107672
0002b0 c5 c0 6b 3f 63 a0 89 bf 19 25 19 bf 3f 74 19 3f
       0.9209102 -1.0752071 -0.5982223 0.59943
0002c0 a1 dc c0 3e 00 88 17 bf 2f 80 89 3e d5 e4 0b bf
       0.37668326 -0.59191895 0.2685561 -0.54646045
0002d0 09 66 96 bf 9b 8f 04 40 ec 17 91 3f e8 62 68 bf
       -1.1749889 2.071265 1.1335425 -0.9077592
0002e0 08 b1 eb 3f b9 c7 6c 3e a6 62 13 bf d9 38 1b 3e
       1.8413401 0.23123063 -0.575724 0.15158404
0002f0 e6 ee d3 be 8a 07 f7 3e b8 e7 b2 be 29 2f 11 3f
       -0.41393203 0.4824794 -0.34942412 0.56712586
000300 89 62 c1 3e 27 63 74 bf 7f 07 8a bf b0 8f 19 3f
       0.3777049 -0.95463794 -1.0783538 0.59984875
000310 53 47 45 3f ad b2 0c bf d7 ba 2d 3f 5d a6 ba bf
       0.7706196 -0.5496014 0.6786322 -1.458202
000320 57 55 06 bf ad 9e 93 3e f3 31 05 be 20 3f a8 bf
       -0.5247397 0.28831998 -0.13007335 -1.3144264
000330 22 26 c5 3f 73 d5 83 3d 88 61 4f bf 48 87 02 bf
       1.5402262 0.064371966 -0.81008196 -0.5098767
000340 6e dc 73 3e 72 c8 99 3c bd 11 ed 3e f9 6c 32 bf
       0.23814556 0.018772338 0.46302596 -0.6969753
000350 e2 ce dc be dd 93 fe be 30 ea 86 bf d4 63 2b 3e
       -0.4312659 -0.49722186 -1.0540218 0.167373
000360 40 b3 c3 be 3b 56 6c 3f e4 52 d9 3f f4 27 32 bf
       -0.38222694 0.9231908 1.6978421 -0.69592214
000370 60 ae 4b bf 41 18 b9 bf 37 70 90 3f e7 68 1e 40
       -0.7956295 -1.4460527 1.1284245 2.4751527
000380 b6 9e cc 3d 4b 17 b4 be 4e 36 5b be bd 9e 93 3f
       0.09991209 -0.3517402 -0.21407434 1.1532818
000390 a9 50 42 bf c8 d1 90 3f 1d ef 13 3f 24 7b b0 bf
       -0.7590433 1.131402 0.5778673 -1.378758
0003a0 3b f9 7b 3f 60 c2 96 be 53 a4 18 3f d1 a3 3f bf
       0.9842717 -0.2944517 0.5962574 -0.7485934
0003b0 be 5e 28 3f 22 08 56 3d 52 52 6c bf 94 e8 02 be
       0.65769565 0.05225385 -0.9231311 -0.12784034
0003c0 17 c4 f5 3e 5a 4c ac 3b b6 c4 11 3f 77 4a 1e be
       0.48001167 0.0052581253 0.5694078 -0.15458094
0003d0 cb c4 0c be 25 2f d1 bd e2 32 e3 be 31 2c 6b 3e
       -0.13746946 -0.1021407 -0.44374758 0.22966076
0003e0 a1 f1 26 c0 34 ce 21 3f 21 57 db be 5c 4f c4 be
       -2.6084979 0.63205266 -0.42839912 -0.38341796
0003f0 90 41 90 be 32 5b ab bf 2a 36 00 bf 37 f4 fc be
       -0.2817502 -1.3387206 -0.5008265 -0.4940507

hidden_layers.1.layer.bias f4 [128]
000000 13 c1 27 be 93 50 80 bd fa b8 9e bd 0f e1 83 bd
       -0.16382246 -0.06265368 -0.07750125 -0.06439411
000010 62 50 37 3e 6e 0d 22 bd 5e d8 68 3d 4d a2 be be
       0.17901757 -0.03956359 0.05684697 -0.372332
000020 3e 77 d3 bd 47 d5 89 3d 59 d8 a4 3d d5 09 0e 3d
       -0.10325478 0.067301326 0.080490775 0.034677345
000030 e9 22 a4 bd da 39 ba 3d 2f 90 14 be d1 cb 5f bd
       -0.08014471 0.090930656 -0.14508127 -0.054637734
000040 6d ec 12 3c ac 77 23 3d b8 be cd bd 98 a5 63 be
       0.008967501 0.03990905 -0.10046142 -0.22231138
000050 b5 af 1a 3e f2 d3 6a bd ed 73 ad 3e fe 0b a4 bd
       0.1510609 -0.057331033 0.33877507 -0.080101
000060 09 79 b6 3d 28 97 40 3e 9b 74 ab bd 6f e7 0e be
       0.089098044 0.18807662 -0.0837185 -0.13955472
000070 fd 8a 21 3e 1d 3e 2e 3d 65 47 d5 be 88 bf f6 be
       0.15775676 0.042539705 -0.41656032 -0.48193002
000080 9b ae 4c 3d b4 6f 8f be 7f be 39 be 02 b2 18 be
       0.049971204 -0.2801491 -0.18139075 -0.14911655
000090 da ef d1 be bb 5d 1c 3e b0 8f 2e be 40 0c 9d bd
       -0.41003305 0.1527013 -0.17047 -0.07668352
0000a0 78 82 37 be 34 55 c6 bb 6b 38 80 3e 2e 1c fe 3b
       -0.17920864 -0.0060526375 0.25043043 0.007754824
0000b0 0c e6 99 3d ff f0 be bc 83 83 a3 bd 4f e1 35 3d
       0.07514581 -0.023308275 -0.07984068 0.044404324
0000c0 05 ee be 3d 07 d6 b0 3d 12 b6 db 3e 71 7e c1 be
       0.093227424 0.086345725 0.42912346 -0.3779178
0000d0 4c e6 8b bd 2f 61 f9 3c 36 94 db 3d 02 86 c9 3d
       -0.06831035 0.030441849 0.10721628 0.09840013
0000e0 11 8e 86 be 19 cb 32 be 0e 85 70 be 5b e1 19 be
       -0.26280263 -0.17460288 -0.23488256 -0.15027373
0000f0 48 2e 87 bd 3c 7f b5 3d b7 56 00 bf c2 c8 73 3e
       -0.06600624 0.08862159 -0.50132316 0.23807052
000100 7e 4f bf be 9e c9 1c 3d 8e f4 cd bd fe fb 8c 3e
       -0.37365335 0.038278215 -0.10056411 0.27536005
000110 33 44 e3 3d 76 5a 1f 3e 60 4b 5a 3c 08 4d d4 bd
       0.11096992 0.15561852 0.013323635 -0.10366255
000120 6f 0c c7 3e 7e 0b be 3d 8b 94 74 3e 22 01 45 3d
       0.38876674 0.09279536 0.2388479 0.048096783
000130 2b b9 3f be 7b ac 86 bd cb 73 55 bd 30 d5 97 bd
       -0.1872298 -0.06575867 -0.052112382 -0.07413709
000140 53 e6 de bb cd ad bb 3c cb d1 69 be a5 0e bf bd
       -0.006802359 0.022910023 -0.22833936 -0.09328965
000150 81 a3 44 3e c0 ef ca 3d b0 0c 64 3e 60 8c eb bd
       0.19202997 0.0990901 0.22270465 -0.11501384
000160 72 7e 1c be 36 d1 28 be 68 df 93 be e5 86 cc be
       -0.1528261 -0.16486058 -0.28881383 -0.39946666
000170 d0 99 56 3e f5 a1 41 ba 5e e3 dd bd 51 ca b7 3e
       0.20957112 -0.0007386499 -0.108343825 0.35896543
000180 e7 f6 a9 bc 2a d4 d6 bd 7a 73 e8 bd 5c 31 8d 3d
       -0.020747615 -0.10489686 -0.113501504 0.0689418
000190 87 d2 13 3e 16 0f 11 3e 15 4a 1c 3e 33 bc 10 be
       0.14435779 0.14165911 0.15262635 -0.14134292
0001a0 c1 00 f8 bd 28 48 a5 3d 30 48 ef 3c 68 83 e3 3b
       -0.12109519 0.08070403 0.029209226 0.006943155
0001b0 50 98 a1 bc 84 fe 5c bb e2 48 d7 3d 30 2b 02 bf
       -0.019725949 -0.003372104 0.10511948 -0.5084715
0001c0 a1 bb 85 3d 6f 64 1d be 45 22 47 bd 5d 50 79 bc
       0.06529928 -0.15370344 -0.048616666 -0.015216914
0001d0 bf 48 c5 ba 02 e6 49 bc 11 55 1c 3e 9c e3 41 3d
       -0.0015051587 -0.012322905 0.15266825 0.047336206
0001e0 09 82 1e 3d a5 48 0a 3c 6a 59 83 be 2b 73 5e 3d
       0.03869823 0.008440171 -0.25654155 0.05430905
0001f0 2e 66 fb 3d 27 21 4f 3d 90 62 3e 3d 0d d3 d9 be
       0.122753486 0.050568726 0.046480715 -0.4254383

hidden_layers.1.layer.weight_g f4 [128, 1]
000000 b1 f1 ce 3e 09 59 5d be 9d 1c 08 3c 14 b7 71 be
       0.4041877 -0.21615995 0.008307603 -0.23604995
000010 a3 fa 14 3d 4c 0d 82 3d 76 e6 c4 3e d4 85 3c bf
       0.03637184 0.063501924 0.38457078 -0.73641706
000020 41 19 44 be cd 43 80 be 53 33 54 bc ed 01 5b 3d
       -0.19150259 -0.25051728 -0.01295169 0.053468633
000030 4c 23 25 bd 57 75 50 bf 00 cf 99 3e 07 6d e1 be
       -0.040316865 -0.81429046 0.3004074 -0.44028494
000040 f3 9b 98 be 52 9e 50 bf 87 31 7e bc 06 02 1d 3f
       -0.2980648 -0.8149158 -0.015514738 0.6133121
000050 5d dc 18 bf 37 99 32 3e 4b 42 a6 bf 71 db 63 3e
       -0.5971125 0.1744126 -1.2988981 0.22251679
000060 6d ce 14 bf 9e e3 0d bf bc e9 07 be 9d 7a 22 bf
       -0.5812748 -0.5542544 -0.13272756 -0.63468343
000070 99 da dd bd e3 89 9b be 84 44 ad bf 6f e5 04 bf
       -0.1083271 -0.30378637 -1.3536534 -0.5191259
000080 c4 08 a3 bf cf b3 88 3e c7 f2 1a 3e c1 2d 85 be
       -1.273705 0.26699683 0.15131675 -0.2601147
000090 e5 6f 5b be 52 55 d9 be 8c 18 ba be 83 9d 8b be
       -0.21429403 -0.42447907 -0.36346853 -0.2726861
0000a0 1d 8a 35 bd e4 1e 83 be ee a1 8f be 62 43 e4 be
       -0.04432117 -0.25609505 -0.2805323 -0.4458266
0000b0 ce f9 bc 3e 42 71 57 3b dc ad 26 bf 17 60 02 3f
       0.36909336 0.0032873903 -0.6510904 0.5092787
0000c0 58 f2 9c bf 60 ea ca be ab 37 5c bf e6 90 2d bf
       -1.2261457 -0.3963194 -0.8602244 -0.6779922
0000d0 6f 57 1c 3e e5 5f f0 bd 82 07 8e be 55 43 0d be
       0.15267728 -0.117370404 -0.27740103 -0.13795216
0000e0 1c 23 67 3e 12 47 b3 be 75 dd 47 be 5b 2c a3 bf
       0.22571987 -0.3501516 -0.19518073 -1.2747911
0000f0 09 a3 b0 bd 31 9e 99 bd 97 a4 77 bf 15 5f 06 bf
       -0.086248465 -0.07500876 -0.9673552 -0.52488834
000100 3c f1 3b bf 76 81 f6 be dd 06 70 3e 57 12 ea be
       -0.7341497 -0.48145646 0.23440118 -0.45717117
000110 f2 ae a2 be ef 5a 86 be c7 d7 14 3f 91 3a 81 be
       -0.31774098 -0.26241252 0.5814175 -0.25239995
000120 16 b8 c8 be 58 cb 95 3e 86 50 8b be dd 0f 14 3e
       -0.39202946 0.292567 -0.27209872 0.14459176
000130 11 dc 32 bf 21 c7 d0 bd 59 8c 53 3e ed 33 08 3f
       -0.69867045 -0.10194231 0.20659007 0.5320423
000140 f6 08 0c 3f e9 45 2d 3d a9 80 d2 be b8 5a 84 bf
       0.54701173 0.042303 -0.41113785 -1.0340185
000150 14 87 5e be 6a fe bb be a1 92 09 3d 1f df f7 be
       -0.21731216 -0.3671754 0.0335871 -0.48412415
000160 dd 63 13 3e 3e 41 a3 be f5 0c c6 bc ac 6c e8 be
       0.14393564 -0.31885713 -0.0241761 -0.4539541
000170 64 6f 9c be 97 cf 8d 3e f7 96 22 bf d8 8e 5a be
       -0.30553734 0.2769744 -0.63511604 -0.21343553
000180 68 e4 2a be e6 e9 49 3d df c0 93 3e 9b 20 48 bf
       -0.16688693 0.04929533 0.28858086 -0.7817475
000190 5e 45 5a be 47 d9 37 be 8a 99 c5 3d 4f eb 7f be
       -0.21315524 -0.17953978 0.09648426 -0.24992107
0001a0 fb 1e 3d 3e 14 d9 df bb 3c 66 03 bf 38 86 c3 be
       0.1846885 -0.0068312977 -0.5132787 -0.38188338
0001b0 f8 61 3d bf 7d e1 ae be a1 ab d8 3e 6b 7a 84 bf
       -0.73977613 -0.3415641 0.42318442 -1.0349859
0001c0 47 28 b2 be ee 2f 33 bf 62 d3 aa 3c 86 4f 9e bf
       -0.34796354 -0.6999501 0.020852748 -1.2368019
0001d0 6e 2e 47 bf 9e a0 b7 3e 91 2f a2 3c 64 4c 77 3e
       -0.7780522 0.3586473 0.019798072 0.24150234
0001e0 b2 9c d8 bd 32 53 04 3e 9f c8 20 3e 20 c2 c5 3e
       -0.10576762 0.12922361 0.15701531 0.38624668
0001f0 4d 1d 36 bd 55 10 f7 be ea cc a5 be 1f 1d d3 bf
       -0.044461537 -0.48254648 -0.323829 -1.6493262

hidden_layers.1.layer.weight_v f4 [128, 128]
000000 d7 d1 7f bf 5e 5a 6f 3f f5 3d 21 3f 41 3b fc be
       -0.99929565 0.93497264 0.62985164 -0.49263957
000010 21 f5 08 3d ec a1 b6 3f 09 1e dc 3e 13 41 ef 3e
       0.0334369 1.4268165 0.42991665 0.46729335
000020 59 27 cd 3e ac 1b 85 3f 44 09 39 3f ee ae 42 bf
       0.40069082 1.039907 0.72279763 -0.7604817
000030 80 21 12 bf 89 a2 37 3f 0a 51 1e bf 16 2b 0e be
       -0.57082367 0.71732384 -0.61842406 -0.13883623
000040 27 8f 6a 3f d4 81 0d bf a0 d0 f2 be db 24 07 3f
       0.91624683 -0.55276227 -0.47424793 0.5279061
000050 57 a2 85 3f cc 2e 72 3f c0 f3 2b 3e bd 20 15 bf
       1.0440167 0.94602656 0.16792202 -0.5825308
000060 f2 51 f4 be e7 27 cf bd 6d 56 81 3f 8e df 7f bf
       -0.4771877 -0.10115033 1.01045 -0.9995049
000070 60 96 96 3d 54 6a d7 be 30 bc 11 bd 98 c9 4c 3f
       0.073529005 -0.4207331 -0.03557986 0.7999511
000080 0f 5f 89 be d5 d3 c3 3f 72 bb 61 bf 3c f0 90 3e
       -0.26830336 1.5299021 -0.88176644 0.28308284
000090 e3 4a ca 3e 5a 53 2d 3f 4d 07 72 3f ae 91 24 3f
       0.3951026 0.6770531 0.9454239 0.6428479
0000a0 b0 05 30 3f 11 a0 f9 be 14 dc fd 3c 03 cd 4a bf
       0.6875868 -0.48754933 0.03098873 -0.79219073
0000b0 c8 0b 20 3f 30 30 e2 be 6b 70 d9 be e7 91 5e bf
       0.62517977 -0.4417739 -0.4246858 -0.8694138
0000c0 6f 1b cf bf 2e 4f 15 3f 5c de 30 bf 50 d4 f1 3e
       -1.6180247 0.58323944 -0.69089293 0.47232294
0000d0 8b a8 80 3f 72 ed f0 be a9 57 32 be 26 87 b3 be
       1.0051435 -0.47056156 -0.17416252 -0.35064048
0000e0 d4 8b 84 bf 59 da 18 3f 1c b3 e9 3e 76 b6 d6 be
       -1.0355172 0.5970817 0.45644462 -0.41936082
0000f0 99 a7 9f 3e 56 08 00 bd c1 75 11 bf 7a 0e 1a 3f
       0.31182554 -0.03125795 -0.56820303 0.6017834
000100 24 ea d0 3e 40 e8 47 3f 1d 19 ff 3e 23 25 6a 3f
       0.40803635 0.7808876 0.49823847 0.91462916
000110 cc ba 2f 3f ea 11 2f 3f b9 c6 38 3e 08 e6 7f 3e
       0.68644404 0.6838671 0.18044557 0.24990094
000120 c1 fd a4 bf fb e5 48 be 8c 49 b2 3e d9 cd 86 3f
       -1.288994 -0.1961898 0.34821737 1.053157
000130 60 a6 7b bf 4c 92 4b bf 45 78 85 bf f5 31 b6 3d
       -0.98300743 -0.79520106 -1.0427328 0.08896247
000140 a3 be 83 bf 82 0c d0 bd 2b fb 92 bf bc fb 9b bf
       -1.0292553 -0.10158636 -1.14829 -1.2186198
000150 ee c8 2c bf 0b 26 bb be ed e2 7b bf 69 e5 9a be
       -0.67494094 -0.36552462 -0.98393136 -0.3025315
000160 5d ad 89 bf 7a 4c 01 bf 0f 6c 63 3f 36 af 2c bf
       -1.0756031 -0.5050732 0.8883676 -0.6745485
000170 61 fb 53 bf df 5e 80 3f e4 48 b8 be e5 44 4f bf
       -0.8280545 1.0028952 -0.3599311 -0.809645
000180 d6 c0 19 bf cf 39 30 3d e2 24 67 3f 4d 19 87 bf
       -0.6005987 0.04302388 0.90290654 -1.0554596
000190 f0 73 89 3f 2a f6 be 3e f4 a2 e5 3d 93 20 4a bf
       1.0738506 0.37297183 0.112127215 -0.78955954
0001a0 eb fa 86 bf 47 b2 7c bf 83 7f 23 bf a1 5b 36 3e
       -1.0545324 -0.9870953 -0.6386644 0.17808391
0001b0 a8 28 61 3f 0e 5f 0c 3f 58 35 63 3f 95 34 5f bd
       0.8795266 0.5483254 0.8875327 -0.054493506
0001c0 de 7c 95 3e b3 7b 48 bf 79 05 80 bf 32 80 13 bf
       0.2919683 -0.7831375 -1.000167 -0.57617486
0001d0 b7 0d cf 3e 99 dc e1 3e cb 40 05 bf 85 06 5c 3f
       0.4044015 0.44113615 -0.5205199 0.8594745
0001e0 fa a0 58 3f c0 8e 15 be d1 f6 c9 3e 84 09 92 bd
       0.8462063 -0.14605236 0.39446118 -0.07130721
0001f0 26 3a 58 3f d3 09 4c bf 15 bf 9a bf 78 11 57 3e
       0.8446373 -0.7970249 -1.2089564 0.21002758
000200 5b 53 37 be 09 86 6d bd 2f d0 f3 be 16 b9 ea 3e
       -0.17902891 -0.057989154 -0.4761977 0.45844334
000210 4b 1c fb 3d af 25 9c bf 51 e6 28 3d d0 eb 96 be
       0.12261256 -1.2199 0.04123527 -0.29476786
000220 bc da 16 be 56 8d 1b bf a7 2d 62 be 3f 8b 9a 3d
       -0.14731878 -0.60762537 -0.22087727 0.0754609
000230 f5 c2 1a 3e f9 b5 04 bf d5 13 f3 3e 1d 94 e8 be
       0.15113433 -0.5184017 0.47476068 -0.454255
000240 cd 7a 44 bf 6e 60 13 3d 49 a2 e8 be ac d9 31 bc
       -0.7674988 0.035980634 -0.45436314 -0.01085512
000250 0b 58 ad be 7a 40 21 bf f4 ce 00 3f c2 65 20 bd
       -0.33856234 -0.6298901 0.50315785 -0.039159544
000260 e7 ae 52 3e 77 b4 0f 3d 4a 8b 87 bf 76 e0 7d bc
       0.20574532 0.035084214 -1.0589383 -0.01549541
000270 e7 28 e6 3d 62 00 23 3d e0 9f 3f 3e a5 d8 dd bd
       0.1123827 0.039795287 0.18713331 -0.10832337
000280 82 a0 94 bd eb 72 13 bf 88 9c 83 bc 8b 46 e2 3d
       -0.07257177 -0.57597226 -0.01606585 0.11048611
000290 ea 6c 8d 3d b3 3c 8d be f9 9e d3 be e6 7b d7 be
       0.06905539 -0.27585372 -0.41332224 -0.42086715
0002a0 f2 22 80 3d 37 87 61 bd ad 83 d4 be 16 3e 0b 3e
       0.06256665 -0.05506059 -0.4150671 0.13597903
0002b0 d9 83 20 bf 58 a6 8f 3e b9 ed d6 3d 70 a8 09 3f
       -0.62701184 0.28056598 0.10494561 0.5377264
0002c0 ec cd 01 3f fd da 63 be e3 ac ae 3e 54 d0 42 3e
       0.50704837 -0.22251506 0.34116277 0.19024783
0002d0 22 57 fe bf 14 45 63 be 41 18 13 be 7c b8 02 be
       -1.9870341 -0.2219432 -0.14364721 -0.12765688
0002e0 e1 af a5 3e a2 f4 12 bf 5f 7c 81 3c af f5 d6 3d
       0.32360747 -0.5740453 0.015806375 0.10496079
0002f0 9e ab c6 3e 62 b7 aa be b0 2b 8e be 38 58 f3 be
       0.3880281 -0.33343035 -0.27767706 -0.47528243
000300 70 3e f4 3d dd e2 2f 3e 4a bd 70 3e b1 72 78 be
       0.119259715 0.17176385 0.23509708 -0.24262501
000310 6a 5d af 3e f1 ab bb 3e 7e fc b4 3e ae bc c3 3e
       0.34250957 0.36654618 0.35348886 0.3822989
000320 65 f6 db 3e 02 27 54 3e 28 8d 33 be 5c a8 60 3e
       0.42961422 0.20718005 -0.17534316 0.21939224
000330 9c 59 9c be cd 70 1e 3f 74 81 ff 3e 15 56 db 3e
       -0.30537117 0.6189087 0.49903452 0.42839113
000340 d2 9a 04 3f 3c b9 cd 3e d2 b7 91 3e bd 43 6a 3f
       0.5179874 0.40180385 0.28460556 0.9150961
000350 25 cf d0 3e 22 e7 9c bd 89 19 6f 3f 5d c6 e6 3d
       0.4078304 -0.076612726 0.9339834 0.112683035
000360 67 1e 95 3f df 0b 3f be 81 4e 8f bf 59 45 d4 3d
       1.1649903 -0.18656872 -1.1195832 0.103647895
000370 49 cf ea 3e e8 67 0f be d8 67 0b 3e 0a 7b f7 be
       0.4586127 -0.14004481 0.13613832 -0.4833606
000380 43 53 99 3e c4 28 02 3f 70 8c 03 bf db cf 6a 3f
       0.29946336 0.50843453 -0.51386166 0.9172341
000390 2d 94 c5 be 88 f7 8f bd 3a 88 ac 3e c9 6b 2e bc
       -0.38589612 -0.07029635 0.33697683 -0.010645815
0003a0 b8 d4 72 bd c3 a9 57 3e 8a 62 2f bd 4d 78 cf 3a
       -0.059284896 0.21060853 -0.042818584 0.0015828699
0003b0 c6 fb 4e bf 68 cd 55 bf 96 67 61 be af b9 b6 3d
       -0.80852926 -0.8351655 -0.22012171 0.08922135
0003c0 fe 56 20 bf b7 0e 08 be b7 bb f5 3e 04 fc c5 3e
       -0.6263274 -0.13286863 0.47994778 0.38668835
0003d0 5e 45 bd bd b8 69 62 3e 03 67 52 3e d5 31 5e be
       -0.09241746 0.22110641 0.20547108 -0.21698697
0003e0 43 46 19 bf ef eb 95 3c d4 df bd 3e 81 ed 51 be
       -0.59872836 0.018300978 0.3708483 -0.20500757
0003f0 4b 56 57 be 55 c4 1f 3f 6f b0 5c 3e 8d d0 98 3e
       -0.21029012 0.62408954 0.21551679 0.29846612

hidden_layers.2.layer.bias f4 [128]
000000 76 49 d6 bc 7a e7 4a bd f0 09 06 bd ef e7 11 3c
       -0.026158076 -0.04953716 -0.03272432 0.008905395
000010 33 0b 8b be 54 60 e8 bd 38 ed b6 bd af 03 eb bd
       -0.27156982 -0.11346498 -0.08931965 -0.11475312
000020 42 d7 4c 3c b8 b3 cc 3e ae 88 d5 3e b6 22 9d bd
       0.012502493 0.39980865 0.4170584 -0.07672636
000030 31 32 68 be ff be 07 be b6 c1 28 be fe fa 42 bd
       -0.22675397 -0.13256453 -0.16480145 -0.047602646
000040 a1 60 8d bd ea 08 22 bd 51 5a 38 be 07 df 6d bd
       -0.06903196 -0.039559282 -0.18003203 -0.058074024
000050 4d 78 5c 3d 00 b6 fb 3c bd f4 b1 3d 9a a7 c0 bd
       0.053825665 0.030726433 0.08689258 -0.094069675
000060 1f 10 f9 3c f1 bc 2e 3c 42 a1 45 bd 44 9d cb be
       0.030403195 0.010665164 -0.04824949 -0.39768422
000070 ce a3 89 3e 3c ba 21 3e bf 41 0d bd 54 5c f0 bd
       0.26882786 0.15793699 -0.03448653 -0.1173636
000080 c7 3e 6f bd 05 55 17 3f 9f 7c 1d bc 09 a1 a9 be
       -0.05840948 0.59114105 -0.0096122315 -0.33130673
000090 07 1b 8f 3a a2 c0 54 3e 20 0f f4 be 77 bd 8d bc
       0.0010918089 0.20776609 -0.4766779 -0.017302258
0000a0 8b bf 69 bc 90 1d cf 3b 0b 2f b3 3c ec b9 2b bd
       -0.014266859 0.006320663 0.021873018 -0.041925356
0000b0 cb ff 64 be 69 7a 57 bd 46 ae 41 3d a1 3c 1b bf
       -0.22363202 -0.052606974 0.04728534 -0.6063939
0000c0 7e 13 4a bd fd cc 0d bf 69 56 34 bd 88 da dd bd
       -0.049334995 -0.5539091 -0.04402772 -0.10832697
0000d0 01 e5 17 3d b0 1d 05 3c e6 ca 41 be 17 bf 97 be
       0.03708363 0.008124754 -0.18925056 -0.29637977
0000e0 cd 8b 16 3d e1 b2 ce 3e c2 1b 35 3d 47 36 d0 3e
       0.03675442 0.4037085 0.044215925 0.4066641
0000f0 f8 a5 1c 3d 2b a2 27 bc b1 2d 22 3f 45 54 05 bd
       0.038244218 -0.010231535 0.6335097 -0.03255107
000100 8b 7c 9f be b6 c3 a7 3e a3 dd 86 3e 58 37 a4 3d
       -0.31149706 0.32766503 0.2634097 0.080183685
000110 f3 10 a6 bb b5 5b 8a 3d 52 6d e4 3d 28 fb bc be
       -0.0050679385 0.06755773 0.11153664 -0.36910367
000120 47 36 04 3d f2 54 e8 bc fa 25 40 be f5 ef 3f bb
       0.032278325 -0.028360818 -0.18764487 -0.0029287313
000130 42 e7 34 bc d2 d2 de 3b d5 ab 51 be 04 1f 66 3e
       -0.011041464 0.006800034 -0.20475705 0.22472769
000140 a8 a7 19 be c1 04 73 3b ce 77 a3 3b 79 c8 c1 bc
       -0.15005362 0.003708169 0.004988647 -0.023655163
000150 b2 d7 79 be 62 de 07 3e 72 19 44 be 3e 5c 76 bb
       -0.24398687 0.13268426 -0.19150332 -0.0037591602
000160 04 3a f7 3c 95 dd cc bd 1b f1 a3 bc 3c a3 db 3d
       0.030179031 -0.10003201 -0.020012429 0.10724494
000170 e7 27 1e 3d f6 83 80 bd b6 0a 70 3d b8 3b 14 3e
       0.038612273 -0.062751696 0.058603965 0.14475906
000180 0e e7 ec 3e 46 db c9 3d 0d dc 36 bc b9 a5 a9 be
       0.4627003 0.09856276 -0.011160863 -0.3313425
000190 a0 8d a4 be b7 dd 00 bc 64 da 56 bc b2 ec 44 bf
       -0.321393 -0.007865361 -0.013113592 -0.7692367
0001a0 04 1d 84 bc 58 26 25 bd 23 3b a7 3d 1b 58 6e bc
       -0.016127117 -0.04031977 0.08165576 -0.014547373
0001b0 f7 3f bf 3e 44 1b 41 3e 8e f1 f4 3b 2a 95 96 3e
       0.3735349 0.18858057 0.0074750846 0.29410678
0001c0 63 89 2c bd 5f ad 25 3d b6 5f 9a 3e 24 a1 74 bd
       -0.04212321 0.040448543 0.30151147 -0.05972399
0001d0 69 83 df bb 48 24 43 be e6 a4 ea bc 1f 20 34 3d
       -0.0068210852 -0.19056809 -0.028643083 0.043975946
0001e0 b8 bd ea bd b6 0d be 3c e9 35 08 3f 28 15 db be
       -0.11461967 0.023199897 0.5320726 -0.42789578
0001f0 42 5d 8e 3c bb 12 10 bd 23 76 04 3d 10 99 a5 3c
       0.017378453 -0.035174113 0.032339226 0.020214587

hidden_layers.2.layer.weight_g f4 [128, 1]
000000 54 cd 78 3e 88 41 52 bf 0c d0 00 be 80 4a 44 be
       0.24297076 -0.8213124 -0.12579364 -0.19169044
000010 21 a2 b6 be 38 f1 ad be 25 a9 06 be 9c e9 e7 be
       -0.3567057 -0.33973098 -0.13150461 -0.45295417
000020 f0 2f 86 bc 14 d0 4d bf 50 a2 a5 bf 77 cc b7 3e
       -0.01638028 -0.8039563 -1.2940159 0.35898182
000030 1e 36 44 bf e3 ad a3 be 04 fa 1d bf d3 7d 59 be
       -0.76645076 -0.31968603 -0.6170962 -0.21239404
000040 90 84 d4 3d 31 b1 8b bd de ec 60 bf f8 18 3b 3e
       0.10376847 -0.06820906 -0.8786143 0.18271244
000050 13 0f a8 be c0 00 dd bd a7 9b 44 3e 48 8f c3 be
       -0.32824 -0.10791159 0.19200002 -0.38195252
000060 3a 7e 4e bc 57 58 33 3d 9e 0d 9f be ad 77 8e bf
       -0.012603337 0.04378542 -0.31065077 -1.1130272
000070 2e ab a2 3e e9 7c 0e bf 02 c4 7d bd cf a7 20 bf
       0.31771225 -0.5565935 -0.061954506 -0.62756056
000080 23 83 3c bd 52 9b ca bf 6c 40 30 3e 91 ac 1c c0
       -0.0460235 -1.582865 0.17212075 -2.4480326
000090 ff b6 ae bd ef e4 b1 be 52 b1 db bf b3 57 36 bd
       -0.085309975 -0.34744975 -1.7163489 -0.04451723
0000a0 0f e7 60 be 90 4c 20 3d a3 37 04 bd 3d 74 3a bf
       -0.21963142 0.039135516 -0.03227962 -0.72833616
0000b0 b2 3f 97 bf 74 58 eb bd bf 4b 77 3e e1 8f 45 bf
       -1.1816313 -0.114914805 0.24149989 -0.77172667
0000c0 d5 62 44 bf f7 e9 1b c0 34 b8 ba bd 0e f4 db be
       -0.76713306 -2.436155 -0.09117165 -0.42959636
0000d0 16 10 3d 3e 8f f5 3e be 5f 2d 29 bf f6 0b 4f bf
       0.18463168 -0.1864836 -0.66084856 -0.80877626
0000e0 fe 3d f2 bd 59 60 2b bf 2e f8 53 3d da 04 04 c0
       -0.1182823 -0.6694389 0.051750354 -2.062796
0000f0 46 15 10 3d 90 95 8e 3d 2f 6f 4f bf c0 10 a9 3e
       0.035176538 0.069621205 -0.8102903 0.33020592
000100 e2 7e e2 bf c6 36 bd bf e9 17 4a bf a3 f3 9a 3e
       -1.7694972 -1.478234 -0.78942734 0.30264005
000110 1a a0 64 bc a3 45 94 3e 7c d5 b2 bf e9 9e 40 bf
       -0.013954187 0.2895938 -1.39714 -0.7524248
000120 17 35 0d 3e c8 5f 83 be 21 54 a8 bf e7 a7 d3 bd
       0.13789783 -0.25659013 -1.3150674 -0.10334759
000130 68 05 8b bd 93 96 4e 3d 5c 33 d8 be 48 f9 17 bf
       -0.067881405 0.050436568 -0.42226684 -0.5936475
000140 2e ff a6 be 59 e8 bd 3c 6c fa 9b 3d 5a 80 74 bc
       -0.32616562 0.023182081 0.076161236 -0.0149231795
000150 cc 2f b0 bf 36 6e c4 bf 80 75 51 bf 13 e7 47 3d
       -1.3764586 -1.5346134 -0.81819916 0.048804354
000160 8c c4 bd bc e2 78 b0 be d5 79 31 be 12 9c a6 be
       -0.02316501 -0.34467226 -0.17331631 -0.32540947
000170 cb fb 91 bf a7 3b a5 bf 2c 3e 99 3e a6 d0 fa be
       -1.1404966 -1.290883 0.29930246 -0.4898731
000180 6d eb da bf 11 80 c2 bf 28 9d 9f bb 96 58 ba bf
       -1.7103096 -1.5195333 -0.0048710294 -1.4558284
000190 9e 79 9b bf 3e 44 a1 be 82 4f d8 3d a5 38 42 c0
       -1.214649 -0.31497377 0.1056204 -3.0347073
0001a0 42 df 88 bd 5f 85 c6 bd a7 51 7d bf ac 7b d8 bd
       -0.06683208 -0.09693407 -0.98952717 -0.105704635
0001b0 35 ef 57 be 32 4c 37 bf f4 73 df 3d 2f 6d 3e bf
       -0.21087344 -0.7160064 0.10910788 -0.7438535
0001c0 19 ea 90 be 97 b8 69 3e 0c cd dd be 8d da 8a be
       -0.28303602 0.22824322 -0.433205 -0.27119866
0001d0 77 cc 62 be 9f 3c fa bf e7 88 06 bd 87 fc 34 be
       -0.2214831 -1.954975 -0.032845404 -0.17674457
0001e0 26 32 d3 be 73 5d c4 be 9b 33 b3 bf aa ee f3 be
       -0.41249198 -0.38352546 -1.4000124 -0.47643024
0001f0 11 9a 55 bd 23 fc 2a bd 8a 6b 8b 3e 06 2b 0f be
       -0.052148882 -0.041744363 0.27230483 -0.13981256
